src/trained_models/TinyCenterSpeed.pt (torch, 863522 bytes, 24 tensors)

conv1.weight f4 [64, 6, 3, 3]
0	0xbd15b523	-0.0365497
1	0x3d261c60	0.040554404
2	0xbd347db8	-0.044065207
3	0xbdca84c0	-0.09888601
4	0xbd8afa26	-0.06785993
5	0xbe00341b	-0.12519877
6	0x3cbf8a76	0.023381453
7	0x3dd05530	0.10172498
8	0xbcc3376e	-0.023830142
9	0x3ddfd3fa	0.10929103
10	0x3e813f68	0.25243688
11	0x3d01ad76	0.031659566
12	0x3e919925	0.28437153
13	0x3ea9138b	0.33022723
14	0x3ddf7679	0.10911269
15	0x3e40fa39	0.18845452
16	0x3e35fced	0.17772265
17	0xbd846996	-0.064654514
18	0x3ced2dc5	0.028952489
19	0xbdb750c1	-0.089509495
20	0x3d147165	0.036240954
21	0x3ca5805d	0.02020281
22	0xbbe89999	-0.0070983884
23	0x3d7c7bd5	0.061641533
24	0xbd9d6b28	-0.07686454
25	0xbe19ca93	-0.15018682
26	0x3c8abf6d	0.016936982
27	0xbdcb11a6	-0.099154755
28	0x3d0d472a	0.034491695
29	0xbd961f24	-0.07330158
30	0xbd84c486	-0.06482796
31	0x3d1bc0ae	0.03802555
32	0x3da0a5fe	0.078441605
33	0x3cb3d45d	0.021951849
34	0x3cabf59c	0.02099114
35	0x3da2b517	0.079446964
36	0x3e3fe68f	0.18740295
37	0x3e88b925	0.26703754
38	0x3ccc6479	0.024950253
39	0x3ef70979	0.48249415
40	0x3ef844c9	0.4848998
41	0x3e1efc4c	0.15525931
42	0x3e31b3f2	0.173538
43	0x3e0a7d87	0.13524447
44	0xbe0cbdff	-0.13744353
45	0x3d864a40	0.06557131
46	0xbdca64ee	-0.09882532
47	0x3da7529e	0.08170055
48	0xbd9ed42e	-0.07755314
49	0xbdf240cd	-0.11828766
50	0xbdbaff39	-0.09130711
51	0xbd9cb1bb	-0.07651087
52	0xbd1e04fc	-0.038578972
53	0xbd444fd1	-0.04792768
54	0xbe01433f	-0.12623309
55	0x3e103056	0.14080939
56	0x3db26dbc	0.087123364
57	0x3d72f1a7	0.05931249
58	0x3de95f2d	0.113951065
59	0x3d3ed0bd	0.046585787
60	0x3e25bea6	0.16186008
61	0x3e2c4983	0.16824917
62	0xbc3a23be	-0.011361061
63	0x3e3c7432	0.184037
64	0x3e40614c	0.18787116
65	0x3d783f40	0.060607195
66	0x3c538b66	0.012911653
67	0x3e688ae8	0.22709239
68	0x3c413a24	0.011793647
69	0x3ddc42eb	0.10754951
70	0x3c0ec398	0.008713625
71	0xbc9aed6a	-0.018912036
72	0xbe02e447	-0.12782393
73	0x3d16295f	0.03666055
74	0x3e54373a	0.20724192
75	0xbd0699a2	-0.03286136
76	0x3df7cc3b	0.12099501
77	0x3ddd7fb0	0.1081537
78	0x3ded4833	0.115860365
79	0x3e730566	0.23732528
80	0x3e0d9c23	0.13829093
81	0xbd460afc	-0.04835032
82	0x3dd6f331	0.10495604
83	0x3c9b95c8	0.01899232
84	0xbcf603db	-0.030031135
85	0xbcb010b8	-0.021492347
86	0xbdf33d1d	-0.11876891
87	0x3e1e6d01	0.15471269
88	0x3ea675bf	0.32511708
89	0x3d922d8c	0.071375936
90	0x3dca3446	0.098732516
91	0x3e285822	0.1643987
92	0x3dfb7714	0.12278572
93	0x3e34495d	0.17606111
94	0x3e1e429b	0.15455095
95	0x3dce72a3	0.10080459
96	0xbbe62876	-0.0070238663
97	0xbe146b4e	-0.14494058
98	0xbe564961	-0.2092643
99	0xbd2f3206	-0.042772315
100	0x3da89212	0.08230986
101	0x3e07ffcd	0.13281174
102	0xbda6d203	-0.08145525
103	0xbd65efb4	-0.0561368
104	0xbd7cc6a3	-0.061712872
105	0x3dc6260a	0.09675224
106	0x3dadb536	0.08481829
107	0x3ddfb959	0.10924024
108	0xbe1a91ef	-0.15094732
109	0xbe482dff	-0.19548796
110	0xbde7350a	-0.11289413
111	0xbdf84984	-0.12123397
112	0x3cd73d0e	0.02627423
113	0x3d1d8542	0.038457163
114	0xbd8869c2	-0.06660797
115	0x3d7cf9ec	0.06176178
116	0xbc7458aa	-0.014913717
117	0x3e3e7bbb	0.18601887
118	0x3e2e0d0c	0.16997164
119	0x3da5e769	0.081007786
120	0x3e516708	0.2044946
121	0x3e8ddca4	0.27707398
122	0x3dae0d89	0.084986754
123	0xbc61a9a0	-0.013773352
124	0xbc866ae4	-0.016408391
125	0x3ce4ca3f	0.02792847
126	0xbde434f3	-0.11142912
127	0xbe25c78f	-0.16189407
128	0xbd30d2e9	-0.04316989
129	0x3cf95898	0.030437753
130	0xbda4b6e7	-0.08042698
131	0xbd1be5ea	-0.03806106
132	0x3db13eaf	0.08654534
133	0xbd3294cd	-0.04359894
134	0x3d4f9bbb	0.050685626
135	0xbe0bc84a	-0.13650623
136	0xbe7c06c1	-0.24611951
137	0xbdd1e6c2	-0.10249092
138	0xbe0830e3	-0.13299899
139	0xbdd2ffda	-0.10302706
140	0x3cd67e62	0.02618331
141	0x3c122d50	0.008921936
142	0x3d16b3e2	0.036792643
143	0x3dfed08b	0.1244212
144	0x3c6098dc	0.0137083195
145	0xbc897acd	-0.016782189
146	0x3d92cf2d	0.07168422
147	0x3ead14a0	0.33804798
148	0x3edbd895	0.42938676
149	0x3e0bbdd1	0.13646628
150	0x3d0e977e	0.034812443
151	0x3d6a4cef	0.057202276
152	0xbd47bb4b	-0.0487626
153	0xbea5b744	-0.32366383
154	0xbe2b4ba0	-0.16728067
155	0xbe191bbd	-0.14951988
156	0xbd0703cd	-0.03296261
157	0xbd26a193	-0.040681433
158	0x3ba634e2	0.005072222
159	0x3cc7d689	0.02439429
160	0x3c863d8a	0.016386766
161	0xbd452f40	-0.048140764
162	0xbc91623d	-0.017747039
163	0xbd9d2390	-0.07672799
164	0x3c90022d	0.017579162
165	0xbefa431e	-0.4887933
166	0xbe22b113	-0.15887861
167	0x3d16214a	0.03665284
168	0xbdafca51	-0.08583511
169	0x3d532e79	0.05155799
170	0x3db9ec28	0.09078246
171	0xbdcc706a	-0.09982379
172	0x3c74dc90	0.014945164
173	0x3d55b112	0.05217082
174	0xbf0775a6	-0.5291389
175	0x3c9739b9	0.018460141
176	0x3b2277af	0.0024790575
177	0xbdb07138	-0.08615345
178	0xbd025853	-0.031822514
179	0x3b81b048	0.003957782
180	0xbda4f543	-0.080545925
181	0xbd39cd5a	-0.045361854
182	0xbc5b3202	-0.013378622
183	0xbe9f6f4e	-0.31139606
184	0xbd1a1f15	-0.0376273
185	0x3e421732	0.18954161
186	0xbd84af6b	-0.06478771
187	0xbd634185	-0.055482406
188	0xbca0833d	-0.01959383
189	0xbd9dcb61	-0.07704807
190	0xb9aab675	-0.00032560868
191	0x3d7530bd	0.059860934
192	0xbf0cab51	-0.5494891
193	0xbe1603ce	-0.14649889
194	0x3cdd4672	0.02701113
195	0xbd8a345f	-0.0674827
196	0xbd74670f	-0.059668597
197	0x3d96b459	0.07358617
198	0xbd9bedbf	-0.07613706
199	0x3ddfa913	0.1092092
200	0x3dd3d98f	0.103442304
201	0xbe9b5d29	-0.30344513
202	0x3d6c37e5	0.057670493
203	0x3d82e4a5	0.06391267
204	0x3dc2ae09	0.09505851
205	0x3df1a070	0.11798179
206	0x3c91836d	0.017762864
207	0x3d0382a2	0.032107003
208	0xbdfb86b5	-0.12281553
209	0xbd74203c	-0.059601054
210	0xbf068a6a	-0.52554953
211	0xbda8eee5	-0.082486905
212	0x3dfd6a0a	0.12373741
213	0xbd83ae51	-0.064297326
214	0x3c95c05f	0.018280206
215	0xbc280657	-0.010255418
216	0x3daa88ab	0.083268486
217	0x3d0eec1b	0.034893136
218	0x3c9860af	0.01860079
219	0x3d928493	0.07154193
220	0x3c39fbd4	0.011351544
221	0x3d70d8e2	0.058800586
222	0xbdbd0817	-0.09230059
223	0x3d2ca33b	0.042147856
224	0x3e1b9563	0.15193705
225	0x3c48af28	0.012248792
226	0xbdc3f720	-0.0956862
227	0xbdd8aa97	-0.105794124
228	0xb99fba9c	-0.00030465878
229	0x3e1bf136	0.15228733
230	0x3d8436ac	0.0645574
231	0x3df73444	0.12070516
232	0x3da7a447	0.0818563
233	0x3d081f56	0.03323301
234	0xbcdd72d8	-0.0270323
235	0x3d957e31	0.0729946
236	0xbd47b92f	-0.04876059
237	0xbd96be25	-0.07360486
238	0x3d3237cb	0.04351024
239	0xbdabed67	-0.0839489
240	0xbced0964	-0.028935142
241	0x3ca9eb24	0.020742007
242	0xbcf14077	-0.029449685
243	0x3d81bc1e	0.06334709
244	0x3e720b5b	0.23637144
245	0x3d65cf90	0.05610615
246	0x3e0c5126	0.1370283
247	0x3d93a371	0.07208908
248	0x3e0a3fd6	0.13500914
249	0xbd3059d9	-0.043054435
250	0x3df49e96	0.1194431
251	0x3d608d28	0.054822117
252	0xbe098e39	-0.1343316
253	0xbe1c2c16	-0.15251192
254	0xbe36a1f9	-0.17835225
255	0x3e4f9cba	0.2027463

conv1.bias f4 [64]
0	0x3e3dd8f0	0.18539786
1	0x3cfc8719	0.030826138
2	0x3cd59b23	0.026074952
3	0x3db290ad	0.08719001
4	0xbba1ea0d	-0.004941231
5	0x3c3705e8	0.011170842
6	0xbe0dbf50	-0.13842511
7	0xbd23ee5e	-0.040022247
8	0x3cc189c8	0.02362527
9	0xbdd74275	-0.105107225
10	0x3dc3b5b9	0.09556145
11	0xbca21d7b	-0.019789448
12	0x3e467c45	0.19383343
13	0xbd73f44b	-0.059559148
14	0xbdae80a0	-0.08520627
15	0xbe560527	-0.20900403
16	0x3cf8b9a6	0.030361962
17	0xbe080a29	-0.13285126
18	0xbd9f0237	-0.07764094
19	0xbe1dcbc2	-0.15409759
20	0x3c2809d8	0.010256253
21	0xbdc97b65	-0.09837989
22	0xbd3724ec	-0.044712946
23	0xbb03ee53	-0.0020131066
24	0x3da6ec45	0.081505336
25	0xbdf070d8	-0.11740273
26	0xbd658da3	-0.05604328
27	0x3d6084b9	0.054814074
28	0xbdd3d875	-0.1034402
29	0xbd888ee4	-0.06667879
30	0x3db94434	0.09046212
31	0xbdec95b3	-0.1155199
32	0xbd503880	-0.050835133
33	0xbd610a1d	-0.054941285
34	0x3e13fcb1	0.14451863
35	0xbe45278d	-0.19253369
36	0x3e4f3f03	0.20238881
37	0xbe11c526	-0.14235362
38	0x3e165b1b	0.14683191
39	0x3d105b7c	0.035243496
40	0x3dd5bd4c	0.10436496
41	0xbded8e32	-0.11599387
42	0x3e306b92	0.17228535
43	0xbe093f88	-0.13403141
44	0x3d4de628	0.050268322
45	0xbca0368b	-0.019557258
46	0xbc346461	-0.01101026
47	0x3e6ea512	0.23305157
48	0x3d12771c	0.035758123
49	0x3cefe012	0.02928165
50	0xbe3d8683	-0.18508343
51	0xbdb1f693	-0.086896084
52	0x3d5bd767	0.05367222
53	0x3c7b4cc5	0.0153381275
54	0x3d975e0b	0.07390984
55	0xbd1e9389	-0.03871492
56	0x3d228ac2	0.03968311
57	0x3dd9f69c	0.1064274
58	0xbe01656d	-0.12636347
59	0x3c02fb87	0.007994539
60	0x3e2b3c65	0.16722257
61	0xbd2c53db	-0.04207216
62	0x3d9a4524	0.07532719
63	0xbd75e8d7	-0.060036507

bn1.weight f4 [64]
0	0x3edbf53d	0.4296054
1	0x3e82dea1	0.25560477
2	0x3f501e2e	0.8129605
3	0x3f10af0f	0.5651712
4	0x3e8ecdb9	0.2789133
5	0x3f5996d1	0.8499575
6	0x3f1508b4	0.58216405
7	0x3f270ab3	0.652507
8	0x3f2fc08b	0.6865317
9	0x3f38508e	0.71997917
10	0x3e97a59b	0.29618534
11	0x3f3b54ea	0.73176444
12	0x3f6303a0	0.88677406
13	0x3f470eab	0.77756757
14	0x3f5639ef	0.8368215
15	0x3f575c7c	0.84125495
16	0x3f3d17ce	0.7386445
17	0x3f2293e4	0.63506913
18	0x3e845895	0.25848833
19	0x3eeab816	0.4584357
20	0x3f7dd75b	0.9915673
21	0x3e4dcd0d	0.20097752
22	0x3eb80ab3	0.35945663
23	0x3f4bb7fa	0.795776
24	0x3f37cc16	0.71795785
25	0x3eb77b30	0.35836172
26	0x3f6a4cce	0.91523445
27	0x3f013cef	0.504836
28	0x3f45b517	0.77229446
29	0x3e8759a0	0.26435566
30	0x3f3113a9	0.69170624
31	0x3f90d408	1.1314707
32	0x3e3429ab	0.1759402
33	0x3f5323d5	0.8247655
34	0x3ebbbcc2	0.36667448
35	0x3f90aeb5	1.1303316
36	0x3f3695e7	0.7132248
37	0x3f37ddfb	0.7182309
38	0x3f54ab81	0.83074194
39	0x3f3eeb0b	0.745774
40	0x3eeaf147	0.45887205
41	0x3f100a10	0.56265354
42	0x3f4aed58	0.7926841
43	0x3f64b07c	0.89331794
44	0x3f52721e	0.8220538
45	0x3f21ce77	0.63205665
46	0x3f3295b5	0.69759685
47	0x3f65a05e	0.89697826
48	0x3f26ade2	0.65109074
49	0x3e8b0e4c	0.27159345
50	0x3f2dd4d0	0.6790285
51	0x3f62cd9b	0.8859498
52	0x3f2c31c1	0.6726342
53	0x3e750e80	0.23931313
54	0x3f604839	0.87610203
55	0x3f28cd23	0.65938014
56	0x3f1b89b5	0.60757
57	0x3e0e6a94	0.13907844
58	0x3f7d4fc5	0.98949844
59	0x3e700faf	0.23443483
60	0x3f4257e6	0.7591537
61	0x3f613a63	0.87979716
62	0x3f1281fc	0.5722959
63	0x3f5c3d86	0.8603138

bn1.bias f4 [64]
0	0xbd831f2e	-0.064024314
1	0xbf0da5ac	-0.5533092
2	0x3c9993c2	0.018747214
3	0xbe0110df	-0.12604092
4	0xbefc1d1e	-0.49240965
5	0xbdf88e9b	-0.12136575
6	0xbde5b302	-0.11215784
7	0xbe39b461	-0.18135215
8	0xbe32f9cf	-0.17478107
9	0xbaf7a64e	-0.0018894167
10	0xbeba9dca	-0.36448509
11	0x3df1e800	0.118118286
12	0x3b9d5b31	0.0048021306
13	0xbe484f73	-0.19561557
14	0xbddb00c9	-0.10693509
15	0x3e8bd136	0.27308053
16	0xbc3e3a39	-0.011610561
17	0xbe3b8f79	-0.18316449
18	0xbf0e65c5	-0.5562404
19	0xbdaf190c	-0.08549699
20	0x3d9df910	0.077135205
21	0xbec24c26	-0.37948722
22	0xbe010345	-0.12598903
23	0xbcb828a9	-0.022480326
24	0xbe207ab1	-0.15671803
25	0xbeb311ce	-0.3497452
26	0x3db67023	0.08908107
27	0xbde7a123	-0.11310031
28	0xbd9b0d0b	-0.07570847
29	0xbf08deba	-0.53464854
30	0xbcccf48b	-0.02501895
31	0x3e85026b	0.25978407
32	0xbe3b8661	-0.1831298
33	0x3d46d63e	0.04854416
34	0xbdf46cfc	-0.119348496
35	0x3cb88070	0.022522181
36	0xbd9795e7	-0.074016385
37	0xbc15f01b	-0.009151484
38	0xbe345aec	-0.17612809
39	0xbdc31d39	-0.09527058
40	0xbe6d916a	-0.23200002
41	0xbdb829f2	-0.089923754
42	0xbe0bcd97	-0.13652645
43	0x3dbda528	0.09260017
44	0xbe33a84c	-0.17544669
45	0x3cdc915e	0.026924785
46	0xbdb94569	-0.09046442
47	0x3dca48d6	0.098771736
48	0xbda94dc4	-0.08266786
49	0xbee50335	-0.4472901
50	0xbd994abd	-0.07484958
51	0x3ea58df4	0.32334864
52	0x3d11c010	0.035583556
53	0xbf06617f	-0.5249252
54	0xbb9ba415	-0.0047497847
55	0xbe1270a9	-0.14300789
56	0xbd9cbf64	-0.07653692
57	0xbe8a9cfc	-0.27072895
58	0xbd3c9e47	-0.046049383
59	0xbeb3daed	-0.35127965
60	0xbe468721	-0.19387485
61	0x3e016353	0.12635545
62	0xbe07729c	-0.13227314
63	0xbe499f1d	-0.19689603

bn1.running_mean f4 [64]
0	0x3e4dee59	0.20110454
1	0x3dd5ef4c	0.10446033
2	0xbc0d4128	-0.0086214915
3	0x3c73bdea	0.014876822
4	0x3d4b012d	0.04956167
5	0x3ae0b183	0.0017142746
6	0xbe7c6c07	-0.24650584
7	0xbe042db0	-0.12908053
8	0xbd0fc274	-0.035097554
9	0xbe807b84	-0.25094235
10	0x3e2cd680	0.168787
11	0xbd59ed4c	-0.05320482
12	0x3e0efc70	0.13963485
13	0xbe3099cd	-0.1724617
14	0xbe06c87f	-0.1316242
15	0xbe8033f6	-0.25039643
16	0xbce01ca0	-0.0273574
17	0xbe3756ea	-0.17904249
18	0xbc54b076	-0.012981525
19	0xbea484e6	-0.32132643
20	0xbd7d9989	-0.061914
21	0xbbcc18de	-0.0062285503
22	0xbd830a72	-0.06398477
23	0xbd81e308	-0.06342131
24	0x3d181abb	0.037134867
25	0xbd7194da	-0.058979847
26	0xbe6db4d1	-0.23213507
27	0x3c38ca67	0.011278725
28	0xbe1ceec5	-0.15325458
29	0xbc479cc1	-0.012183369
30	0x3cc9ca44	0.02463258
31	0xbe08eef8	-0.1337241
32	0x3bf61a7e	0.0075104823
33	0xbdd52d1c	-0.104089946
34	0x3e10b586	0.14131746
35	0xbe6ffac9	-0.2343551
36	0x3e17f071	0.14837815
37	0xbe39f24c	-0.18158835
38	0x3df00898	0.11720389
39	0xbd78ed2b	-0.060773056
40	0x3db51d22	0.08843447
41	0xbe55853a	-0.20851603
42	0x3d828b4c	0.06374225
43	0xbe5ceac5	-0.21573932
44	0xbbc3b7f9	-0.005972859
45	0xbd3d6d67	-0.046246912
46	0xbd8e8fb5	-0.06961004
47	0x3e2af8cc	0.16696471
48	0xbc0d978f	-0.008642091
49	0x3d70b86d	0.058769632
50	0xbea63a80	-0.32466507
51	0xbe3dcb4e	-0.18534586
52	0xbcc76225	-0.024338791
53	0x3d4b803d	0.049682844
54	0xbd0b3603	-0.033987056
55	0xbddf0f9b	-0.108916484
56	0xbda30bac	-0.079612106
57	0x3e207a37	0.15671621
58	0xbe1ee154	-0.15515643
59	0x3d6c4400	0.057682037
60	0x3de463ab	0.11151823
61	0xbdbaea79	-0.09126753
62	0xb95ba0a1	-0.00020945306
63	0xbd9d4e40	-0.07680941

bn1.running_var f4 [64]
0	0x3c11f4c3	0.008908453
1	0x3da64572	0.081187144
2	0x3d240a40	0.040048838
3	0x3e1f75f4	0.1557234
4	0x3d4540c2	0.04815746
5	0x3c02a11a	0.00797298
6	0x3e8b077a	0.27154142
7	0x3e1a0adf	0.1504321
8	0x3d754a28	0.059885174
9	0x3ecea498	0.4035995
10	0x3db117dd	0.0864713
11	0x3d268d82	0.040662296
12	0x3d8fdd0a	0.07024582
13	0x3e46259e	0.19350287
14	0x3d614726	0.054999493
15	0x3da9a041	0.08282519
16	0x3db3a13f	0.087709896
17	0x3d34b374	0.044116452
18	0x3d8a22e5	0.06744937
19	0x3f2287e4	0.634886
20	0x3dcb5c35	0.099296965
21	0x3deb630f	0.11493503
22	0x3d2a5063	0.04158057
23	0x3d9a1f6e	0.07525526
24	0x3d635164	0.055497542
25	0x3d4f2ff4	0.05058284
26	0x3ede92ba	0.43471318
27	0x3d2a4e52	0.0415786
28	0x3d9a3c97	0.07531088
29	0x3d715264	0.058916464
30	0x3dcd10e5	0.10012988
31	0x3c5071cc	0.012722444
32	0x3d4477d4	0.04796584
33	0x3d56ccf8	0.052441567
34	0x3c90aac8	0.01765956
35	0x3d33bbac	0.04388015
36	0x3d8befe1	0.06832863
37	0x3d71cb7c	0.05903195
38	0x3cce445f	0.025179086
39	0x3e1b771b	0.15182154
40	0x3c80d4b4	0.015726425
41	0x3e2bc81b	0.16775553
42	0x3e4904f7	0.196308
43	0x3e079379	0.1323985
44	0x3d9aeae9	0.07564337
45	0x3d2716b4	0.040793136
46	0x3d8fe48f	0.07026016
47	0x3df1b240	0.118015766
48	0x3d4584a5	0.048222203
49	0x3c7aecbb	0.01531523
50	0x3eaafac9	0.3339446
51	0x3e492202	0.19641879
52	0x3e046386	0.1292859
53	0x3ca232d3	0.019799626
54	0x3e6635c6	0.2248145
55	0x3db625f6	0.08893959
56	0x3e9252cb	0.2857879
57	0x3d47b6af	0.048758205
58	0x3caad7e7	0.020854903
59	0x3d38d74e	0.045127206
60	0x3d5fd31e	0.054644696
61	0x3dafc4bf	0.08582448
62	0x3df0ce23	0.117580675
63	0x3beff9c7	0.007323477

conv2.weight f4 [128, 64, 3, 3]
0	0xbe15f419	-0.14643897
1	0xbda07fd0	-0.07836878
2	0x3d928abb	0.07155367
3	0xbe14fe99	-0.14550246
4	0x3c3dbcf2	0.011580693
5	0x3d02942f	0.0318796
6	0xbdae9331	-0.08524168
7	0x3d24d907	0.040246036
8	0x3d87a5d2	0.066234246
9	0xbc57e416	-0.0131769385
10	0x3d24ea43	0.040262472
11	0x3e490f4c	0.19634742
12	0xbd8f2545	-0.069895305
13	0xbccca072	-0.02497885
14	0x3d90a8e7	0.070634656
15	0xbda75fe7	-0.08172589
16	0xbcc21159	-0.023689913
17	0x3df203da	0.11817141
18	0xbd59cc13	-0.053173136
19	0xbe3b7c58	-0.18309152
20	0xbc245b5f	-0.01003155
21	0xbc0c88ae	-0.008577509
22	0xbe851183	-0.25989923
23	0xbda1783e	-0.078842625
24	0xbd168b6a	-0.03675405
25	0xbe8b4d78	-0.2720754
26	0xbe14685c	-0.14492935
27	0x3d1119af	0.035424884
28	0x3e195be6	0.14976463
29	0x3d3ab3f8	0.045581788
30	0xbbcc272e	-0.0062302565
31	0x3d7170f5	0.058945615
32	0x3e32b1ee	0.17450687
33	0xbd0acd6b	-0.033887308
34	0x3dc6ddfb	0.09710308
35	0x3e00309e	0.12518546
36	0xbccb5e26	-0.024825167
37	0xb9dbcda6	-0.00041924155
38	0x3a7fe50e	0.000976161
39	0xbcfbd15a	-0.030739475
40	0x3e813373	0.25234565
41	0x3dbf4b81	0.09340573
42	0xbd9cbbc1	-0.07652999
43	0x3de00637	0.109386854
44	0xbbf89ba8	-0.007586915
45	0xbc2743a9	-0.0102090025
46	0xbd7319b4	-0.059350684
47	0xbdc9de8f	-0.09856903
48	0xbdc35427	-0.09537535
49	0xbe2c3bb6	-0.16819653
50	0xbde6df42	-0.11273052
51	0xbddca215	-0.10773102
52	0xbe257bf5	-0.16160567
53	0xbdd2822d	-0.10278735
54	0x3c0fe202	0.008781912
55	0x3d698862	0.05701483
56	0x3e1ddde0	0.1541667
57	0x3d023e97	0.03179797
58	0xbdc03d31	-0.09386671
59	0xbd54566d	-0.051840235
60	0xbe0a32c8	-0.13495934
61	0xbd89e555	-0.06733195
62	0xbd32bb1f	-0.043635484
63	0x3e6e0d49	0.23247255
64	0xbda30156	-0.07959239
65	0xbd7e89c7	-0.062143113
66	0xbde6f985	-0.11278061
67	0x3bbe4399	0.005806398
68	0xbea46cba	-0.32114202
69	0xbdf08de9	-0.11745817
70	0xbd0624b2	-0.03274984
71	0xbdca5474	-0.098793894
72	0x3d9fb124	0.07797459
73	0x3dd135d0	0.10215342
74	0x3e09789b	0.13424914
75	0x3d4b3e98	0.04962024
76	0x3e1258be	0.14291665
77	0x3d8ec189	0.06970508
78	0x3d0d9b31	0.03457183
79	0x3e58a264	0.21155697
80	0xbd785491	-0.060627524
81	0xbe352c58	-0.17692697
82	0xbe401d5f	-0.18761204
83	0xbdfc192a	-0.12309487
84	0xbe15b1e8	-0.14618647
85	0xbe8cd381	-0.27505115
86	0xbddf087d	-0.10890291
87	0xbd4f4fee	-0.050613336
88	0xbe2c9894	-0.16855079
89	0x3bb85981	0.005625904
90	0x3c908b09	0.017644422
91	0xbcf8824d	-0.03033557
92	0xbb46f662	-0.0030359258
93	0x3d469535	0.04848214
94	0x3e0f758b	0.14009683
95	0x3d79dfef	0.061004575
96	0xbd8a7329	-0.06760246
97	0x3d0a030a	0.033694305
98	0x3d955467	0.07291489
99	0xbd098e22	-0.033582814
100	0xbe16c553	-0.1472371
101	0xbca21f64	-0.019790359
102	0xbdb3db99	-0.08782119
103	0xbd9af23a	-0.07565732
104	0xbe166333	-0.14686279
105	0x3ca9c7db	0.020725181
106	0xbd7591c3	-0.059953462
107	0xbd635869	-0.055504236
108	0x3c660c69	0.014041045
109	0xbcf37b16	-0.029721778
110	0xbdaa5591	-0.08317102
111	0x3dcfb40a	0.101417616
112	0xbd419aa0	-0.047266603
113	0xbde3b1b4	-0.111178786
114	0x3da188d1	0.07887424
115	0xbe0b9868	-0.13632357
116	0xbdf65b6c	-0.12029156
117	0x3cad3106	0.02114154
118	0xbd57cb22	-0.052683957
119	0xbe6181bd	-0.22022147
120	0x3e0e6232	0.13904646
121	0xbd82f3af	-0.06394135
122	0xbdd8cde8	-0.105861485
123	0x3db72c34	0.08943978
124	0x3d351ba8	0.04421583
125	0x3b3a31bf	0.0028410999
126	0xbd8e47df	-0.06947302
127	0xbe6ba6f0	-0.230129
128	0xbe16f986	-0.14743623
129	0x3c6e9fb4	0.014564443
130	0xbbf3b88e	-0.007437772
131	0xbe040752	-0.12893417
132	0xbd0c3115	-0.034226496
133	0xbe185bbd	-0.14878745
134	0xbe462986	-0.19351777
135	0x3d465b89	0.04842714
136	0xbdfb83ee	-0.12281023
137	0xbdb04690	-0.08607209
138	0x3c58ebb2	0.013239788
139	0xbe26e7b7	-0.1629933
140	0xbe1760e7	-0.14783059
141	0xbccfc558	-0.025362656
142	0x3d308d1f	0.043103334
143	0x3da74260	0.08166957
144	0xbcd227a7	-0.025653673
145	0x3da03486	0.07822518
146	0x3d82b516	0.06382196
147	0xbdc7c1ee	-0.09753786
148	0xbce56cef	-0.028006045
149	0x3dff9794	0.12480083
150	0x3d023cb2	0.031796165
151	0x3c55af73	0.013042319
152	0x3c678306	0.0141303595
153	0x3c800bd0	0.015630633
154	0x3e002248	0.12513077
155	0xbcd9a1b8	-0.026566371
156	0xbe0d3bc9	-0.13792337
157	0xbd18ebe5	-0.03733434
158	0xbcd6b920	-0.026211321
159	0xbd9d918e	-0.07693778
160	0xbd82f7a1	-0.06394888
161	0xbd24cd69	-0.040234957
162	0xbd042c1a	-0.03226862
163	0xbdcbfed4	-0.09960714
164	0xbcd1b21d	-0.025597626
165	0x3d457f10	0.04821688
166	0x3d86fa55	0.06590716
167	0xbd2cee1f	-0.042219277
168	0x3d20aee6	0.039229296
169	0xbd1ee38b	-0.03879122
170	0x3d35c7cf	0.044380005
171	0xbcaad760	-0.020854652
172	0xbdd7986c	-0.10527119
173	0xbe12e2a4	-0.14344269
174	0x3dfad87a	0.12248321
175	0xbe373ba4	-0.17893845
176	0xbd7dc098	-0.06195125
177	0xbc12763a	-0.00893932
178	0xbdcd4de7	-0.10024624
179	0xbdd8bf35	-0.10583345
180	0xbcec6ebd	-0.028861398
181	0xbd7b3cf3	-0.061337423
182	0xbdd7f6d9	-0.10545129
183	0xbd92c82a	-0.071670845
184	0xbda546cf	-0.08070146
185	0xbd35fad7	-0.044428673
186	0x3d4eaa32	0.05045528
187	0x3d8a5ee6	0.06756382
188	0x3d27f842	0.04100824
189	0xbbaef5e9	-0.0053393734
190	0xbd208ff5	-0.039199788
191	0x3c4f36ad	0.012647313
192	0x3d522121	0.051301125
193	0x3b22dab0	0.0024849586
194	0xbc914fe6	-0.017738294
195	0xbd2d6bf4	-0.04233928
196	0xbb6ebae7	-0.003642732
197	0x3d0e0f8c	0.034682795
198	0x3bbe2b60	0.0058035105
199	0xbce614fd	-0.02808618
200	0xbdd4717a	-0.103732064
201	0xbbba08aa	-0.0056773024
202	0xbde7867d	-0.113049485
203	0xbe8f2f64	-0.27965844
204	0xbcd91d68	-0.02650328
205	0xbdb0e68b	-0.086377226
206	0xbe0ce640	-0.13759708
207	0x3da6874a	0.08131273
208	0x3df791f6	0.12088387
209	0x3e222480	0.15834236
210	0x3c876bfa	0.01653098
211	0x3cd0fed4	0.025512137
212	0xbdd50e83	-0.104031585
213	0x3de52a4c	0.11189708
214	0x3dae902d	0.08523593
215	0x3d1a9e34	0.03774853
216	0x3ca131a4	0.01967699
217	0x3dd9537b	0.10611626
218	0x3d8db01c	0.06918356
219	0x3e59c3d8	0.21266115
220	0xbcd04d07	-0.025427354
221	0xbe345dd2	-0.17613915
222	0xbbbc0f20	-0.0057391077
223	0x3d46cdba	0.04853604
224	0xbdeeea5f	-0.116657965
225	0x3d845bd3	0.064628266
226	0xbc814317	-0.015779061
227	0x3da541b3	0.08069172
228	0xbd3eeeda	-0.046614505
229	0x3e50eee7	0.20403634
230	0x3dc12ed0	0.09432757
231	0xbdb16430	-0.086616874
232	0x3cee220b	0.029068967
233	0x3d4c3ca4	0.04986252
234	0xbdc3e0c1	-0.09564353
235	0x3daa27df	0.08308386
236	0xbdef27b0	-0.11677492
237	0xbc990f2e	-0.018683996
238	0xbd9c2088	-0.07623392
239	0x3d8a129b	0.0674183
240	0x3d89fa67	0.067372136
241	0xbd4892c6	-0.0489681
242	0x3de693f9	0.11258692
243	0xbe1f81a8	-0.15576804
244	0xbe010528	-0.12599623
245	0x3d58c4c1	0.052922014
246	0x3e49625e	0.1966643
247	0x3da5d5d4	0.08097425
248	0xbd68dbdc	-0.0568503
249	0xbcec991d	-0.028881604
250	0x3d7b11d4	0.0612963
251	0xbda8e0f9	-0.08246035
252	0xbbcd3b68	-0.0062631853
253	0xbcbb178d	-0.022838378
254	0xbe09b5ff	-0.13448332
255	0xbc20f871	-0.009824858

conv2.bias f4 [128]
0	0x3c8bd759	0.01707046
1	0xbc234336	-0.009964755
2	0x3d0ca2f9	0.03433511
3	0x3c2799e7	0.010229564
4	0x3c916d6b	0.01775237
5	0xbc8a7edf	-0.0169062
6	0xbcfdbefe	-0.030974861
7	0x3d182460	0.037144065
8	0x3d3dbe23	0.046323907
9	0xbcc8451c	-0.024447016
10	0x3c08b322	0.00834349
11	0x3b996a71	0.0046818783
12	0xbc8f4aa0	-0.017491639
13	0xbc17beb1	-0.009261773
14	0x3d1b1e59	0.03787074
15	0x3c91bc37	0.017789943
16	0xbaef7a9b	-0.0018270792
17	0xbd0c8f5d	-0.03431641
18	0x3cb2fd26	0.021849226
19	0x3c927c69	0.017881589
20	0x3b9fec22	0.004880444
21	0x3c955707	0.018229974
22	0x3c5be76a	0.013421873
23	0x3ba74c5e	0.005105539
24	0xbca07495	-0.01958684
25	0xbd06f8ce	-0.032952122
26	0xbd105bf5	-0.035243947
27	0xbb1a1456	-0.0023510656
28	0xbcb300ba	-0.021850932
29	0xbd05f592	-0.032704897
30	0xbc842d23	-0.016134804
31	0xbd1141cf	-0.03546315
32	0xbd016f2d	-0.031600166
33	0x3cc308a3	0.02380783
34	0x3c6e29a6	0.014536297
35	0xbc99da1c	-0.01878076
36	0x3c5958a3	0.013265762
37	0xbb276305	-0.0025541198
38	0xbd12823d	-0.035768736
39	0xbcf984a6	-0.03045876
40	0x3bfd20da	0.0077248635
41	0xbc866781	-0.016406776
42	0xbcb1650f	-0.021654634
43	0x3cf7841f	0.030214367
44	0x3c5f0e7e	0.013614295
45	0xbd05110c	-0.03248696
46	0xbcf6fab7	-0.030148847
47	0xbca7e243	-0.020493632
48	0x3a1b5a7e	0.0005926265
49	0x3ce0ec49	0.02745642
50	0x3d362dca	0.04447726
51	0x3d14b61e	0.036306493
52	0xba2ca208	-0.0006585424
53	0xbd2f3813	-0.042778086
54	0x3c23bc27	0.0099935895
55	0xbd1d6c8f	-0.038433608
56	0x3c751a03	0.014959815
57	0x3cb02908	0.02150394
58	0x3d16d138	0.03682062
59	0xbc952080	-0.018203974
60	0xbc46e6db	-0.012140001
61	0x3d08593f	0.033288237
62	0x3cd8e748	0.026477471
63	0x3d19a745	0.037513036
64	0x3cb6a0ae	0.022293415
65	0xbc23e7c2	-0.010003986
66	0xbd5e6d0b	-0.05430321
67	0x3c850210	0.016236335
68	0x3cec7423	0.028863972
69	0x3c2ceea3	0.010554942
70	0xbb89e819	-0.0042085764
71	0x3c749cac	0.014929932
72	0x3d1d8e2e	0.03846567
73	0xbb0624c7	-0.0020468698
74	0xbbbb3a66	-0.0057137487
75	0x3d40a0f0	0.047028482
76	0x3d010dfc	0.031507477
77	0x3d5a90c5	0.05336072
78	0xb9b6c74e	-0.0003486224
79	0xbb1a0c68	-0.002350593
80	0xbce93d5f	-0.028471647
81	0x3d03d620	0.032186627
82	0x3cf45f27	0.029830528
83	0x3ced9d14	0.029005565
84	0x3ccca9b0	0.024983257
85	0x3a1f8fc1	0.00060867897
86	0x3c3910e7	0.011295534
87	0x3d01c8c3	0.031685602
88	0x3cea296f	0.02858421
89	0x3c9f6746	0.019458424
90	0x3ba27e38	0.004958894
91	0xbc73e1d4	-0.014885385
92	0xbb6622df	-0.0035116
93	0x382b811c	4.088982e-05
94	0xba99ba88	-0.0011728564
95	0x3c4695d8	0.0121206865
96	0xbc296645	-0.010339324
97	0xbb8e14c7	-0.004335973
98	0xbc87b588	-0.016566053
99	0x3cc67f26	0.024230551
100	0xbd6d016f	-0.057862695
101	0xbc6b1b48	-0.014349766
102	0xbd215031	-0.039383117
103	0x3d011a9b	0.031519514
104	0x3cb8b198	0.02254562
105	0x3ca0cae5	0.019627998
106	0xbd37166c	-0.044699118
107	0xbcdfd1ab	-0.027321657
108	0x3b8447fe	0.0040369025
109	0xbc96f35c	-0.01842659
110	0x3cb3b324	0.021936007
111	0x3d19d939	0.037560675
112	0xbd2ba26a	-0.041902937
113	0x3a143234	0.0005653233
114	0xbc98fc98	-0.018675134
115	0xbd135bca	-0.03597621
116	0x3c94c72d	0.01816138
117	0x3cdee392	0.027208123
118	0x3c1f90fd	0.009739158
119	0x3d21066b	0.03931276
120	0x3c48beeb	0.01225255
121	0x3bd2836d	0.0064243586
122	0xbc0cbc3c	-0.0085898
123	0x3c0ce16d	0.008598668
124	0x393a9c26	0.00017796512
125	0x3d2ae5d9	0.041723106
126	0xbd73adf2	-0.05949206
127	0xbd90917d	-0.07059

bn2.weight f4 [128]
0	0x3f29a861	0.6627255
1	0x3f689312	0.9084941
2	0x3f65c36f	0.89751333
3	0x3f57a51d	0.8423632
4	0x3f69a7e2	0.91271794
5	0x3f7185a9	0.94344574
6	0x3f6bd350	0.9211931
7	0x3f7d7c8a	0.99018157
8	0x3f5ba238	0.857944
9	0x3f7d2113	0.9887859
10	0x3f934bf8	1.1507559
11	0x3f96d700	1.1784363
12	0x3f614209	0.87991387
13	0x3f766ff2	0.96264565
14	0x3f4e2910	0.80531406
15	0x3fc82b1e	1.5638158
16	0x3f68b49c	0.9090059
17	0x3f5b6763	0.8570463
18	0x3f784cb3	0.96992034
19	0x3f769c21	0.96331984
20	0x3f7c0130	0.9843931
21	0x3f74709e	0.9548434
22	0x3f937c20	1.1522255
23	0x3f735639	0.9505344
24	0x3f538dd5	0.82638294
25	0x3f800b9b	1.0003542
26	0x3f5bd204	0.85867333
27	0x3f776514	0.9663861
28	0x3f8fa63d	1.1222607
29	0x3f3bd2dd	0.73368627
30	0x3f4e52aa	0.80594885
31	0x3f6a2da2	0.9147588
32	0x3f4940aa	0.78614295
33	0x3fae8a66	1.3635986
34	0x3f85734f	1.0425814
35	0x3f857410	1.0426044
36	0x3f849144	1.0356832
37	0x3f3becdd	0.734083
38	0x3f83f34a	1.0308621
39	0x3f8e3643	1.1110309
40	0x3f820161	1.0156671
41	0x3f81410f	1.0097979
42	0x3f88a3b7	1.0674962
43	0x3f7b2c3c	0.9811437
44	0x3f76d85b	0.9642388
45	0x3f7f3202	0.9968568
46	0x3f6083b3	0.8770096
47	0x3f8683a8	1.0508928
48	0x3f853da4	1.0409436
49	0x3f93769c	1.1520572
50	0x3f7250e6	0.9465469
51	0x3f8325fa	1.0245965
52	0x3f7e8a59	0.9942985
53	0x3f7c64d2	0.9859134
54	0x3f8fcac8	1.1233759
55	0x3f66d029	0.9016138
56	0x3f86c827	1.0529832
57	0x3f854f8a	1.0414898
58	0x3f84812a	1.0351918
59	0x3f86e28d	1.0537888
60	0x3f6b0361	0.9180203
61	0x3f82b4ea	1.021146
62	0x3f5b2bfa	0.8561398
63	0x3f6022c6	0.8755306
64	0x3f789286	0.9709858
65	0x3f8fc2ba	1.1231301
66	0x3f97adb3	1.1849884
67	0x3f582a26	0.84439313
68	0x3f974e9e	1.1820867
69	0x3f60e18d	0.87844163
70	0x3f8073e8	1.0035372
71	0x3f7f1c22	0.996523
72	0x3f93b8ce	1.1540773
73	0x3f802769	1.0012027
74	0x3f8d1895	1.1023127
75	0x3f6b5ed3	0.91941565
76	0x3f3945a1	0.7237187
77	0x3f5d13fd	0.86358625
78	0x3f6b681a	0.9195572
79	0x3f4216b1	0.75815874
80	0x3f7f3167	0.99684757
81	0x3f82726a	1.0191166
82	0x3f73ef4d	0.9528702
83	0x3f823f8f	1.0175647
84	0x3f6e612f	0.9311704
85	0x3f6931a7	0.9109139
86	0x3f80a382	1.0049899
87	0x3f8ce426	1.1007125
88	0x3f96f626	1.1793869
89	0x3f89d968	1.0769472
90	0x3f3ef8f7	0.7459864
91	0x3f672ffb	0.9030759
92	0x3f811197	1.0083493
93	0x3f852833	1.0402893
94	0x3f94b89c	1.1618838
95	0x3f7d9277	0.9905161
96	0x3f7636ae	0.96177185
97	0x3f5b3cd0	0.8563967
98	0x3f627681	0.8846207
99	0x3f7cd341	0.9875985
100	0x3f6f09eb	0.9337451
101	0x3f6ec49b	0.93268746
102	0x3f6a3bc0	0.9149742
103	0x3f7afa5d	0.98038274
104	0x3f9686dd	1.1759907
105	0x3f9d94ba	1.2311013
106	0x3f6526c7	0.89512295
107	0x3f87815b	1.0586351
108	0x3f70af44	0.94017434
109	0x3f6fd13d	0.9367865
110	0x3f6f092f	0.9337339
111	0x3f81a06e	1.0127084
112	0x3f916722	1.1359599
113	0x3f78f56b	0.9724948
114	0x3f649bd9	0.89300305
115	0x3f4c61b7	0.798366
116	0x3f7789c2	0.96694577
117	0x3f79f3e6	0.97637784
118	0x3f850905	1.0393378
119	0x3f8d2ed1	1.1029912
120	0x3f48428d	0.7822655
121	0x3f768e64	0.9631102
122	0x3f883681	1.0641633
123	0x3f80cd13	1.0062584
124	0x3f7fd5d1	0.9993563
125	0x3f75fe3a	0.96091044
126	0x3f60f463	0.87872905
127	0x3f80cb6c	1.006208

bn2.bias f4 [128]
0	0xbefdad09	-0.49546078
1	0xbe042f08	-0.12908566
2	0xbe606522	-0.21913579
3	0xbc82fe64	-0.015990444
4	0xbee13c7d	-0.4399146
5	0xbed03fde	-0.40673727
6	0xbeb8e0cd	-0.3610901
7	0xbe26cefb	-0.16289894
8	0xbe3e3d2e	-0.18578026
9	0xbd52263e	-0.051306
10	0xbd85232f	-0.06500851
11	0xbea92355	-0.3303477
12	0xbe676899	-0.22598495
13	0xbdf3bdfa	-0.119014695
14	0xbebc4ed8	-0.36778903
15	0xbc1be542	-0.009515109
16	0xbf1c72a0	-0.61112404
17	0xbe3a32a2	-0.18183377
18	0xbed46a23	-0.41487226
19	0xbf1a1d2b	-0.60200757
20	0xbe565f06	-0.20934686
21	0xbddf50d8	-0.109040916
22	0xbde807d6	-0.113296196
23	0xbec20f86	-0.37902468
24	0x3c8527a2	0.01625425
25	0xbd5875ab	-0.052846592
26	0xbe96368e	-0.29338497
27	0xbe941e1f	-0.2892923
28	0xbecbf5ef	-0.3983607
29	0xbb980c72	-0.0046401555
30	0xbec8c37b	-0.3921164
31	0xbd331164	-0.043717757
32	0xbc352c97	-0.011057994
33	0xbe628a69	-0.22123112
34	0xbe25e0f0	-0.16199088
35	0xbed95f2a	-0.42455417
36	0xbec39cb7	-0.382055
37	0xbe89623c	-0.2683276
38	0xbeb48e38	-0.35264754
39	0xbebee737	-0.37285778
40	0xbdea6279	-0.114445634
41	0xbe89da45	-0.2692434
42	0xbf173af8	-0.59074354
43	0xbe0a782f	-0.13522409
44	0xbed8fd19	-0.42380598
45	0xbeacbf72	-0.3373981
46	0xbe2bf428	-0.16792357
47	0xbe43440c	-0.19068927
48	0xbe7b8eb1	-0.24566151
49	0xbe3b781c	-0.18307537
50	0xbe55cb07	-0.2087823
51	0xbe3a262e	-0.18178627
52	0xbe83fb86	-0.25777835
53	0xbe8c4ec1	-0.27403834
54	0xbe412fbc	-0.18865865
55	0xbe934fe4	-0.2877189
56	0xbe7cdbb7	-0.2469319
57	0xbe8ec8fc	-0.27887714
58	0xbe5b4b78	-0.21415508
59	0xbef896c5	-0.48552528
60	0xbe8b83f2	-0.27249104
61	0xbed13fff	-0.40869138
62	0xbe80ef9b	-0.25182804
63	0xbdff9bb7	-0.12480872
64	0xbe6b9e10	-0.23009515
65	0xbe7f588d	-0.24936123
66	0xbeb013bd	-0.3439006
67	0x3e38ed05	0.18059166
68	0xbec6251d	-0.3870019
69	0xbef43dc7	-0.47703382
70	0xbeb909a8	-0.3614018
71	0xbdbe84a5	-0.09302644
72	0xbea69e5b	-0.3254269
73	0xbe7a1c89	-0.24424948
74	0xbea495fd	-0.32145682
75	0xbe8c93fc	-0.27456653
76	0xbdc25365	-0.094885625
77	0x3e3e3f88	0.18578923
78	0xbe5771ea	-0.21039549
79	0xbeb05886	-0.34442538
80	0xbec2dca1	-0.38058951
81	0xbe7fd193	-0.2498229
82	0xbf0547ab	-0.5206248
83	0xbebb9825	-0.36639515
84	0xbe305d1e	-0.17223021
85	0xbe3705c7	-0.17873298
86	0xbe1d4eaa	-0.15362039
87	0x3d0a64bc	0.033787474
88	0xbef91a1c	-0.48652732
89	0xbe9d0be0	-0.30673122
90	0xbed273ab	-0.41103873
91	0xbe48a9f2	-0.19596079
92	0xbe1aabd8	-0.15104616
93	0x3e0acc1d	0.13554426
94	0xbeb92818	-0.36163402
95	0xbc9a460e	-0.018832233
96	0xbe22d1d3	-0.15900354
97	0xbd9ab94b	-0.07554873
98	0xbeaac468	-0.3335297
99	0xbf11ba61	-0.56925017
100	0xbe69faed	-0.22849627
101	0xbe662964	-0.22476727
102	0xbe7ed0be	-0.24884316
103	0xbcb68797	-0.022281451
104	0xbec22bc6	-0.3792402
105	0xbbd921b4	-0.006626332
106	0xbee1e10e	-0.44117016
107	0xbcb17f4e	-0.021667149
108	0xbe93a6e2	-0.2883826
109	0xbecdef5d	-0.40221682
110	0xbda30797	-0.07960432
111	0xbd9cc492	-0.0765468
112	0x3c5195d1	0.012792067
113	0xbef8b45f	-0.48575112
114	0xbd7f449e	-0.062321298
115	0xbec6d2a3	-0.38832578
116	0xbdf2e994	-0.11860958
117	0xbeb908e5	-0.36139598
118	0xbd06a5f0	-0.032873094
119	0xbd69a71e	-0.05704414
120	0xbeaa4a30	-0.33259726
121	0xbd6723b6	-0.05643054
122	0xbedcfb78	-0.43160605
123	0xbdd7d645	-0.105389155
124	0xbd9fab46	-0.0779634
125	0xbd4f03f1	-0.05054087
126	0xbd99def0	-0.07513225
127	0xbeacedd0	-0.33775187

bn2.running_mean f4 [128]
0	0xbff8b3a3	-1.9429821
1	0x3eb80fe6	0.3594963
2	0x3d345052	0.044021912
3	0xba908b2a	-0.0011027802
4	0x3ea0dd6d	0.31418934
5	0xbee57e4b	-0.44822916
6	0x3f0856fa	0.53257716
7	0xbef5ff6d	-0.48046437
8	0x3f068f01	0.52561957
9	0xbf80b297	-1.0054501
10	0xc0333168	-2.7998905
11	0xbf0f0eba	-0.55881846
12	0x3e6c5ce3	0.23082308
13	0xbf13b265	-0.57694083
14	0xbe114883	-0.14187817
15	0x3edc2f16	0.43004674
16	0x3e821125	0.25403705
17	0x3e1ac462	0.15113977
18	0xbd35305d	-0.044235576
19	0xc01fe64f	-2.498432
20	0x3fa7c040	1.3105545
21	0xbf77be52	-0.9677478
22	0xc03354b3	-2.8020446
23	0xbf13147a	-0.5745312
24	0x3f2e5c90	0.6810999
25	0xbe929182	-0.2862664
26	0xbeae6fbe	-0.34069628
27	0xbf6c18b0	-0.9222517
28	0xbf1e4f99	-0.61840206
29	0xbf111e15	-0.56686527
30	0xbeef2bc6	-0.46713084
31	0xbe203972	-0.15646914
32	0xbe09070b	-0.13381593
33	0xbded1563	-0.11576345
34	0xbf4ba3d0	-0.79546833
35	0xbe73d4aa	-0.23811594
36	0xbfbad46d	-1.4596077
37	0xbf1e95fb	-0.619476
38	0xbf676377	-0.90386146
39	0xc041174a	-3.0170465
40	0xbf2e92d8	-0.68192816
41	0xbf593f5b	-0.848623
42	0xbf31b086	-0.6940998
43	0xbfa6325e	-1.2984121
44	0x3f3a1bc1	0.726986
45	0xbe97b1dc	-0.29627883
46	0xbfa68f6b	-1.3012518
47	0xbfa12976	-1.2590778
48	0xbef123c5	-0.47097602
49	0xbe836251	-0.25660947
50	0xbee3deb3	-0.44505844
51	0x3e38d97f	0.18051718
52	0xbf5c0358	-0.859426
53	0xbf69d07c	-0.91333747
54	0xbe1bcf9d	-0.15215917
55	0xbf7587ed	-0.9591053
56	0xbf6cc9e9	-0.9249559
57	0xbf2edaaf	-0.68302435
58	0xbead56ec	-0.3385538
59	0x3ef0e537	0.47049877
60	0xbee059ea	-0.438186
61	0xbdf2df51	-0.118590005
62	0x3f83ae2c	1.0287528
63	0xbf375b8f	-0.7162408
64	0xbe73c86a	-0.2380692
65	0xbf63fc8b	-0.89057225
66	0x3e50e8e4	0.2040134
67	0x3f475bb0	0.7787428
68	0x3e38bbc2	0.18040374
69	0x3e1eb05b	0.15496962
70	0xbcb55e13	-0.022139585
71	0xbe3a71be	-0.18207452
72	0xbe5e7019	-0.2172245
73	0xbe3813ad	-0.17976256
74	0xbf5c04c3	-0.85944766
75	0xbfcd91b0	-1.6060085
76	0xbf5024cf	-0.81306165
77	0x3ee89c11	0.4543157
78	0xbeb12b8e	-0.34603542
79	0xc0399216	-2.8995414
80	0xbf63c030	-0.8896513
81	0x3e3e6fa2	0.18597272
82	0x3f00bd08	0.5028844
83	0x3e7d5ef5	0.24743254
84	0xbec9e52b	-0.39432654
85	0xbf9c9704	-1.2233586
86	0xbf615da9	-0.8803354
87	0x3ff90973	1.9456009
88	0xbf20f52d	-0.6287411
89	0xbfcbfc9f	-1.5936469
90	0xbfc6a41d	-1.5518833
91	0x3f56416c	0.83693576
92	0x3f063c22	0.52435505
93	0x3fdb6e1d	1.7142979
94	0xbf76d97a	-0.9642559
95	0x3f0a41e2	0.5400678
96	0xbd8fbe14	-0.070186764
97	0x3d1728f9	0.03690431
98	0x3d0f3f09	0.034972224
99	0xbf72c1e6	-0.94827116
100	0x3d0b6d2f	0.034039672
101	0xc000e77c	-2.0141287
102	0x3e11a6a5	0.14223726
103	0xbf20e721	-0.62852675
104	0xbe8536f5	-0.2601849
105	0xbeca4d16	-0.39511937
106	0xbf57076e	-0.8399571
107	0xbf1da348	-0.6157727
108	0xbf8fc99d	-1.1233402
109	0x3f658c6d	0.896674
110	0xbe7f50bf	-0.24933146
111	0xbefd1e37	-0.49437115
112	0xbf890e3b	-1.0707468
113	0x3fab013c	1.3359752
114	0xbf2ba9a3	-0.6705572
115	0xbfc687e4	-1.551022
116	0xbf14d5ba	-0.5813862
117	0x3fdf85dd	1.7462727
118	0x3dcd0b29	0.10011894
119	0xbede4ff9	-0.4342039
120	0x3f418538	0.755939
121	0x3e84e190	0.2595334
122	0xbf1932ca	-0.5984312
123	0xbfaa8b7d	-1.3323818
124	0x3dfad38c	0.122473806
125	0xbf92f8ad	-1.148214
126	0xbe1a10d7	-0.15045486
127	0xbf257656	-0.6463369

bn2.running_var f4 [128]
0	0x3e9b93ba	0.30386144
1	0x3f0fea82	0.56217206
2	0x3f1f5a65	0.62247306
3	0x3ed74a44	0.42048848
4	0x3ef3399e	0.47504896
5	0x3ee659e5	0.4499046
6	0x3f1d2c7c	0.61396
7	0x3f3b4a00	0.7315979
8	0x3f102709	0.5630956
9	0x3f64d781	0.8939133
10	0x3f358023	0.70898646
11	0x3f21806d	0.6308659
12	0x3f75b5ba	0.9598042
13	0x3f04d4fa	0.51887476
14	0x3e970c62	0.29501635
15	0x3f2a81a2	0.66604054
16	0x3ed4fad2	0.4159761
17	0x3f0654d1	0.5247317
18	0x3f0abc3b	0.54193467
19	0x3ed06a3f	0.4070606
20	0x3f297e7b	0.6620862
21	0x3f258ea1	0.6467076
22	0x3f6d473f	0.9268684
23	0x3e8ce8b6	0.27521294
24	0x3f0ae0f5	0.5424951
25	0x3e88943d	0.26675597
26	0x3f18f7ce	0.5975312
27	0x3f5a58c9	0.85291725
28	0x3ebbcb4a	0.36678535
29	0x3f046bfb	0.51727265
30	0x3ef065f6	0.4695279
31	0x3fa48982	1.2854464
32	0x3f6dda8a	0.9291159
33	0x3f91168d	1.1335007
34	0x3f235559	0.63802105
35	0x3eabb943	0.3353978
36	0x3f0103c5	0.50396377
37	0x3eb7936b	0.35854658
38	0x3f25c980	0.6476059
39	0x3f43d16a	0.76491416
40	0x3f4c7bb7	0.79876274
41	0x3ef79a09	0.48359707
42	0x3e41aaa0	0.18912745
43	0x3ed7e368	0.42165685
44	0x3eeeabe3	0.46615514
45	0x3f162fa4	0.58666444
46	0x3efa74e8	0.48917317
47	0x3edd96dc	0.4327916
48	0x3f346020	0.70459175
49	0x3f2e5489	0.6809774
50	0x3f03d86f	0.51502126
51	0x3f0e8162	0.5566617
52	0x3edb3fb7	0.42822048
53	0x3ec6aea8	0.38805127
54	0x3f0bd48a	0.54621184
55	0x3eddf37b	0.43349823
56	0x3f6bcf29	0.92112976
57	0x3f2b7d49	0.66988045
58	0x3f413c71	0.7548285
59	0x3ed1b839	0.40960863
60	0x3f741dce	0.9535798
61	0x3f0c7436	0.54864824
62	0x3f38858e	0.7207879
63	0x3f04e418	0.51910543
64	0x3f0813f8	0.5315547
65	0x3f82dedf	1.0224265
66	0x3e8da032	0.27661282
67	0x3f922110	1.141634
68	0x3f1bd9b1	0.60879046
69	0x3ed1f7e1	0.4100943
70	0x3eee49d9	0.46540716
71	0x3f20d436	0.6282381
72	0x3eeaa649	0.4582999
73	0x3f2d23fd	0.6763304
74	0x3eb38e72	0.35069615
75	0x3ef08d09	0.469826
76	0x3f133c68	0.5751405
77	0x3f7334d6	0.95002496
78	0x3efb33ce	0.4906296
79	0x3f193e3a	0.59860575
80	0x3ef57cfb	0.47946915
81	0x3edb7f1a	0.42870408
82	0x3ef76d21	0.48325446
83	0x3f09edf2	0.538787
84	0x3f09c19f	0.5381107
85	0x3f2a9ecf	0.6664857
86	0x3f56a9d3	0.8385288
87	0x3f9da966	1.2317321
88	0x3e82d67c	0.25554264
89	0x3ed640cd	0.41846314
90	0x3eb7c5f8	0.35893226
91	0x3ed32a6a	0.41243297
92	0x3f738fcf	0.9514131
93	0x3f9d7ff5	1.2304674
94	0x3eb74073	0.35791358
95	0x3f802da7	1.0013932
96	0x3f1dcdce	0.6164216
97	0x3f309577	0.68978065
98	0x3f11627a	0.5679089
99	0x3e75389e	0.23947379
100	0x3f0a225f	0.53958696
101	0x3f3c3395	0.7351621
102	0x3f19ff66	0.6015533
103	0x3f1c5f41	0.61082846
104	0x3e3ac830	0.18240428
105	0x3fb1bf09	1.3886424
106	0x3eb908bc	0.36139476
107	0x3f783359	0.9695335
108	0x3f5db478	0.866035
109	0x3f25baa6	0.6473793
110	0x3f1626c8	0.58652925
111	0x3f348688	0.7051778
112	0x3f13b360	0.5769558
113	0x3efcc9b3	0.49372634
114	0x3eebb602	0.46037298
115	0x3e8df991	0.27729467
116	0x3f19d492	0.6008998
117	0x3f58da78	0.84708357
118	0x3f9242f8	1.1426687
119	0x3f0a5073	0.54029006
120	0x3ee510e0	0.44739437
121	0x3f399689	0.72495323
122	0x3ea4183e	0.32049745
123	0x3f70a352	0.9399921
124	0x3f69a4fd	0.9126738
125	0x3f433c46	0.76263845
126	0x3f02beae	0.51072204
127	0x3edcb2be	0.4310512

deconv1.weight f4 [128, 64, 4, 4]
0	0xbb359d9f	-0.0027712358
1	0xbd5fc752	-0.054633446
2	0x3d2225dd	0.03958689
3	0x3d6e9ad0	0.05825311
4	0xbcf2fe08	-0.029662147
5	0x3d473718	0.048636526
6	0xbb97ed23	-0.004636423
7	0x3de22b73	0.110434435
8	0xbcb9b584	-0.022669561
9	0xbd20c90d	-0.039254237
10	0xbbade685	-0.005307021
11	0x3db89e92	0.0901462
12	0x3c2316c8	0.009954162
13	0xbd9895b4	-0.074504286
14	0xbc1c0bfa	-0.00952434
15	0x3dc0b9eb	0.09410461
16	0x3c755dde	0.014975993
17	0x3bf9d157	0.007623832
18	0x3dcb827d	0.09936998
19	0xbdc77c11	-0.09740461
20	0xbd9299fd	-0.07158277
21	0x3bce3280	0.006292641
22	0xbdd86aa0	-0.10567212
23	0xbd7e7477	-0.06212279
24	0xbc842369	-0.016130166
25	0x3d8c51d9	0.06851549
26	0x3d02338a	0.031787433
27	0xbdf64af0	-0.12026012
28	0x3cef4dc5	0.029211888
29	0x3d29e0ee	0.041474275
30	0xbde03ae4	-0.109487325
31	0xbcd76e73	-0.026297783
32	0x3c814474	0.015779711
33	0x3ca15baf	0.019697038
34	0xbd6a8b9a	-0.05726204
35	0x3d61bded	0.055112768
36	0x3c7b0e5c	0.015323248
37	0x3c8fa224	0.01753337
38	0xbbe57457	-0.007002394
39	0x3dcbc6d5	0.099500336
40	0x3c5ac9e3	0.013353798
41	0xbdbed608	-0.09318167
42	0xbdaceb43	-0.0844331
43	0x3da6a43f	0.08136796
44	0x3c8d760b	0.017268201
45	0x3cf10c09	0.029424684
46	0x3d2986af	0.04138821
47	0x3de4882b	0.111587845
48	0x3caae68e	0.02086189
49	0xbe0ac0a7	-0.13550054
50	0x3c39196b	0.011297564
51	0x3cd0770e	0.025447395
52	0xbcc77a85	-0.024350414
53	0xbbe55ea6	-0.0069998084
54	0xbe3c01e1	-0.18360092
55	0x3dc3971d	0.09550307
56	0x3d3385cd	0.043828774
57	0xbe30b6c4	-0.1725722
58	0xbe7f56be	-0.24935433
59	0x3db569aa	0.088580444
60	0x3d2bbb02	0.04192639
61	0xbd81ba45	-0.06334356
62	0xbde64dcc	-0.11245307
63	0x3dbe568c	0.09293851
64	0x3c2eb078	0.010662191
65	0x3d2248db	0.03962026
66	0x3d04c255	0.032411892
67	0x3d608c0e	0.054821067
68	0x3da3e35a	0.08002348
69	0xbd8450ad	-0.064607
70	0xbc57aa89	-0.013163217
71	0xbcecc846	-0.028904092
72	0x3d8a8b47	0.06764846
73	0xbda560cc	-0.08075103
74	0x3db585da	0.08863421
75	0xbd1d1066	-0.038345717
76	0xbbeb632b	-0.0071834526
77	0xbcc4199e	-0.023937996
78	0x3dbeea09	0.093219824
79	0x3d0c4ac4	0.03425099
80	0xbc1af16e	-0.009456975
81	0x3d9336cd	0.07188187
82	0xbbde246c	-0.006779244
83	0xbde65f60	-0.1124866
84	0xbd0e84c8	-0.0347946
85	0xbd80bb71	-0.062857516
86	0x3d55499f	0.052072164
87	0x3c5ef851	0.013609008
88	0xbd1dc8d9	-0.03852162
89	0x3dcd39c8	0.100207865
90	0x3e08df2a	0.1336638
91	0xbde71f24	-0.112852365
92	0xbc4c2ec8	-0.012462325
93	0xbc3f75a7	-0.011685765
94	0x3be81d9d	0.0070836083
95	0x3cba64e2	0.022753183
96	0x3da93246	0.08261542
97	0x3d509071	0.050919
98	0x3e0548a4	0.13015991
99	0x3e151d77	0.14562021
100	0x3cea5f7a	0.02860998
101	0xbb0dc64b	-0.0021633084
102	0x3d5b639a	0.053561784
103	0x3e1c4d5a	0.15263882
104	0x3df18141	0.11792231
105	0xbddf85da	-0.10914202
106	0xbe049e2e	-0.12950966
107	0x3e083091	0.13299777
108	0x3dab497d	0.08363626
109	0xbe186965	-0.14883955
110	0xbdf6484a	-0.12025507
111	0x3e01bf9d	0.12670751
112	0x3d1530df	0.03642356
113	0xbc4b8bff	-0.012423514
114	0xbd1c2dab	-0.03812949
115	0x3db9a91c	0.09065458
116	0x3ddbc936	0.10731737
117	0x3cc88042	0.02447522
118	0xbb6b32b9	-0.0035888387
119	0x3ce07433	0.027399158
120	0x3cdf43d4	0.027254023
121	0x3c567577	0.013089529
122	0xbdc9eeab	-0.098599754
123	0x3dfdde04	0.12395862
124	0x39a9455b	0.00032285866
125	0xbd38c98e	-0.045114093
126	0xbda941bc	-0.08264491
127	0x3cee468d	0.029086376
128	0x3d0dbc80	0.034603596
129	0x3b178712	0.002312128
130	0x3da55a85	0.08073906
131	0xbc91f431	-0.017816635
132	0x3cff36d5	0.031154076
133	0x3d35e92a	0.044411816
134	0xbe2d4e48	-0.16924393
135	0x3c0c1374	0.00854956
136	0x3d3f1a9e	0.046656244
137	0xbc853c5b	-0.016264131
138	0x3d8b84bf	0.06812429
139	0x3d904e7d	0.070462205
140	0x3c3c5bd3	0.011496502
141	0xbd74bd2d	-0.059750725
142	0xbb223f77	-0.0024757066
143	0xbda46c32	-0.08028449
144	0x3d14dec4	0.03634526
145	0xbe5d47fc	-0.21609491
146	0x3daf9f3e	0.08575295
147	0x3d2a878f	0.041633185
148	0x3cd59102	0.026070122
149	0xbcc2e9c0	-0.023793101
150	0xbe1626ca	-0.14663234
151	0x3df162d2	0.117864266
152	0xbd5bc239	-0.053652022
153	0x3cb8dd82	0.02256656
154	0xbe1fac76	-0.15593132
155	0x3e12c3b2	0.14332464
156	0xbd94ee78	-0.07272047
157	0xbe0fd00c	-0.14044207
158	0x3b9743c9	0.004616235
159	0xbcac8d87	-0.02106358
160	0x3d18f927	0.037346985
161	0xbdbf45d8	-0.093394935
162	0xbd3efe3b	-0.04662917
163	0x3e03e1f6	0.12879166
164	0xbcf2aac4	-0.029622443
165	0x3cbfdfe7	0.023422195
166	0x3b6ed96d	0.0036445514
167	0x3df42fbe	0.119231686
168	0xbc7306e2	-0.014833184
169	0xbd8e95ca	-0.06962164
170	0xbdfd0fd8	-0.123565376
171	0x3e1d3716	0.15353045
172	0x3c5e0709	0.013551482
173	0xbe0f09c8	-0.13968575
174	0x3caef249	0.021355765
175	0x3dd89604	0.10575488
176	0xbc61858f	-0.013764753
177	0x3d6c71d8	0.057725757
178	0x3c29b2a4	0.010357533
179	0x3da8bd86	0.08239274
180	0x3e303905	0.17209251
181	0x3e49237e	0.19642445
182	0xbc658317	-0.014008305
183	0x3d499688	0.049215823
184	0x3e129191	0.14313342
185	0x3de4caa6	0.111714646
186	0x3933c510	0.00017144182
187	0x3cb8dcb0	0.02256617
188	0x3dd4180f	0.10356151
189	0xbc260004	-0.01013184
190	0xbe2032f8	-0.15644443
191	0x3db907c0	0.09034681
192	0xbe0edef1	-0.13952233
193	0xbd4c18fd	-0.04982852
194	0xbb9babfc	-0.0047507267
195	0xbd101b8c	-0.03518252
196	0x3da38015	0.07983414
197	0x3bbb57fe	0.0057172766
198	0xbda4d8ca	-0.08049162
199	0xbd3547f1	-0.04425806
200	0xbe19441b	-0.14967386
201	0x3cebcd32	0.028784368
202	0xbd05d38a	-0.032672442
203	0xbc970eca	-0.01843967
204	0xbdb17f48	-0.08666855
205	0xbccacfae	-0.024757233
206	0xbba13307	-0.004919413
207	0x3b601e6f	0.0034197827
208	0x3df0bdab	0.11754926
209	0xbd861bca	-0.06548269
210	0xbdef437b	-0.11682793
211	0x3d9effc7	0.077636294
212	0x3dd1d045	0.102448024
213	0x3d97d848	0.07414299
214	0x3d580bdc	0.052745685
215	0xbcf229b8	-0.029560909
216	0xbcdf3405	-0.027246485
217	0xbc409996	-0.011755368
218	0x3d231251	0.03981239
219	0x3db4c5ce	0.08826791
220	0xbe5c2e28	-0.21501982
221	0xbe011a3d	-0.12607665
222	0x3d1fe1db	0.039033752
223	0x3d288219	0.041139696
224	0x3d625211	0.055254046
225	0x3da9374b	0.082624994
226	0xbc1e1e5a	-0.009650791
227	0x3c286dfa	0.010280127
228	0x3dd225be	0.10261105
229	0x3d97df03	0.07415583
230	0xbcabbc6a	-0.020963866
231	0x3d334ddb	0.04377542
232	0xbc63dfb1	-0.013908313
233	0x3d81221b	0.06305333
234	0x3d41aa19	0.04728136
235	0x3d21d930	0.039513767
236	0xbd3ad837	-0.045616355
237	0xbddc485d	-0.1075599
238	0x3d92ff8b	0.07177647
239	0x3dc5ae89	0.096524306
240	0xbd496ef4	-0.04917808
241	0x3cf2c0ad	0.02963289
242	0xbd3c2528	-0.045933872
243	0x3d3dbf57	0.046325054
244	0x3cce84c3	0.02520979
245	0xbddbf68f	-0.10740387
246	0x3daef591	0.08542932
247	0x3d226357	0.03964552
248	0x3d82cd9a	0.06386872
249	0x3d993b65	0.07482032
250	0xbe0948d0	-0.13406682
251	0x3db93769	0.09043772
252	0x3c1c41d7	0.009537182
253	0xbdd78c27	-0.10524779
254	0xbd9c637e	-0.07636164
255	0x3d064852	0.032783814

deconv1.bias f4 [64]
0	0xbb51c284	-0.003200681
1	0xbcc2275b	-0.023700407
2	0xbce0b745	-0.02743114
3	0xbd36cfc1	-0.044631723
4	0xbd00a148	-0.03140381
5	0x3d0a1775	0.033713777
6	0xbd12b7ee	-0.03581994
7	0x3bd58ce2	0.0065170387
8	0x3c0faaf9	0.00876879
9	0x3d744879	0.059639428
10	0x3c479ca7	0.012183345
11	0x3b4202d5	0.0029603739
12	0xbb251890	-0.0025191642
13	0xbc880033	-0.016601657
14	0xbc89f0b3	-0.016838407
15	0xbc994fd9	-0.018714832
16	0x3b57e767	0.0032944323
17	0xbd57fe20	-0.052732587
18	0x3cc56076	0.024093848
19	0x3cc6340c	0.02419474
20	0x3903bf1f	0.00012564332
21	0x3bdd0e22	0.0067460695
22	0xbc3bad2b	-0.011454861
23	0xbc9fd2bd	-0.019509668
24	0x3be99c2e	0.007129214
25	0xbd037b4b	-0.032100003
26	0x3cf5cb6d	0.030004228
27	0xbcee42a4	-0.029084511
28	0x3b9b4a75	0.0047391006
29	0x3caf33c8	0.021386996
30	0xbca1025c	-0.019654445
31	0xbc3a7a2c	-0.011381667
32	0x3d7c7375	0.061633546
33	0x3d37df2b	0.044890564
34	0xbc802661	-0.0156433
35	0xbd1a820d	-0.037721682
36	0x3c4144eb	0.0117962165
37	0xbc840c75	-0.016119221
38	0xbc603b53	-0.013686019
39	0xbd4c71f7	-0.049913373
40	0x3bd84a36	0.0066006435
41	0x3d81efe6	0.06344585
42	0x3d37f6b9	0.044913027
43	0x3c7aec61	0.015315146
44	0x3d0b201d	0.033966172
45	0xbc5ba9d2	-0.013407188
46	0x3c81a0b2	0.015823696
47	0xbb71fa98	-0.0036923047
48	0xbbb00def	-0.0053727548
49	0x3cb27cd3	0.021788036
50	0xbc7a5231	-0.015278385
51	0x3c7c47bd	0.015397963
52	0x3ab759c9	0.001398855
53	0x3b926139	0.0044671563
54	0xbcd3586a	-0.025798995
55	0x3d238068	0.03991738
56	0xbc0fb1fc	-0.008770462
57	0xb9054ea3	-0.00012713163
58	0x3ccb1cda	0.024794031
59	0x3c300654	0.010743696
60	0xbca54260	-0.020173252
61	0xbc9f2f35	-0.01943169
62	0x3c923fde	0.01785272
63	0x3cdcc3fc	0.026948921
