TinyCenterSpeed_for_train/src/trained_models/TinyCenterSpeed.tflite (tflite, 855600 bytes, 12 tensors)

model/tf.math.add/Add/y f4 [64]
-0.13547546 -0.61936 0.15967779 -0.02247744 -0.56167436 -0.031405993 0.0085867345 -0.03153041
-0.010051474 0.16338336 -0.4382356 0.2393645 0.186128 0.0039506108 0.058679976 0.39406812
0.13233818 -0.04351768 -0.6205908 0.010717019 0.30422133 -0.4341138 -0.09202089 0.15564264
-0.02150549 -0.442826 0.33351701 -0.0053284913 0.06446957 -0.5939948 0.11887381 0.4423244
-0.22999625 0.22553995 -0.11051817 0.2481648 0.0733413 0.10682085 -0.021045655 0.08849845
-0.17372698 0.037173286 0.057661504 0.29319152 -0.007357195 0.11043742 0.06374646 0.2713192
0.048963115 -0.51198363 0.089161254 0.5201469 0.18151285 -0.58332187 0.19461195 0.012198865
0.059041247 -0.30240002 0.15118982 -0.40610757 -0.012988791 0.2740879 -0.0062089115 -0.028392091
00000000: 14ba 0abe 618e 1ebf 9382 233e 9c22 b8bc
00000010: e4c9 0fbf 92a3 00bd 60af 0c3c 0826 01bd
00000020: f0ae 24bc f84d 273e 6b60 e0be f81b 753e
00000030: 5798 3e3e 2074 813b 6a5a 703d 4cc3 c93e
00000040: a983 073e 983f 32bd 0adf 1ebf 7096 2f3c
00000050: e6c2 9b3e 2a44 debe 7375 bcbd c960 1f3e
00000060: 482c b0bc 17ba e2be bec2 aa3e a09a aebb
00000070: 9f08 843d 0b10 18bf 1d74 f33d 5878 e23e
00000080: 2384 6bbe f2f3 663e 5a57 e2bd ea1e 7e3e
00000090: f733 963d e4c4 da3d f067 acbc ad3e b53d
000000a0: 7ce5 31be 0443 183d 782e 6c3d 331d 963e
000000b0: a014 f1bb 042d e23d 818d 823d 5aea 8a3e
000000c0: 8c8d 483d 5c11 03bf 2d9a b63d 5928 053f
000000d0: 81de 393e 9554 15bf 5b48 473e c0dd 473c
000000e0: 3cd5 713d 2dd4 9abe 81d1 1a3e 55ed cfbe
000000f0: f0ce 54bc 4055 8c3e 2074 cbbb 8896 e8bc

model/tf.math.add_1/Add/y f4 [128]
1.8609793 -0.5767498 -0.23015518 -0.0012694569 -0.8324648 0.19993544 -1.0236286 0.43630815
-0.7337638 0.97463536 3.7728987 0.50569475 -0.44900763 0.6396221 -0.10128662 -0.79946554
-0.9717331 -0.40125203 -0.32780394 3.1972644 -1.7889311 1.0616491 3.2562888 0.67119807
-0.769892 0.43777677 0.04591784 0.673285 0.70706487 0.54026145 0.13833413 0.053912565
0.07230669 -0.04247135 0.8952564 -0.029695898 1.7667072 0.48797655 0.75936055 3.4210978
0.66929144 0.93919444 1.0598283 1.8722537 -1.4312724 0.0059191287 1.4259332 1.7878265
0.3391289 0.21349806 0.4368863 -0.3798253 1.0470505 1.1037643 0.057811826 0.97302437
0.7842792 0.6176255 0.23310328 -1.290178 0.12803245 -0.19931269 -1.2625344 0.7911352
0.11665243 0.72872007 -0.92589974 -0.4219997 -0.61658424 -0.6751305 -0.3350253 0.15465748
0.11045542 -0.027895391 1.2676593 1.9427174 0.7110758 -0.16945869 0.24342096 2.4945602
0.85917056 -0.48918593 -1.169038 -0.66919506 0.36003038 1.1869456 0.8249346 -1.8643894
1.0470173 2.3787575 1.5274495 -1.3937783 -0.6967392 -1.472112 1.5087522 -0.54140586
-0.08569152 -0.118073106 -0.3940281 1.3933539 -0.3453171 1.9505551 -0.46309903 0.8056738
0.39923924 0.42666563 0.74294454 0.6109967 0.85057455 -1.4676511 0.25112468 0.56494045
1.5514336 -2.3339736 0.7956294 1.9086121 0.62925184 -2.185058 -0.120748214 0.6534979
-1.2023461 -0.34273335 0.67712057 1.2863812 -0.20589325 1.258776 0.03671421 0.54461646
00000000: 9234 ee3f e0a5 13bf cdad 6bbe e863 a6ba
00000010: 6a1c 55bf e0bb 4c3e 4306 83bf c863 df3e
00000020: f2d7 3bbf b481 793f 2c77 7140 3675 013f
00000030: 54e4 e5be 46be 233f 5c6f cfbd c6a9 4cbf
00000040: 80c3 78bf e870 cdbe ebd5 a7be fb9f 4c40
00000050: b2fb e4bf 1ee4 873f 0967 5040 a3d3 2b3f
00000060: a417 45bf 4724 e03e 5814 3c3d 685c 2c3f
00000070: 3402 353f 934e 0a3f 76a7 0d3e 6cd3 5c3d
00000080: 8815 943d 70f6 2dbd 862f 653f d044 f3bc
00000090: 7623 e23f 10d8 f93e 7465 423f 44f3 5a40
000000a0: af56 2b3f 0c6f 703f 74a8 873f 02a6 ef3f
000000b0: ef33 b7bf 40f5 c13b fb84 b63f 80d7 e43f
000000c0: 4ea2 ad3e 3c9f 5a3e 90af df3e 7678 c2be
000000d0: c005 863f 2648 8d3f 18cc 6c3d 2018 793f
000000e0: 86c6 483f b41c 1e3f a0b2 6e3e 8d24 a5bf
000000f0: f01a 033e a018 4cbe ba9a a1bf d687 4a3f
00000100: 78e7 ee3d 668d 3a3f c407 6dbf 5810 d8be
00000110: 77d8 1dbf 5ad5 2cbf 7088 abbe 885e 1e3e
00000120: 7436 e23d e084 e4bc a942 a23f f7aa f83f
00000130: 1009 363f 9486 2dbe 5843 793e e0a6 1f40
00000140: 9af2 5b3f 9476 fabe 0aa3 95bf 5e50 2bbf
00000150: e755 b83e d5ed 973f ea2e 533f 50a4 eebf
00000160: aa04 863f 903d 1840 7783 c33f 5467 b2bf
00000170: 805d 32bf 2b6e bcbf cb1e c13f 9399 0abf
00000180: 097f afbd 50d0 f1bd 0dbe c9be 6c59 b23f
00000190: 67cd b0be caab f93f 511b edbe a340 4e3f
000001a0: 1669 cc3e eb73 da3e 9d31 3e3f 486a 1c3f
000001b0: 41bf 593f fedb bbbf 6a93 803e f09f 103f
000001c0: 6095 c63f d35f 15c0 5eae 4b3f 674d f43f
000001d0: a616 213f fed7 0bc0 d74a f7bd a34b 273f
000001e0: 7ae6 99bf bf7a afbe c657 2d3f 24a8 a43f
000001f0: aed5 52be 921f a13f a461 163d fc6b 0b3f

model/tf.math.add_2/Add/y f4 [64]
-0.003200681 -0.023700407 -0.02743114 -0.044631723 -0.03140381 0.033713777 -0.03581994 0.0065170387
0.00876879 0.059639428 0.012183345 0.0029603739 -0.0025191642 -0.016601657 -0.016838407 -0.018714832
0.0032944323 -0.052732587 0.024093848 0.02419474 0.00012564332 0.0067460695 -0.011454861 -0.019509668
0.007129214 -0.032100003 0.030004228 -0.029084511 0.0047391006 0.021386996 -0.019654445 -0.011381667
0.061633546 0.044890564 -0.0156433 -0.037721682 0.0117962165 -0.016119221 -0.013686019 -0.049913373
0.0066006435 0.06344585 0.044913027 0.015315146 0.033966172 -0.013407188 0.015823696 -0.0036923047
-0.0053727548 0.021788036 -0.015278385 0.015397963 0.001398855 0.0044671563 -0.025798995 0.03991738
-0.008770462 -0.00012713163 0.024794031 0.010743696 -0.020173252 -0.01943169 0.01785272 0.026948921
00000000: 84c2 51bb 5b27 c2bc 45b7 e0bc c1cf 36bd
00000010: 48a1 00bd 7517 0a3d eeb7 12bd e28c d53b
00000020: f9aa 0f3c 7948 743d a79c 473c d502 423b
00000030: 9018 25bb 3300 88bc b3f0 89bc d94f 99bc
00000040: 67e7 573b 20fe 57bd 7660 c53c 0c34 c63c
00000050: 1fbf 0339 220e dd3b 2bad 3bbc bdd2 9fbc
00000060: 2e9c e93b 4b7b 03bd 6dcb f53c a442 eebc
00000070: 754a 9b3b c833 af3c 5c02 a1bc 2c7a 3abc
00000080: 7573 7c3d 2bdf 373d 6126 80bc 0d82 1abd
00000090: eb44 413c 750c 84bc 533b 60bc f771 4cbd
000000a0: 364a d83b e6ef 813d b9f6 373d 61ec 7a3c
000000b0: 1d20 0b3d d2a9 5bbc b2a0 813c 98fa 71bb
000000c0: ef0d b0bb d37c b23c 3152 7abc bd47 7c3c
000000d0: c959 b73a 3961 923b 6a58 d3bc 6880 233d
000000e0: fcb1 0fbc a34e 05b9 da1c cb3c 5406 303c
000000f0: 6042 a5bc 352f 9fbc de3f 923c fcc3 dc3c

model/tf.math.add_4/Add/y f4 [4]
-0.05294878 0.10623031 0.017826235 0.1044938
00000000: d2e0 58bd 478f d93d 5308 923c d800 d63d

model/tf.nn.conv2d_transpose_1/conv2d_transpose f4 [4, 4, 4, 64]
0.010088902 0.0075394246 -0.011294868 0.03016142 -0.079802744 0.030187057 0.15262775 -0.30637464
0.04005122 0.03991252 -0.049452312 0.0060014757 -0.010087154 0.33741572 0.006032958 0.013435429
-0.022476561 0.01605366 -0.09911526 -0.08084961 -0.023018047 0.1439093 0.04823111 0.0048699654
0.026893426 -0.19048263 -0.086506404 0.04912513 0.013042021 0.1072296 -0.0626093 -0.026696807
0.19324513 -0.0186263 0.0012020604 -0.025724242 -0.0016725166 -0.0013843909 -0.009784948 0.021475308
0.0182705 -0.03309569 -0.022143312 -0.0542642 0.003937693 0.024585396 0.010650927 -0.0006191127
-0.0073209535 -0.05551283 0.54094404 0.014560995 0.084062785 0.13654113 0.0056857886 -0.08119977
-0.045533802 0.3149005 -0.007865549 -0.00687838 0.11700506 -0.0069173025 -0.13605379 -0.019908043
0.015899595 0.1117731 -0.016664218 0.15403607 0.024475828 0.059221286 0.2830552 -0.39056876
0.037205514 0.41817984 0.28702527 0.020493245 -0.025735741 0.40412182 0.023915682 0.015590179
-0.06884737 0.063080095 -0.010380298 -0.08808981 -0.021640614 -0.07881827 0.065654926 0.010212081
0.0025162904 -0.307606 -0.07772591 0.031090047 0.03902291 -0.022390919 0.10255437 -0.0365672
0.30155644 -0.033970505 -0.0153762065 -0.02236225 -0.045680795 -0.023377758 0.0026496134 0.00049292867
0.015488302 -0.08287397 0.00079422054 -0.12463992 0.005155263 0.016388576 -0.0156498 0.017747672
-0.04068001 -0.068121746 0.401408 -0.005495008 0.15860435 -0.006302977 0.008961027 -0.09501239
-0.07790362 -0.046799608 -0.044064254 -0.047084745 0.15685803 -0.007880464 -0.29396045 -0.008159148
0.039755967 0.030849779 -0.023382047 0.011602498 0.015496791 0.03525893 0.20128517 -0.3026861
0.027091065 0.28596288 0.21922006 -0.001129673 0.0053252988 0.0799755 0.035198186 0.008762172
-0.008140412 0.02119329 -0.017633269 -0.033872325 -0.01784892 -0.036127165 0.036780052 -0.011620339
-0.005171325 -0.22530551 -0.088016465 0.0095139 0.019877333 -0.032400392 -0.0011491355 -0.031086648
0.22530457 -0.025945894 -0.010110731 -0.009337086 -0.022511873 0.0061573316 0.014462671 0.03860143
0.0044035893 0.04061701 -0.011460584 -0.049310345 -0.0042285193 0.009778553 -0.033492718 -0.012081974
-0.015955614 -0.07677753 0.035202187 -0.008454531 0.056478158 -0.010296756 0.026879309 -0.0491391
-0.08337918 -0.014802678 -0.040509216 -0.071783386 0.11079339 -0.016180541 -0.21973884 0.0016632437
0.022571743 0.010856754 -0.0032647436 -0.0087399315 0.006886411 0.012716789 0.020623792 -0.090532705
0.009002242 0.07576045 0.079085626 -0.0042986893 0.008369077 -0.03130838 0.026366906 -0.0042073573
0.0059076604 0.02731408 -0.0055332817 -0.0004901507 -0.007877914 0.03363237 0.013221785 -0.006312351
-0.006919263 -0.06875455 -0.0516872 0.00083942077 0.005683627 -0.028399734 0.0037531273 -0.006917692
0.048683748 -0.015251522 -0.010773913 0.0050352905 -0.003422667 -0.0021315634 0.006883031 0.016691476
0.0014240236 -0.017886786 -0.0051149693 -0.011662945 0.0028538345 0.0070180823 -0.029343566 -0.0094184205
-0.012815184 -0.032228082 -0.010251014 -0.008373061 0.009926835 -0.015095167 0.03749817 0.027096791
-0.051234428 0.016508257 -0.013139177 -0.06941167 0.03247915 -0.013329562 -0.081251815 0.0044550947
00000000: ec4b 253c 470d f73b 1c0e 39bc 1515 f73c
00000010: 9f6f a3bd d94a f73c 734a 1c3e 23dd 9cbe
00000020: c00c 243d 507b 233d 828e 4abd 07a8 c43b
00000030: 9744 25bc c1c1 ac3e 1fb0 c53b 4620 5c3c
00000040: c420 b8bc f782 833c f1fc cabd 7b94 a5bd
00000050: 5890 bcbc f65c 133e fc8d 453d 3b94 9f3b
00000060: 9a4f dc3c e10d 43be 452a b1bd 6f37 493d
00000070: 33ae 553c 319b db3d 4e39 80bd 43b3 dabc
00000080: 0de2 453e 2f96 98bc 748e 9d3a a5bb d2bc
00000090: 5838 dbba 7374 b5ba 0c51 20bc fcec af3c
000000a0: 04ac 953c 598f 07bd e465 b5bc 2344 5ebd
000000b0: c307 813b 5067 c93c 3a81 2e3c f34b 22ba
000000c0: 9ce4 efbb 6c61 63bd 4f7b 0a3f 3d91 6e3c
000000d0: 1c29 ac3d 70d1 0b3e da4f ba3b 114c a6bd
000000e0: a781 3abd a33a a13e 81de 00bc 0964 e1bb
000000f0: 59a0 ef3d 8aaa e2bb af51 0bbe 3116 a3bc
00000100: de3f 823c 4ce9 e43d 6683 88bc a2bb 1d3e
00000110: 8881 c83c 0592 723d 9cec 903e a1f8 c7be
00000120: cf64 183d ab1b d63e faf4 923e 73e1 a73c
00000130: c3d3 d2bc 0ee9 ce3e d2ea c33c f36d 7f3c
00000140: daff 8cbd 2330 813d 2012 2abc 6e68 b4bd
00000150: a847 b1bc 796b a1bd 1776 863d 9250 273c
00000160: 59e8 243b 897e 9dbe c32e 9fbd 8eb0 fe3c
00000170: 7dd6 1f3d 296d b7bc 0708 d23d 7dc7 15bd
00000180: 9b65 9a3e a824 0bbd 7cec 7bbc 0a31 b7bc
00000190: c91b 3bbd b682 bfbc 23a5 2d3b e237 013a
000001a0: a6c2 7d3c d4b9 a9bd 3d33 503a 3743 ffbd
000001b0: 7bed a83b 5641 863c 0234 80bc 9163 913c
000001c0: 15a0 26bd 6a83 8bbd 5985 cd3e 780f b4bb
000001d0: 2e69 223e 3489 cebb 45d1 123c db95 c2bd
000001e0: ef8b 9fbd f2b0 3fbd b87c 34bd efdb 40bd
000001f0: 649f 203e 101d 01bc fc81 96be f2ad 05bc
00000200: 27d7 223d adb8 fc3c b58b bfbc 6718 3e3c
00000210: 41e6 7d3c ab6b 103d b31d 4e3e acf9 9abe
00000220: 15ee dd3c ba69 923e 397b 603e 8911 94ba
00000230: d87f ae3b 32ca a33d f92b 103d 378f 0f3c
00000240: 5d5f 05bc 8d9d ad3c a573 90bc b5bd 0abd
00000250: e637 92bc 14fa 13bd aea6 163d 3c63 3ebc
00000260: 3874 a9bb 7db6 66be fa41 b4bd 30e0 1b3c
00000270: cad5 a23c 46b6 04bd 979e 96ba 6da9 febc
00000280: 3eb6 663e 7c8c d4bc 7ba7 25bc 94fa 18bc
00000290: d26a b8bc 71c3 c93b d7f4 6c3c 881c 1e3d
000002a0: fc4b 903b 065e 263d 2cc5 3bbc a5f9 49bd
000002b0: 648f 8abb 3936 203c a92f 09bd 79f3 45bc
000002c0: 59b5 82bc 8a3d 9dbd 2b30 103d e084 0abc
000002d0: a455 673d bab3 28bc ff31 dc3c 1546 49bd
000002e0: b4c2 aabd ee86 72bc feec 25bd 2b03 93bd
000002f0: a5e7 e23d 0e8d 84bc 3803 61be 3301 da3a
00000300: 60e8 b83c 87e0 313c 4ff5 55bb ee31 0fbc
00000310: 67a7 e13b 145a 503c 3af3 a83c 3669 b9bd
00000320: 247e 133c 4b28 9b3d a5f7 a13d 05dc 8cbb
00000330: 741e 093c 373d 00bd 69ff d73c dfdd 89bb
00000340: 0c95 c13b c7c1 df3c 8850 b5bb 757d 00ba
00000350: 5e12 01bc 19c2 093d 30a0 583c d7d7 cebb
00000360: fcba e2bb 2fcf 8cbd f5b5 53bd 930c 5c3a
00000370: b83d ba3b 8fa6 e8bc 07f7 753b cead e2bb
00000380: 9c68 473d 85e1 79bc 1185 30bc 14ff a43b
00000390: d34e 60bb b3b1 0bbb 0d8b e13b 90bc 883c
000003a0: 4ea6 ba3a 4f87 92bc 799b a7bb f015 3fbc
000003b0: 6607 3b3b f1f7 e53b eb61 f0bc b84f 1abc
000003c0: c7f6 51bc 9801 04bd def3 27bc 2a2f 09bc
000003d0: 2aa4 223c b851 77bc ae97 193d 17fa dd3c
000003e0: 31db 51bd 533c 873c b445 57bc b527 8ebd
000003f0: db08 053d 3c64 5abc 5a67 a6bd 0bfc 913b

model/tf.nn.conv2d_transpose/conv2d_transpose f4 [64, 4, 4, 128]
-0.0027712358 -0.108591594 0.02516479 0.056603838 -0.08991287 -0.2138813 -0.054581333 -0.048622005
-0.034162313 0.00055397296 0.031276993 -0.1103534 0.01968683 0.09397244 0.02014257 -0.052583892
-0.13247883 0.16023795 0.009183996 -0.069036156 -0.05269672 0.0371411 -0.06608482 -0.10399373
0.004940171 0.052555535 -0.016030852 -0.0002984684 -0.17828792 0.03216653 -0.0547153 0.038118035
-0.14146525 -0.20602764 0.024650864 -0.23331115 -0.07560722 -0.20766144 -0.21852086 0.056297082
-0.1624872 0.111891486 0.005025976 0.059242636 0.100442834 -0.10420685 0.1615952 0.017944856
0.022263443 0.19236457 -0.05638097 0.00026509116 -0.070811376 0.0010068835 -0.038290747 0.123193875
-0.13573134 -0.05531439 -0.03308526 -0.010705412 -0.003245769 -0.012089378 0.072347134 0.13430133
-0.026812606 -0.0866791 0.013584334 0.028341342 -0.16811195 -0.16816989 -0.11754013 0.15225552
0.03838889 -0.11850361 -0.05381281 -0.038478944 0.0058345436 -0.14631772 -0.008628355 0.08105948
-0.102815226 0.0050874404 0.021703828 -0.055204574 0.13226642 0.14437081 -0.09447657 0.008300395
-0.22523333 -0.044128638 0.050251897 0.10991366 0.0662811 0.03188752 0.0008319304 -0.00083919015
-0.074782446 0.09403509 -0.096774384 0.0033129656 -0.018624084 -0.30951536 -0.04422964 0.04954358
0.08430912 -0.13346846 0.01827058 0.007372168 -0.08743791 0.07751287 0.07774311 0.06976692
0.07031149 0.07791992 0.14662427 0.12454738 0.036297534 0.03643293 0.07720539 0.06819387
0.06230685 -0.0028491635 0.029615268 0.049008895 0.11513331 0.12020729 0.12336211 0.026478134
-0.054633446 0.027905885 0.11032042 -0.020085003 -0.02869059 -0.03315635 0.036975082 -0.015497059
-0.07742311 -0.020027816 0.013030026 -0.1406143 -0.17012168 0.17355451 0.054967515 -0.2238633
-0.08771114 0.034975648 -0.16254523 -0.08906429 -0.040064394 -0.02778435 0.032819007 -0.11881452
-0.13305065 -0.119973406 0.020207297 -0.08793713 -0.1115252 0.0134297535 -0.11746138 0.012215249
0.040615104 -0.2130323 -0.027794776 -0.12489243 0.0403003 -0.14762786 -0.1549995 -0.104747675
0.012071695 0.13041554 -0.06374745 0.031680636 -0.024585592 -0.08854269 0.018993426 -0.05783854
0.06791273 0.07195535 0.015657162 -0.02283868 0.021805989 0.117828146 -0.072258785 0.03297175
-0.22698238 -0.03816154 -0.017002879 0.036469124 -0.018403355 0.0019263274 -0.028682314 0.07203065
0.046870016 -0.13537459 0.038254086 0.005489445 -0.08102301 0.07267405 -0.01387753 -0.056943588
0.18275008 -0.10133958 -0.15838276 -0.0923836 -0.018841356 -0.4527988 0.03828634 0.013906741
-0.14451878 0.055017676 -0.14270027 -0.12950327 0.085048944 -0.07537207 -0.0029176618 -0.13106364
-0.17389135 -0.006351502 0.03806486 -0.027979149 0.076428086 -0.18095799 0.08968274 -0.101607144
0.047066864 0.17248616 -0.062670425 0.024309067 0.12685578 -0.05524237 -0.08920466 0.067287095
0.18932524 -0.09475864 0.16181177 -0.021736765 -0.16618396 -0.16530477 -0.14984153 -0.1816435
0.05299931 0.11251361 0.10178501 6.043376e-06 0.12290807 -0.049155984 0.021183806 0.09137803
0.0012246487 -0.22532512 -0.03626798 0.07849248 0.15495643 0.043397553 0.12041137 -0.06519198
00000000: 9f9d 35bb 4565 debd 6426 ce3c 6dd9 673d
00000010: 3d24 b8bd b303 5bbe ad90 5fbd de27 47bd
00000020: c8ed 0bbd 7f38 113a 4e1c 003d f700 e2bd
00000030: 4646 a13c 9f74 c03d 0802 a53c 3562 57bd
00000040: 88a8 07be 6b15 243e 7978 163c d462 8dbd
00000050: 84d8 57bd 4421 183d 7a57 87bd aafa d4bd
00000060: 28e1 a13b 7944 573d 2253 83bc c07b 9cb9
00000070: 1c91 36be 0dc1 033d 271d 60bd a821 1c3d
00000080: 44dc 10be e9f8 52be 9cf0 c93c 1ee9 6ebe
00000090: f5d7 9abd 33a5 54be efc3 5fbe c597 663d
000000a0: 0b63 26be 5d27 e53d f1b0 a43b 68a8 723d
000000b0: f9b4 cd3d 676a d5bd 3679 253e 1701 933c
000000c0: d361 b63c 38fb 443e bbef 66bd effb 8a39
000000d0: 8e05 91bd 67f9 833a c2d6 1cbd 124d fc3d
000000e0: 28fd 0abe 5891 62bd 6984 07bd c165 2fbc
000000f0: f8b6 54bb 8712 46bc bc2a 943d 4a86 093e
00000100: 1ca6 dbbc d084 b1bd d490 5e3c 1a2c e83c
00000110: 8a25 2cbe ba34 2cbe e1b8 f0bd dfe8 1b3e
00000120: ab3d 1d3d 05b2 f2bd d26a 5cbd 199c 1dbd
00000130: b32f bf3b 50d4 15be f25d 0dbc 8302 a63d
00000140: ca90 d2bd 8bb4 a63b 3acc b13c 311e 62bd
00000150: d970 073e f1d5 133e ef7c c1bd 61fe 073c
00000160: 91a3 66be 3bc0 34bd efd4 4d3d 6a1a e13d
00000170: 63be 873d 7d9c 023d e715 5a3a 19fd 5bba
00000180: 8a27 99bd 7895 c03d a631 c6bd 571e 593b
00000190: 8991 98bc cc78 9ebe 242a 35bd 35ee 4a3d
000001a0: 43aa ac3d f5ab 08be 2fac 953c 3a92 f13b
000001b0: a612 b3bd 11bf 9e3d c837 9f3d f5e1 8e3d
000001c0: 78ff 8f3d 7b94 9f3d ac24 163e b212 ff3d
000001d0: b9ac 143d b23a 153d dc1d 9e3d 3aa9 8b3d
000001e0: 7835 7f3d 08b9 3abb b89b f23c 8dbd 483d
000001f0: 03cb eb3d 3d2f f63d 46a5 fc3d ace8 d83c
00000200: 52c7 5fbd e29a e43c acef e13d 4e89 a4bc
00000210: 8708 ebbc f4ce 07bd 2f73 173d 60e7 7dbc
00000220: 0290 9ebd 6011 a4bc e47b 553c 32fd 0fbe
00000230: 6134 2ebe 46b8 313e 9e25 613d 6c3c 65be
00000240: e6a1 b3bd a042 0f3d 4272 26be 5767 b6bd
00000250: 901a 24bd 019c e3bc 396d 063d 0755 f3bd
00000260: 6e3e 08be 9eb4 f5bd c689 a53c 6218 b4bd
00000270: 5367 e4bd 7808 5c3c 988f f0bd 7822 483c
00000280: 065c 263d 2425 5abe dfb1 e3bc 9ac7 ffbd
00000290: ed11 253d c22b 17be 30b8 1ebe f385 d6bd
000002a0: 5cc8 453c a78b 053e 068e 82bd 8ec3 013d
000002b0: b967 c9bc df55 b5bd 1a98 9b3c 1be8 6cbd
000002c0: d415 8b3d 545d 933d 7343 803c 2f18 bbbc
000002d0: 79a2 b23c e24f f13d 6afc 93bd 630d 073d
000002e0: 126e 68be 464f 1cbd 9f49 8bbc a660 153d
000002f0: a2c2 96bc d27c fc3a 2cf7 eabc ce84 933d
00000300: c6fa 3f3d a39f 0abe 51b0 1c3d cde0 b33b
00000310: 64ef a5bd 22d6 943d 945e 63bc ae3d 69bd
00000320: d622 3b3e 208b cfbd 172f 22be 9d33 bdbd
00000330: 3059 9abc 3fd5 e7be 23d2 1c3d 19d9 633c
00000340: bbfc 13be 375a 613d 0520 12be 819c 04be
00000350: 242e ae3d ac5c 9abd 3e36 3fbb 8c35 06be
00000360: 9310 32be 4320 d0bb e6e9 1b3d 8734 e5bc
00000370: 5486 9c3d 0d4d 39be 96ab b73d 6817 d0bd
00000380: 2fc9 403d 36a0 303e 5a59 80bd cf23 c73c
00000390: 7be6 013e d345 62bd efb0 b6bd d1cd 893d
000003a0: 7ade 413e d110 c2bd fcb1 253e 4d11 b2bc
000003b0: 212c 2abe a745 29be 0f70 19be c100 3abe
000003c0: ce15 593d 896d e63d a974 d03d 34c8 ca36
000003d0: 3ab7 fb3d c957 49bd a989 ad3c 6824 bb3d
000003e0: 6484 a03a a1bb 66be bc8d 14bd aac0 a03d
000003f0: e6ac 1e3e a2c1 313d 3d9a f63d 5f83 85bd

model/tf.nn.convolution/convolution f4 [64, 3, 3, 6]
-0.16626804 0.49717525 0.13170761 -0.45106438 0.85251373 0.2982901 0.18448582 1.1483593
-0.40718716 0.156906 1.214779 -0.44956574 -0.2004568 0.14402236 0.16486353 -0.33345583
0.113501064 0.37166354 -0.44984183 1.293633 0.0919045 -0.29490855 2.1949115 -0.35279655
-0.30870125 1.5022349 -0.03229124 0.17298183 2.2058551 -0.5381018 -0.56954104 0.49636394
0.28041318 0.3568383 0.7062893 -0.41536468 0.106364444 0.8572975 -0.34966406 0.09986104
0.7894408 -0.34805518 0.46275657 0.80847716 -0.68321407 0.09549068 0.6152399 -0.1754994
-0.108405575 -0.2941195 0.07704794 0.36141175 -0.6252436 -0.21802756 -0.11323268 0.16508353
-0.1146597 -0.04337085 0.08856432 -0.038367312 0.12630782 0.16852282 0.032884978 0.0941469
0.14746772 0.07383299 0.078150764 0.054365423 0.18589863 0.017036352 0.110140346 0.11913382
0.053204056 0.011581917 -0.029477058 -0.02693831 0.15792905 -0.0730664 0.10221555 0.20370476
0.10853406 -0.019278908 0.13863418 -0.050355423 0.04178804 0.010579051 0.09701525 -0.10653722
0.090422995 -0.05535723 0.14519055 0.09647328 0.10392822 0.13877925 -0.0063004973 0.08678799
0.15092164 0.007816233 0.2128838 0.29163414 -0.13001354 0.07608309 -0.010191016 -0.016964337
0.12404872 0.06402512 -0.18771273 0.09798989 -0.61312026 0.75557446 -0.4526046 -0.5544632
0.055680674 -1.314663 -0.79403615 0.69039357 -0.65758395 -0.99969226 -0.06816617 -0.6794633
-0.45855522 0.32903874 -0.17534816 -0.41629925 0.29116812 -0.6073223 -0.4924301 0.83061945
0.12363256 -0.54021746 1.3730887 -0.13388807 0.106721096 1.1254236 -0.32667962 -0.418477
1.7440901 -0.16524051 0.15620592 0.34520057 -0.15459703 0.1063518 0.55430096 0.020602433
-0.27054933 -0.055944823 0.35153127 0.036239266 0.14140174 0.09908512 0.250865 -0.06664787
-0.17709088 0.14944495 0.23234513 0.06656003 -0.060576778 0.11344031 0.2058757 0.50537604
-0.19806473 -0.19553894 -0.025416458 -0.14296284 -0.11535401 -0.11034455 -0.10903984 0.04598211
-0.10988614 0.021403747 -0.06496507 -0.00046632113 0.15640418 -0.1758905 0.025176033 0.074716546
-0.01916022 0.08572996 0.14814511 -0.08535777 -0.70002633 -0.7578074 -0.4459665 -0.7869519
-0.43457955 -0.75266683 -0.22753832 0.02643773 -0.05388801 -0.20980868 0.08259291 -0.11813379
0.05249244 0.0035503872 0.2714524 0.038684044 0.091532655 0.17721078 -0.122928925 -0.12338483
-0.09278585 -0.09664549 0.13613823 -0.09208354 0.07383888 -0.045574676 -0.07945924 -0.0854545
0.16896786 0.026180035 0.13001429 0.0056681456 -0.028061343 0.105386585 0.025439123 -0.014687317
0.10582128 0.015566308 -0.034353845 0.08050428 -0.17071456 0.13856733 0.044343743 -0.12160226
0.09276477 0.30039132 -0.19381891 0.27478257 0.023638709 -0.13444786 -0.06196712 0.07130218
-0.22665796 0.29134318 0.09091865 -0.00038717387 -0.09354032 0.17414165 0.257659 0.06376828
0.014426046 0.1935335 0.05529474 0.091614 0.22237164 0.24713604 0.07472639 0.08204241
-0.10668599 0.1715756 0.14492759 -0.08374424 -0.117299676 0.15339747 -0.03677206 -0.054715484
00000000: 2b42 2abe c18d fe3e 5cde 063e e9f1 e6be
00000010: 573e 5a3f 7bb9 983e dae9 3c3e 70fd 923f
00000020: d67a d0be f7ab 203e e17d 9b3f 7b2d e6be
00000030: 8c44 4dbe 997a 133e fcd1 283e b9ba aabe
00000040: 3f73 e83d af4a be3e ab51 e6be c495 a53f
00000050: 6d38 bc3d 41fe 96be 6e79 0c40 c0a1 b4be
00000060: 170e 9ebe 3c49 c03f d243 04bd 2622 313e
00000070: bb2c 0d40 0ac1 09bf 71cd 11bf 6a23 fe3e
00000080: 5192 8f3e 82b3 b63e 60cf 343f aeaa d4be
00000090: 9ad5 d93d d977 5b3f 2b07 b3be f283 cc3d
000000a0: cb18 4a3f 4a34 b2be 6eee ec3e 5cf8 4e3f
000000b0: 1ee7 2ebf 9e90 c33d 5d80 1d3f 1db6 33be
000000c0: be03 debd d596 96be 4fcb 9d3d f60a b93e
000000d0: f70f 20bf 9e42 5fbe 89e6 e7bd a80b 293e
000000e0: b4d2 eabd a2a5 31bd 3661 b53d 0b27 1dbd
000000f0: d656 013e 3f91 2c3e 66b2 063d 17d0 c03d
00000100: c701 173e c035 973d 820d a03d 47ae 5e3d
00000110: 365c 3e3e d28f 8b3c 4391 e13d 6ffc f33d
00000120: 7fec 593d 15c2 3d3c df79 f1bc bbad dcbc
00000130: 27b8 213e d6a3 95bd 6356 d13d fb97 503e
00000140: 1b47 de3d cdee 9dbc 1ef6 0d3e 7d41 4ebd
00000150: f029 2b3d c253 2d3c eeaf c63d 3030 dabd
00000160: b12f b93d 43be 62bd d5ac 143e c893 c53d
00000170: 52d8 d43d 261c 0e3e 6774 cebb e7bd b13d
00000180: 348b 1a3e a80f 003c 36fe 593e 1251 953e
00000190: 4522 05be 73d1 9b3d 38f8 26bc cbf8 8abc
000001a0: 410d fe3d 9a1f 833d c437 40be ecae c83d
000001b0: 73f5 1cbf 546d 413f cabb e7be 4df1 0dbf
000001c0: 6b11 643d e146 a8bf f445 4bbf a2bd 303f
000001d0: 6c57 28bf d5eb 7fbf b49a 8bbd 4ff1 2dbf
000001e0: c0c7 eabe c477 a83e 788e 33be 2d25 d5be
000001f0: fd13 953e 7979 1bbf cc1f fcbe 7aa3 543f
00000200: 1133 fd3d b14b 0abf 5fc1 af3f f419 09be
00000210: 9790 da3d e10d 903f 8d42 a7be 9e42 d6be
00000220: 583e df3f cf34 29be 72f4 1f3e 21be b03e
00000230: af4e 1ebe f9ce d93d abe6 0d3f 6fc6 a83c
00000240: 7185 8abe 6626 65bd e8fb b33e a06f 143d
00000250: 9ecb 103e 24ed ca3d 6171 803e ae7e 88bd
00000260: 5057 35be 1908 193e e2eb 6d3e a050 883d
00000270: 5b1f 78bd 6553 e83d 14d1 523e 5360 013f
00000280: 7bd1 4abe 5c3b 48be 2d36 d0bc da64 12be
00000290: b93e ecbd 53fc e1bd 4850 dfbd bd57 3c3d
000002a0: fc0b e1bd e956 af3c 680c 85bd 907c f4b9
000002b0: 6b28 203e a41c 34be f83d ce3c fd04 993d
000002c0: e5f5 9cbc 3093 af3d 5ab3 173e 0ed0 aebd
000002d0: ed34 33bf aaff 41bf b955 e4be ae75 49bf
000002e0: 3681 debe c6ae 40bf ceff 68be f093 d83c
000002f0: adb9 5cbd 16d8 56be 7926 a93d 21f0 f1bd
00000300: 5002 573d 9dad 683b cffb 8a3e 2973 1e3d
00000310: 7975 bb3d be76 353e 29c2 fbbd 30b1 fcbd
00000320: 8206 bebd 12ee c5bd d267 0b3e 4c96 bcbd
00000330: d738 973d 83ac 3abd 87bb a2bd c502 afbd
00000340: e905 2d3e 8377 d63c 7722 053e dabb b93b
00000350: e7e0 e5bc ecd4 d73d b565 d03c 13a3 70bc
00000360: d4b8 d83d d409 7f3c 9eb6 0cbd 6edf a43d
00000370: cccf 2ebe 98e4 0d3e c9a1 353d 9b0a f9bd
00000380: 75fb bd3d e4cc 993e 7778 46be 4db0 8c3e
00000390: f7a5 c13c b3ac 09be 3cd1 7dbd e106 923d
000003a0: 0619 68be ef2a 953e 8f33 ba3d 99fd cab9
000003b0: 1192 bfbd 3052 323e e1eb 833e f298 823d
000003c0: 395b 6c3c a52d 463e bd7c 623d 1fa0 bb3d
000003d0: 64b5 633e 3b11 7d3e 260a 993d da05 a83d
000003e0: 2f7e dabd 84b1 2f3e e667 143e 1a82 abbd
000003f0: d03a f0bd 3a14 1d3e 4d9e 16bd 581d 60bd

model/tf.nn.convolution_1/convolution f4 [128, 3, 3, 64]
-0.17605379 -0.015841752 -0.06392651 0.04258897 -0.02984564 -0.012273602 0.010557906 0.2794862
0.09374364 -0.21270747 0.02121271 -0.040374372 0.016880611 0.025417062 -0.083522774 0.058220714
-0.030841697 0.018791666 -0.038794406 -0.025072156 -0.034698132 -0.006419172 0.006977173 0.09775686
0.023656331 0.077698246 -0.11498582 -0.18726951 -0.007529809 -0.00047961212 -0.16772456 0.08450251
0.06025371 -0.07792501 -0.023515826 -0.113916494 -0.1315729 -0.047230322 0.08493517 0.00056618976
0.04875678 -0.12051552 -0.07144719 -0.12547591 -0.022519778 -0.06909067 -0.096127376 -0.0058564716
0.02085996 -0.15504022 0.019374717 -0.22954997 -0.06004003 0.037248794 -0.04928813 0.1540925
-0.13238105 -0.058975674 -0.14018334 -0.06479452 0.15095374 -0.08264178 0.05913685 0.017555218
-0.094217554 0.04840488 -0.2201187 0.18005201 -0.00050402613 -0.07135336 0.068545125 -0.09568862
0.122812234 -0.22555342 -0.036470428 -0.17701334 -0.035732508 -0.0633384 -0.27666873 -0.14764653
0.09404491 0.15043637 -0.11975101 -0.12656052 -0.07374188 -0.047127288 -0.03376614 0.1453306
0.12757649 -0.018970111 0.09988617 -0.15147686 -0.027457057 -0.026833544 0.10590172 -0.09177329
0.018118395 0.001433732 -0.0052528703 -0.0651967 -0.24463475 -0.0027887896 -0.046007562 -0.014578846
0.01403812 0.18239464 -0.14319216 -0.16636688 0.04695629 0.08395694 0.004341684 0.042537186
-0.028969778 -0.10395014 -0.060671452 -0.2218353 -0.14950264 0.08330424 0.03409536 -0.056967996
0.06730854 -0.08080923 -0.08048884 -0.029709613 0.07820967 0.055011414 0.21736932 -0.1742759
0.086024195 0.23605537 -0.012060262 0.054799937 0.0011735731 -0.11850296 0.18534432 -0.07471051
0.16139877 -0.14798874 -0.0036498907 -0.023792626 -0.09999096 -0.26475757 -0.17725272 -0.10347872
0.07672887 -0.031938974 -0.030774316 -0.17245157 -0.12677704 0.015205019 -0.12471013 0.19036445
0.08317477 0.09701026 -0.14039068 0.063624606 -0.16168031 -0.06448174 0.13250227 -0.11869641
0.057569694 0.09839578 -0.24059007 -0.01836903 -0.08275074 0.10412905 0.016242085 -0.0041130814
0.023926716 -0.22586487 -0.22052558 0.11940065 0.08551945 -0.03922605 0.2565643 0.1672629
-0.04609788 0.11686592 -0.17711498 -0.009188213 -0.09045354 0.14755017 -0.10446482 -0.14155369
-0.040201653 0.02070899 0.1408638 -0.040529203 -0.015168071 -0.09654495 -0.074639715 -0.21992953
-0.17492789 -0.08403046 -0.010312166 -0.0074902214 -0.036956016 -0.114663415 0.038228575 -0.13558859
0.0596551 -0.17575023 0.05828684 -0.10558155 0.12192763 0.16716628 0.017509857 0.015917312
-0.11726325 -0.16581605 0.057967935 0.14725338 -0.08616507 0.061675917 -0.0068254415 0.019874092
0.25566828 -0.056041505 -0.02246252 0.23643635 -0.0118117705 -0.13931671 0.11452785 0.052848514
0.12770335 0.016900983 0.081605874 -0.1979959 -0.19005255 -0.02125852 -0.034412548 0.0013506139
-0.015914746 0.37186208 0.01100352 -0.033443604 -0.061273858 0.004132183 -0.026961574 -0.05563683
0.08508846 -0.12314225 -0.14433418 -0.19438453 -0.11653132 -0.13599823 -0.16227885 -0.058388054
-0.18594 0.12129556 -0.30355906 0.095204 -0.06316502 -0.051895455 -0.17427073 -0.11941431
00000000: 7247 34be 90c6 81bc e7eb 82bd c671 2e3d
00000010: d87e f4bc 3817 49bc 11fb 2c3c d118 8f3e
00000020: aafc bf3d fdcf 59be 47c6 ad3c 995f 25bd
00000030: 3549 8a3c 7137 d03c fd0d abbd d878 6e3d
00000040: baa7 fcbc fbf0 993c e2e6 1ebd 1f64 cdbc
00000050: a11f 0ebd eb57 d2bb c5a0 e43b c034 c83d
00000060: ecca c13c 4220 9f3d b07d ebbd 94c3 3fbe
00000070: 9ebc f6bb 7374 fbb9 fdbf 2bbe a70f ad3d
00000080: 98cc 763d 2697 9fbd 43a4 c0bc 0d4d e9bd
00000090: 0cbb 06be 9574 41bd 7ef2 ad3d 5a6c 143a
000000a0: 30b5 473d d7d0 f6bd e852 92bd c27c 00be
000000b0: 667b b8bc 697f 8dbd 6ede c4bd a5e7 bfbb
000000c0: 82e2 aa3c ddc2 1ebe bab7 9e3c 260f 6bbe
000000d0: 89ec 75bd 3192 183d 5ae2 49bd 6dca 1d3e
000000e0: e68e 07be 7a90 71bd 398c 0fbe fdb2 84bd
000000f0: 9e93 1a3e 1840 a9bd 7b39 723d f6cf 8f3c
00000100: 22f5 c0bd 3244 463d cc66 61be 8e5f 383e
00000110: 9f20 04ba b621 92bd 6361 8c3d 65f8 c3bd
00000120: fb84 fb3d 7af7 66be 0462 15bd fc42 35be
00000130: 405c 12bd 90b7 81bd 86a7 8dbe a730 17be
00000140: 9e9a c03d fe0b 1a3e 0440 f5bd 1599 01be
00000150: fc05 97bd 8b08 41bd 5d4e 0abd 8bd1 143e
00000160: 69a3 023e 3567 9bbc 1f91 cc3d c01c 1bbe
00000170: 9fed e0bc 05d2 dbbc 00e3 d83d a2f3 bbbd
00000180: 076d 943c 10ec bb3a 4520 acbb d985 85bd
00000190: 8881 7abe 20c4 36bb 6d72 3cbd 1ddc 6ebc
000001a0: 2500 663c a9c5 3a3e f7a0 12be 145c 2abe
000001b0: 3d55 403d 9ef1 ab3d af44 8e3b 793b 2e3d
000001c0: 0752 edbc d0e3 d4bd a182 78bd cb28 63be
000001d0: 3817 19be 6a9b aa3d 94a7 0b3d 4657 69bd
000001e0: 0fd9 893d 4f7f a5bd 55d7 a4bd 9361 f3bc
000001f0: 642c a03d a653 613d 1096 5e3e 6275 32be
00000200: 742d b03d 80b8 713e 6898 45bc e675 603d
00000210: 94d2 993a aeb1 f2bd e7ca 3d3e d301 99bd
00000220: b845 253e 5c8a 17be 0133 6fbb c1e8 c2bc
00000230: 0fc8 ccbd 4e8e 87be bd81 35be a7ec d3bd
00000240: 0724 9d3d 71d2 02bd 6b1a fcbc 2597 30be
00000250: d7d1 01be 791e 793c 0668 ffbd e6ee 423e
00000260: 8957 aa3d 51ad c63d 93c2 0fbe 9e4d 823d
00000270: 868f 25be 010f 84bd adae 073e 1a17 f3bd
00000280: 33ce 6b3d ba83 c93d 3e5d 76be a67a 96bc
00000290: 3879 a9bd 9d41 d53d 1f0e 853c 07c7 86bb
000002a0: f601 c43c 1f49 67be 75d1 61be 5488 f43d
000002b0: d224 af3d 7fab 20bd 655c 833e f746 2b3e
000002c0: 21d1 3cbd 6657 ef3d a15d 35be 298a 16bc
000002d0: b53f b9bd 6417 173e a7f1 d5bd 73f3 10be
000002e0: 7daa 24bd e6a5 a93c 9a3e 103e f301 26bd
000002f0: 8083 78bc 5cb9 c5bd b5dc 98bd 3535 61be
00000300: 4c20 33be 2918 acbd 5cf4 28bc 8870 f5bb
00000310: 315f 17bd a7d4 eabd 9195 1c3d bcd7 0abe
00000320: e858 743d def7 33be 2ebe 6e3d 243b d8bd
00000330: 31b5 f93d a32d 2b3e d570 8f3c 0665 823c
00000340: b727 f0bd afcb 29be c96f 6d3d 97c9 163e
00000350: 5077 b0bd e39f 7c3d f4a7 dfbb fece a23c
00000360: f4e6 823e c78b 65bd 5203 b8bc 5f1c 723e
00000370: 2886 41bc 0aa9 0ebe 948d ea3d af77 583d
00000380: abc4 023e ee73 8a3c fb20 a73d 70bf 4abe
00000390: 239d 42be 5926 aebc 2cf4 0cbd 1507 b13a
000003a0: a45f 82bc b564 be3e 1c48 343c 29fc 08bd
000003b0: 4cfa 7abd 4367 873b 85de dcbc 72e3 63bd
000003c0: dc42 ae3d 0132 fcbd 57cc 13be bd0c 47be
000003d0: f9a7 eebd 1f43 0bbe 6d2c 26be 5028 6fbd
000003e0: 0e67 3ebe ce69 f83d 186c 9bbe 51fa c23d
000003f0: a95c 81bd 5490 54bd 0774 32be 7d8f f4bd

model/tf.math.multiply_3/Mul/y f4 [4]
0.071666546 0.1846293 0.18801415 0.09357184
00000000: e9c5 923d 770f 3d3e c886 403e 98a2 bf3d

model/tf.math.multiply/Mul/y f4 [64]
1.6149657 0.46617314 4.8727546 1.3069171 0.45500764 1.9068263 1.5128654 1.3261791
1.1932404 1.2292206 1.0147345 0.9928349 0.74477786 1.2877352 0.7595312 1.5328559
0.9140695 1.0518432 1.1905688 1.5013713 1.1529093 0.9645641 1.6272422 1.5033895
0.90984285 1.3153391 0.9918035 1.0785317 1.212711 1.5586761 2.2002342 1.5617737
1.2853783 0.911976 1.6091115 1.6122366 1.2788426 2.0295422 1.3438047 1.0181359
1.5737013 1.1398511 1.3756653 1.074241 1.1675268 1.2705455 1.2158217 1.1683342
1.2070944 1.0102553 1.3554308 1.0951501 1.5170937 1.0052776 1.5285311 1.5590796
1.3321949 1.333345 1.5185347 0.847893 0.9983024 1.4325521 1.1678227 1.43228
00000000: 32b7 ce3f 3fae ee3e 9bed 9b40 0f49 a73f
00000010: c3f6 e83e e212 f43f 93a5 c13f 3dc0 a93f
00000020: 1abc 983f 1a57 9d3f d2e2 813f 6e2a 7e3f
00000030: c3a9 3e3f 82d4 a43f a370 423f 9f34 c43f
00000040: 7500 6a3f cca2 863f 8f64 983f ef2c c03f
00000050: 8892 933f aced 763f 7949 d03f 116f c03f
00000060: 76eb 683f 085d a83f d6e6 7d3f 540d 8a3f
00000070: 1d3a 9b3f b382 c73f a3d0 0c40 33e8 c73f
00000080: 4787 a43f 4277 693f 5ef7 cd3f c55d ce3f
00000090: 1db1 a33f 05e4 0140 cb01 ac3f 4752 823f
000000a0: 0b6f c93f a4e6 913f cd15 b03f bb80 893f
000000b0: 8571 953f 3ca1 a23f 0ca0 9b3f fa8b 953f
000000c0: 1282 9a3f 0c50 813f c27e ad3f e12d 8c3f
000000d0: 2030 c23f f0ac 803f e8a6 c33f ec8f c73f
000000e0: 5d85 aa3f 0dab aa3f 585f c23f 840f 593f
000000f0: bf90 7f3f de5d b73f 377b 953f f354 b73f

model/40/AddV2/y f4 [4]
0.041594747 0.021815619 0.0040321792 -0.01238197
00000000: 415f 2a3d abb6 b23c 5f20 843b bfdd 4abc

model/tf.__operators__.add/AddV2/y f4 [64]
0.078089714 0.13363558 -0.79473114 0.36170685 0.48041132 0.6424371 -0.06913972 -1.7944506
0.18552339 0.54964125 0.0780223 0.46975505 0.89375603 0.117298365 1.0967166 0.2713195
0.09766626 0.9189873 -0.08376959 0.04561901 1.6698277 -0.05614233 0.41314673 1.0485802
0.61378706 -0.3641742 1.4751624 1.3698857 0.2140165 0.029272437 0.17285603 -0.8885704
0.04566753 1.1103323 -0.37126362 0.86747515 1.7506348 0.2170887 -0.08036131 0.01450026
0.79622495 -0.20350957 0.1857127 0.68183404 0.14756918 -0.05242753 0.61598605 0.08105752
0.6322614 -0.45543557 0.36173844 0.8334638 -0.016101241 0.2022582 -0.22219187 -2.4839077
0.33421576 0.17019522 0.46997112 0.20948666 0.13714361 0.7679192 0.3956529 0.23969698
00000000: 80ed 9f3d c4d7 083e 8073 4bbf a431 b93e
00000010: 79f8 f53e c276 243f 2099 8dbd 8fb0 e5bf
00000020: d8f9 3d3e 4ab5 0c3f 28ca 9f3d bc83 f03e
00000030: 32cd 643f 203a f03d 3661 8c3f 64ea 8a3e
00000040: 4005 c83d c042 6b3f 648f abbd 00db 3a3d
00000050: eabc d53f 80f5 65bd f887 d33e e037 863f
00000060: 2621 1d3f 0a75 babe 1fd2 bc3f 6a58 af3f
00000070: 2427 5b3e c0cc ef3c 2c01 313e 5a79 63bf
00000080: e00d 3b3d 5e1f 8e3f 4416 bebe da12 5e3f
00000090: cd14 e03f 804c 5e3e 7894 a4bd 8092 6d3c
000000a0: 66d5 4b3f d064 50be 782b 3e3e ad8c 2e3f
000000b0: 601c 173e 40be 56bd 43b1 1d3f 7c01 a63d
000000c0: e2db 213f da2e e9be c835 b93e e25d 553f
000000d0: c0e6 83bc c61c 4f3e 4486 63be 58f8 1ec0
000000e0: 541e ab3e a847 2e3e 0ea0 f03e ac83 563e
000000f0: 606f 0c3e 5a96 443f 0493 ca3e 2073 753e
