TinyCenterSpeed_for_train/deploy/onnx/CenterSpeed64.onnx (onnx, 911805 bytes, 12 tensors)

deconv1.weight f4 [128, 64, 4, 4]
-0.1777722 -0.7848168 0.0014846178 0.05397845 -0.32841688 -0.27409974 0.4797914 0.1456674
0.108794734 0.25951436 0.1960716 0.21877816 0.0952809 0.11990053 0.3197421 -0.047397997
0.020752568 -0.01065347 0.011975349 0.01908003 0.02124988 -0.031000612 -0.026384462 -0.0027330176
-0.03627527 0.012048576 -0.006112411 -0.014742582 -0.03723557 -0.026232492 -0.032757703 0.013816394
-0.10783393 -0.5547367 -0.03648158 -0.07620107 -0.03569347 -0.3152605 -0.0039600935 0.14518894
0.06493432 0.3010929 0.06005162 0.18748266 0.009991338 0.11603482 0.031901345 -0.016739627
-0.14904976 -0.035586912 -0.041506458 0.021142494 0.1633854 -0.34347117 -0.04363704 0.20894895
0.18727346 0.034492355 0.23396449 0.027650993 0.10579149 0.19083804 0.2369235 -0.077626415
-0.04191968 -0.59109455 0.002681126 0.040962495 0.007937719 -0.06491391 -0.010107519 0.022712177
0.056176785 0.24471854 0.01664 0.1929825 0.0043044905 0.049831506 0.0022277099 0.005316736
0.20863539 0.15195593 0.22075132 -0.037875764 -0.013365389 -0.003023148 -0.025964234 0.0065892246
-0.0122424085 -0.039684054 -0.026497738 -0.02568158 -0.011000532 -0.027006505 -0.025948718 -0.011488588
-0.13017815 -0.24405585 -0.06781181 0.036370765 -0.0020781513 -0.0336372 0.055899803 0.018170869
0.08897911 0.06579735 0.19343616 0.07527021 0.047162525 0.062450808 0.080548175 0.03125095
-0.018166592 0.1914088 -0.0029073828 -0.12812448 0.07042828 -0.0049727857 0.09331908 -0.012174607
0.0065938444 0.012269991 -0.011111314 0.002866535 0.005366766 0.018213455 0.01774553 0.013231136
-0.040410977 -0.10345675 0.01436516 -0.0011648048 0.0076525547 -0.074175395 0.02438893 0.017885393
0.043014333 0.031055927 0.03168143 0.033057448 -0.0025824932 0.02815325 0.05640784 0.035775613
-0.081894375 -0.30263522 -0.051283438 0.039471693 -0.0105850985 -0.04796797 0.06220227 0.02178647
0.14671798 0.10363117 0.16553622 0.10950192 0.05592594 0.037842922 0.07920927 -0.026180426
-0.012927246 0.109255396 0.0085538225 -0.04406695 -0.04659137 -0.0038691594 0.09582583 -0.021512534
0.004730902 -0.0012521691 0.008334305 -0.030918803 0.020870587 -0.0060501634 0.01890738 -0.012060405
-0.26068988 -0.5474494 -0.07498647 -0.0416364 -0.057410788 -0.16801883 0.118624724 0.066975206
0.16544122 0.19720091 0.24387799 0.15684798 0.04843606 0.08574513 0.21487404 0.048299603
0.022964565 0.0022814735 -0.0009975592 -0.0052391146 0.019233854 -0.03846883 0.011685306 0.011788167
-0.0044635083 0.002331244 -0.02003731 0.011018483 -0.018797113 -0.01505609 0.024238393 0.006682571
-0.047548372 -0.31867567 -0.0057288883 0.02337203 -0.036648132 -0.14364976 0.050405364 0.036953554
0.0135329645 0.08221674 0.0748504 0.08607344 0.051187824 0.049774267 0.14548922 0.028294189
-0.07311109 -0.24631783 -0.018029656 0.011995006 -0.01684613 -0.04410651 0.014616721 -0.0013995318
0.08044653 0.016150191 0.12834488 0.029002214 0.02636803 0.010296321 0.023654662 0.04267046
-0.036417965 -0.02543185 -0.016081234 -0.020652372 -0.013423715 -0.032165486 -0.025895067 0.012890897
-0.034933083 -0.010668379 -0.008626878 -0.004510145 0.0067586238 0.018395087 -0.009404236 -0.011935721
00000000: ea09 36be c1e9 48bf 8297 c23a 8218 5d3d
00000010: 4226 a8be cd56 8cbe 38a7 f53e d629 153e
00000020: c6cf de3d 11df 843e fec6 483e 6207 603e
00000030: a222 c33d 698e f53d 3db5 a33e 6724 42bd
00000040: 4a01 aa3c e48b 2ebc 4134 443c b94d 9c3c
00000050: 3a14 ae3c fff4 fdbc 3a24 d8bc 6d1c 33bb
00000060: 6195 14bd 6467 453c 9f4a c8bb df8a 71bc
00000070: 5384 18bd 86e5 d6bc f12c 06bd 285e 623c
00000080: 09d8 dcbd 3903 0ebf b66d 15bd 4e0f 9cbd
00000090: 5133 12bd d369 a1be acc3 81bb 69ac 143e
000000a0: 49fc 843d d928 9a3e b0f8 753d 74fb 3f3e
000000b0: b5b2 233c aaa3 ed3d fcaa 023d 8b21 89bc
000000c0: 80a0 18be 95c3 11bd ad02 2abd 0633 ad3c
000000d0: 814e 273e 74db afbe c1bc 32bd b7f6 553e
000000e0: 9dc4 3f3e db47 0d3d 6394 6f3e 5684 e23c
000000f0: 35a9 d83d 0c6b 433e 139c 723e 99fa 9ebd
00000100: f8b3 2bbd f951 17bf d4b5 2f3b 4ac8 273d
00000110: 350d 023c 96f1 84bd 029a 25bc e30e ba3c
00000120: a119 663d 7f97 7a3e 9c50 883c 349d 453e
00000130: af0c 8d3b 1f1c 4c3d c5fe 113b 0438 ae3b
00000140: 84a4 553e 569a 1b3e a20c 623e 9e23 1bbd
00000150: 81fa 5abc 0220 46bb f2b2 d4bc 6cea d73b
00000160: 6294 48bc bf8b 22bd c911 d9bc 2d62 d2bc
00000170: 933b 34bc bf3c ddbc 6892 d4bc a13a 3cbc
00000180: 6c4d 05be c7e9 79be ebe0 8abd 83f9 143d
00000190: 9831 08bb 29c7 09bd 31f7 643d 13db 943c
000001a0: ae3a b63d c3c0 863d 2114 463e 4527 9a3d
000001b0: 7e2d 413d 6bcc 7f3d 71f6 a43d ff00 003d
000001c0: 1bd2 94bc ab00 443e ca89 3ebb 1033 03be
000001d0: b43c 903d c0f2 a2bb 131e bf3d 0178 47bc
000001e0: 2d11 d83b 1308 493c 3b0c 36bc 7adc 3b3b
000001f0: b2db af3b 6234 953c 135f 913c 68c7 583c
00000200: fb85 25bd 22e1 d3bd d95b 6b3c 5dac 98ba
00000210: 48c2 fa3b 45e9 97bd 4bcb c73c 6384 923c
00000220: cc2f 303d 0069 fe3c 63c4 013d 3f67 073d
00000230: 0c3f 29bb a5a1 e63c e80b 673d 7389 123d
00000240: 3db8 a7bd 01f3 9abe 950e 52bd 12ad 213d
00000250: 1f6d 2dbc 107a 44bd cfc7 7e3d 8a79 b23c
00000260: 3d3d 163e 943c d43d 5482 293e 8b42 e03d
00000270: 9912 653d 2e01 1b3d 7838 a23d 5578 d6bc
00000280: cdcc 53bc 4bc1 df3d 5525 0c3c 8c7f 34bd
00000290: 98d6 3ebd b991 7dbb 5540 c43d 0e3b b0bc
000002a0: af05 9b3b d31f a4ba 9c8c 083c 6e49 fdbc
000002b0: cbf8 aa3c 7340 c6bb a6e3 9a3c 0199 45bc
000002c0: 2579 85be a525 0cbf 8292 99bd ee8a 2abd
000002d0: 9327 6bbd 210d 2cbe 85f1 f23d 4c2a 893d
000002e0: 6c69 293e 09ef 493e 27bb 793e c29c 203e
000002f0: e464 463d 259b af3d f107 5c3e ced5 453d
00000300: 2f20 bc3c c684 153b 88c0 82ba e1ac abbb
00000310: 5190 9d3c 7e91 1dbd ba73 3f3c 2823 413c
00000320: 9f42 92bb c9c7 183b 4925 a4bc de86 343c
00000330: 67fc 99bc d2ad 76bc 988f c63c 78f9 da3b
00000340: 15c2 42bd 7529 a3be 66b9 bbbb b376 bf3c
00000350: 5a1c 16bd ec18 13be db75 4e3d 9c5c 173d
00000360: 5eb9 5d3c 4061 a83d 2b4b 993d 4647 b03d
00000370: 53aa 513d 1ae0 4b3d 20fb 143e 37c9 e73c
00000380: 44bb 95bd be3a 7cbe eeb2 93bc b486 443c
00000390: e500 8abc 07a9 34bd f97a 6f3c 7f70 b7ba
000003a0: 26c1 a43d 684d 843c d76c 033e 0d96 ed3c
000003b0: c401 d83c e6b1 283c 6cc7 c13c 38c7 2e3d
000003c0: 012b 15bd 7556 d0bc cbbc 83bc 2a2f a9bc
000003d0: 24ef 5bbc f5bf 03bd e421 d4bc 5734 533c
000003e0: fe15 0fbd 6dca 2ebc c057 0dbc d7c9 93bb
000003f0: 7277 dd3b 4bb1 963c 3a14 1abc 0b8e 43bc

deconv1.bias f4 [64]
0.23880695 0.005966663 0.045698613 0.10371525 0.11479057 0.0135815395 0.052782334 0.014951972
0.04303785 0.09340212 -0.031678304 0.17447257 -0.02209167 0.05878048 0.07018548 0.0050147125
0.033577017 -0.02665414 0.076020285 0.04591796 0.038763914 0.02146646 -0.013676852 0.04243586
0.079441175 0.07165067 -0.013970001 -0.016312316 0.076368265 0.006537399 0.03284325 -0.0018321134
-0.0051345415 0.04735779 0.011659198 0.06252535 -0.022523912 -0.012583991 0.0027359298 0.047864523
-0.021949584 -0.019493207 0.04698141 0.0026930226 6.898379e-05 0.1678751 0.06258284 0.017127719
0.015270208 0.0695977 0.15644734 0.05492782 0.05332911 0.008814587 0.01900156 0.045950256
-0.022327319 -0.03447882 0.022572355 0.02242025 0.017711157 0.11450875 0.08734865 0.09384944
00000000: cf89 743e ff83 c33b 782e 3b3d a968 d43d
00000010: 5217 eb3d 1b85 5e3c 4a32 583d 1ef9 743c
00000020: 7548 303d 9c49 bf3d 1cc1 01bd f0a8 323e
00000030: 97f9 b4bc cdc3 703d 68bd 8f3d 7552 a43b
00000040: 0e88 093d c859 dabc 86b0 9b3d 7914 3c3d
00000050: e9c6 1e3d 6eda af3c e014 60bc 39d1 2d3d
00000060: 0eb2 a23d 96bd 923d 6ee2 64bc 68a1 85bc
00000070: f766 9c3d ad37 d63b a586 063d 8623 f0ba
00000080: a83f a8bb 3efa 413d 3906 3f3c 4a0d 803d
00000090: 1184 b8bc 152d 4ebc 494d 333b 970d 443d
000000a0: 9dcf b3bc 38b0 9fbc 946f 403d 6c7d 303b
000000b0: 64ab 9038 73e7 2b3e 6f2b 803d 6e4f 8c3c
000000c0: e52f 7a3c 3d89 8e3d bb33 203e fefb 603d
000000d0: a06f 5a3d 0f6b 103c 29a9 9b3c 5636 3c3d
000000e0: c8e7 b6bc aa39 0dbd a9e9 b83c acaa b73c
000000f0: fd16 913c 9083 ea3d d9e3 b23d 2334 c03d

deconv2.weight f4 [64, 1, 4, 4]
0.05077916 -0.038684305 -0.4616429 -0.21673793 -0.12048428 -0.17900865 -0.41497678 -0.055449933
-0.103890404 -0.44256058 -0.56664985 -0.40334025 -0.34245014 -0.14938875 -0.3360144 -0.25055528
0.14542018 0.12513193 0.16656831 0.15564723 0.032626376 0.21677801 -0.24395657 -0.15449649
0.13012582 -0.17766133 -0.16441922 -0.030076355 0.114948675 -0.12820868 0.23360142 -0.033114333
-0.047806334 -0.39580572 -0.04511912 -0.20379204 -0.43162137 -0.17190602 -0.10521465 -0.42861196
-0.32589152 -0.2220428 -0.54231554 -0.29481775 -0.33905333 -0.059872076 -0.15297131 -0.105959944
-0.07199589 -0.44312644 -0.18023886 0.061321583 -0.098017424 -0.5761263 -0.5938413 -0.52364963
-0.25968742 -0.4192685 -0.6808311 -0.27753845 -0.019711945 -0.545193 -0.49312896 -0.045897674
0.11298998 -0.25074512 0.07317077 -0.28090405 -0.24158372 -0.045799084 0.049851574 -0.17821127
-0.1329375 -0.42096624 -0.37355 -0.34872803 -0.31431958 -0.25489643 -0.33041394 -0.3091258
0.15545462 -0.13120748 -0.11962944 -0.1029937 -0.08353389 0.3204349 0.08335659 0.16520746
0.11540031 0.13794315 0.122732006 0.06744945 -0.0003184082 0.13815187 -0.18751258 0.07855473
-0.17850417 -0.050585423 -0.24591704 -0.028813584 -0.23523039 -0.17610995 -0.22675411 -0.32626247
-0.30715123 -0.46446455 -0.13976984 -0.3213736 0.09429316 -0.4111017 -0.28426158 -0.093627125
0.18191451 0.14501043 0.022097053 0.16874938 -0.0071333353 -0.05010308 0.24131887 0.2718169
-0.21887992 -0.10241319 0.16707896 -0.08891952 -0.16193755 0.048131377 -0.14827065 -0.21194059
-0.11860698 -0.2215063 -0.3958379 -0.34107792 -0.07978786 -0.16684523 -0.33004397 0.08800854
-0.0022712387 -0.43795353 -0.31465608 -0.16438429 -0.2571136 -0.18777537 -0.09376499 -0.17338178
-0.13292362 -0.090284124 -0.35587853 0.0105194235 0.028948547 -0.2793491 -0.13128062 -0.4200101
-0.50452673 -0.37865582 -0.62579584 0.0010313808 -0.2713928 -0.30547053 -0.15828815 -0.17503653
-0.15784517 0.248222 0.2514382 -0.028026788 -0.22433427 0.2417662 0.18284988 0.0064820037
0.18210927 -0.124797806 -0.14721802 0.08186334 -0.024750272 0.1084499 0.057062916 -0.22894153
-0.14225148 -0.14424035 -0.26383516 -0.10473867 -0.33223614 -0.2730022 -0.09717474 -0.19930609
-0.45613438 -0.3105358 -0.4876807 -0.2171645 0.11891548 -0.049132667 -0.47757238 -0.3562776
-0.032451823 0.039052498 -0.15554489 0.19242792 -0.036417495 0.1799108 0.021739615 0.11841345
0.14805037 -0.13816012 0.00743753 -0.008592794 -0.16081928 -0.16401936 0.13189247 -0.024078473
-0.2937514 -0.29929215 -0.42238143 -0.127635 -0.15323812 -0.41906282 -0.21202986 -0.16767877
-0.15908141 -0.17253545 -0.16452713 -0.073234044 -0.11679922 -0.29979625 -0.28499088 -0.19793142
-0.36870396 -0.11465894 -0.40448317 -0.20745179 -0.2879987 -0.06991265 -0.4673913 -0.24031243
-0.02072621 -0.43375966 -0.04377009 -0.16628087 -0.2667646 -0.28905347 -0.17996013 -0.35045034
0.041463625 -0.15614632 0.22828332 -0.048780005 -0.1693951 0.16080609 -0.15046167 -0.059061952
0.16207121 0.20170423 -0.102598846 -0.2383259 -0.11686227 0.22320862 0.1504009 0.16324933
00000000: cffd 4f3d 6f73 1ebd 755c ecbe 8cf0 5dbe
00000010: 76c0 f6bd 0b4e 37be d677 d4be 781f 63bd
00000020: 7ec4 d4bd 4d97 e2be f70f 11bf 9d82 cebe
00000030: a055 afbe 5df9 18be 140a acbe c848 80be
00000040: 07e9 143e 9622 003e e290 2a3e fd61 1f3e
00000050: 3ca3 053d 0efb 5d3e c0cf 79be 5434 1ebe
00000060: b43f 053e daec 35be 835d 28be b062 f6bc
00000070: 366a eb3d 2349 03be 3635 6f3e e5a2 07bd
00000080: 93d0 43bd 0ca7 cabe d4ce 38bd dcae 50be
00000090: 7afd dcbe 2208 30be c77a d7bd 0773 dbbe
000000a0: 41db a6be 305f 63be 31d5 0abf 5af2 96be
000000b0: 6698 adbe 6c3c 75bd 83a4 1cbe 8701 d9bd
000000c0: 9572 93bd 78e1 e2be 8990 38be 572c 7b3d
000000d0: 5cbd c8bd 037d 13bf fc05 18bf e70d 06bf
000000e0: c0f5 84be 5caa d6be f24a 2ebf 8519 8ebe
000000f0: f27a a1bc c591 0bbf 667b fcbe 33ff 3bbd
00000100: 4a67 e73d aa61 80be 8fda 953d a8d2 8fbe
00000110: b961 77be d297 3bbd 2a31 4c3d 047d 36be
00000120: c520 08be e388 d7be f241 bfbe 7b8c b2be
00000130: 7fee a0be c981 82be 042c a9be bd45 9ebe
00000140: 7f2f 1f3e 415b 06be 4800 f5bd 5cee d2bd
00000150: d113 abbd 0b10 a43e dcb6 aa3d 252c 293e
00000160: ff56 ec3d f840 0d3e eb5a fb3d f022 8a3d
00000170: 06f0 a6b9 af77 0d3e 4c03 40be 4de1 a03d
00000180: ccc9 36be a932 4fbd add1 7bbe 770a ecbc
00000190: 3ce0 70be 2b56 34be 3b32 68be e00b a7be
000001a0: ed42 9dbe 4cce edbe d31f 0fbe 158b a4be
000001b0: c61c c13d ec7b d2be bc8a 91be 94bf bfbd
000001c0: cc47 3a3e 9d7d 143e e104 b53c a3cc 2c3e
000001d0: c1be e9bb e338 4dbd 4b1c 773e 962b 8b3e
000001e0: 0f22 60be 02be d1bd bf16 2b3e 701b b6bd
000001f0: f5d2 25be 6825 453d 43d4 17be f406 59be
00000200: 37e8 f2bd 8cd2 62be 44ab cabe c4a1 aebe
00000210: d167 a3bd 7ad9 2abe 86fb a8be d23d b43d
00000220: 10d9 14bb 723b e0be 9a1a a1be 5b54 28be
00000230: 65a4 83be 3048 40be dc07 c0bd fe8a 31be
00000240: 211d 08be e2e6 b8bd b635 b6be a959 2c3c
00000250: 8125 ed3c d806 8fbe 6d6e 06be 900b d7be
00000260: aa28 01bf 2ddf c1be 2834 20bf 662f 873a
00000270: fff3 8abe a266 9cbe 4a16 22be c73c 33be
00000280: 2aa2 21be e82d 7e3e 82bc 803e 6f98 e5bc
00000290: e2b7 65be 8f91 773e 003d 3b3e fd66 d43b
000002a0: da7a 3a3e fe95 ffbd 52c0 16be f8a7 a73d
000002b0: 15c1 cabc fb1a de3d ceba 693d a66f 6abe
000002c0: 5faa 11be beb3 13be 6715 87be 3a81 d6bd
000002d0: db1a aabe f2c6 8bbe 8d03 c7bd e516 4cbe
000002e0: 728a e9be 8cfe 9ebe 49b1 f9be 5f60 5ebe
000002f0: f689 f33d 563f 49bd 5e84 f4be 056a b6be
00000300: 34ec 04bd 83f5 1f3d 2947 1fbe d30b 453e
00000310: 832a 15bd 893a 383e 4717 b23c c082 f23d
00000320: 849a 173e d979 0dbe 86b6 f33b cac8 0cbc
00000330: cfad 24be b1f4 27be d20e 073e 3840 c5bc
00000340: 9566 96be d23c 99be 6142 d8be c0b2 02be
00000350: 74ea 1cbe 678f d6be 5b1e 59be fcb3 2bbe
00000360: 3de6 22be 22ad 30be cd79 28be bbfb 95bd
00000370: 6e34 efbd e57e 99be 53ea 91be 89ae 4abe
00000380: c4c6 bcbe 4ed2 eabd 6b18 cfbe 3e6e 54be
00000390: 9174 93be 5d2e 8fbd ea4d efbe 7614 76be
000003a0: 03ca a9bc bf15 debe 4448 33bd 8845 2abe
000003b0: 5f95 88be d1fe 93be 7847 38be 3a6e b3be
000003c0: c3d5 293d d2e4 1fbe 1ac3 693e 8bcd 47bd
000003d0: e975 2dbe 5aaa 243e a012 1abe f2ea 71bd
000003e0: fff5 253e 8e8b 4e3e 581f d2bd b40b 74be
000003f0: 7c55 efbd cd90 643e b202 1a3e d52a 273e

head.0.weight f4 [1, 128, 3, 3]
-0.010002318 -0.029880306 0.016084401 -0.055072293 -0.048606247 -0.024516169 -0.012905427 -0.028683871
-0.012373932 -0.0032261594 -0.0039832117 0.0065199174 -0.01789853 0.031958852 0.015862446 0.01145357
-0.013393829 -0.022017444 0.008673414 0.004392093 -0.033520125 -0.019654498 0.038224127 -0.004649148
-0.030973561 0.0063085337 0.009396605 -0.009109506 -0.015428324 -0.0027666832 -0.020952655 -0.04750249
0.009645593 -0.011103457 0.022239236 -0.035955947 0.001285419 0.020831136 0.018940236 -0.009617123
-0.014782895 0.045396622 -0.022747546 0.028346037 0.0010610861 -0.015558789 0.0150556965 -0.018902585
0.017153963 0.024245042 0.013153109 0.018981664 0.00437196 0.0048039593 6.731885e-05 -0.016165014
-0.00825623 -0.006809226 0.002464369 -0.014461478 -0.01876007 0.030372173 -0.020894542 -0.06580942
-0.060738772 -0.02850267 -0.040295437 -0.067822635 -0.02177406 -0.01703814 -0.05076633 -0.035827592
-0.020076137 0.02460576 0.017108824 -0.01710039 -0.01794683 0.036988553 -0.015510089 0.025616294
0.030997517 0.020957224 -0.008350957 -0.0028793323 -0.01007015 0.039425377 -0.011429681 0.00054220424
-0.0017901411 -0.0006725704 0.016033936 0.004814093 -0.016045513 -0.0048605883 0.03504069 -0.0051434464
-0.0024039855 0.00010195409 0.010143275 -0.016146228 0.0021367844 0.005436499 -0.013061214 0.029253898
0.012787435 -0.011160619 -0.014014361 0.0012120584 -0.016256223 0.015804412 0.009180027 -0.043186575
-0.03530174 -0.018320868 0.012631047 0.028413264 0.020130001 -0.030301409 -0.022666577 -0.02440986
0.016561735 0.011608636 0.028200079 -0.015108782 -0.011174172 -0.0037037365 -0.043745834 -0.046616014
0.0068084463 -0.016931579 -0.012217185 -0.013364269 -0.030204518 -0.01851644 -0.008961075 0.024587737
0.021819593 0.020938834 -0.01873086 -0.0067811282 0.005938013 0.02225925 -0.023942446 -0.02160903
0.046190906 0.10745999 -0.018078204 0.03349607 0.043711446 -0.025988154 0.018556776 0.041676898
-0.0127919875 0.022607187 0.018685862 0.008253724 -0.0018432083 -0.02263552 -0.019817386 0.011463694
0.015297541 -0.018674245 0.0024112025 0.0015268532 0.014681358 -0.03494591 -0.010840843 -0.009367896
0.016411737 0.020881096 -0.019456819 -0.018686142 -0.008899843 -0.010394049 -0.0025237277 -0.03286771
-0.015714025 -0.018037034 0.0013976004 -0.015125817 -0.005449526 -0.0074621546 0.012014829 0.0009848363
-0.00017179517 0.009065177 -0.00705639 0.02596271 0.019346688 -0.015250409 -0.003409481 0.035492253
-0.01366063 -0.004884844 0.07405729 -0.03142167 0.009821146 0.046265114 -0.0403128 -0.017225811
-0.035614584 -0.0063274456 0.00404944 -0.030872136 -0.024467003 -0.013779336 0.011221049 -0.012048746
-0.02920116 -0.021357484 -0.0022553508 0.0065154666 -0.0049163 0.02348512 -0.0165372 0.024286024
0.0025273731 -0.016734498 0.013696179 -0.014966599 0.011055686 0.015710864 0.0057364693 0.033388063
-0.002424982 -0.028383287 -0.036273904 0.016025977 -0.031157654 -0.022502238 -0.0075681778 -0.043647736
-0.034145854 -0.014392783 -0.018717783 -0.0038666849 -0.026392613 -0.024013728 0.0018160995 -0.012201185
-0.019303687 0.010881254 -0.0060497844 -0.012815672 1.5520065e-05 -0.023078205 0.0049109682 0.019327866
-0.014191134 0.0036796078 0.0006283005 -0.018217925 0.01786101 0.020469747 -0.004051668 -0.00869823
00000000: c3e0 23bc 8bc7 f4bc 6fc3 833c 7c93 61bd
00000010: 5817 47bd 22d6 c8bc 4971 53bc 70fa eabc
00000020: 08bc 4abc f96d 53bb 9a85 82bb 08a5 d53b
00000030: f09f 92bc 49e7 023d f6f1 813c c1a7 3b3c
00000040: ca71 5bbc ed5d b4bc ef1a 0e3c 8ceb 8f3b
00000050: 664c 09bd 7802 a1bc e790 1c3d e157 98bb
00000060: 44bc fdbc d1b7 ce3b 38f4 193c 0a40 15bc
00000070: 15c7 7cbc 3e51 35bb e7a4 abbc f991 42bd
00000080: 8d08 1e3c 46eb 35bc 0f2f b63c 8b46 13bd
00000090: 817b a83a 0fa6 aa3c 8e28 9b3c 2391 1dbc
000000a0: f533 72bc cff1 393d 1059 babc f335 e83c
000000b0: 2414 8b3a 4aea 7ebc 2bac 763c 98d9 9abc
000000c0: 7886 8c3c 8a9d c63c 2380 573c 6f7f 9b3c
000000d0: a942 8f3b 886a 9d3b 882d 8d38 7e6c 84bc
000000e0: 2345 07bc ed1f dfbb 4081 213b d6ef 6cbc
000000f0: b8ae 99bc 10cf f83c 082b abbc 17c7 86bd
00000100: 38c9 78bd 6e7e e9bc d40c 25bd 98e6 8abd
00000110: 835f b2bc 9293 8bbc 5bf0 4fbd f4bf 12bd
00000120: b676 a4bc 0592 c93c ce27 8c3c 1e16 8cbc
00000130: 3b05 93bc 4f81 173d 071e 7ebc 43d9 d13c
00000140: 81ee fd3c 7cae ab3c 74d2 08bc 2eb3 3cbb
00000150: 45fd 24bc 817c 213d 8f43 3bbc b622 0e3a
00000160: 2ba3 eaba 6f4f 30ba 9a59 833c 8abf 9d3b
00000170: e171 83bc 9245 9fbb d486 0f3d 5b8a a8bb
00000180: 2f8c 1dbb 2fd0 d538 fb2f 263c 1845 84bc
00000190: 4b09 0c3b a924 b23b b4fe 55bc dfa5 ef3c
000001a0: 6482 513c 07db 36bc 7e9c 65bc eedd 9e3a
000001b0: c52b 85bc 4178 813c d367 163c 68e4 30bd
000001c0: 8f98 10bd a515 96bc 73f2 4e3c efc2 e83c
000001d0: ace7 a43c a93a f8bc 42af b9bc 30f7 c7bc
000001e0: 7aac 873c 2632 3e3c da03 e73c d38a 77bc
000001f0: e013 37bc 63ba 72bb d52e 33bd 6ff0 3ebd
00000200: 6319 df3b 18b4 8abc 972a 48bc cff5 5abc
00000210: 776f f7bc caaf 97bc 79d1 12bc 396c c93c
00000220: 01bf b23c eb87 ab3c 7671 99bc 3a34 debb
00000230: aa93 c23b 0859 b63c f322 c4bc 6c05 b1bc
00000240: ad32 3d3d fc13 dc3d be18 94bc 2d33 093d
00000250: c60a 333d 1ce5 d4bc 6104 983c 65b5 2a3d
00000260: 7c95 51bc b532 b93c 1813 993c a13a 073c
00000270: cf97 f1ba 206e b9bc 1258 a2bc 38d2 3b3c
00000280: 8aa2 7a3c bbfa 98bc 4405 1e3b b120 c83a
00000290: 148a 703c 7123 0fbd cb9d 31bc ce7b 19bc
000002a0: e871 863c d50e ab3c e863 9fbc ae13 99bc
000002b0: a6d0 11bc cd4b 2abc 2065 25bb 4ba0 06bd
000002c0: b3ba 80bc 67c2 93bc b02f b73a 46d2 77bc
000002d0: f091 b2bb 1785 f4bb d8d9 443c 9f15 813a
000002e0: ea23 34b9 1c86 143c 4a39 e7bb c0af d43c
000002f0: f27c 9e3c dadc 79bc 9971 5fbb 5360 113d
00000300: d6d0 5fbc 0b11 a0bb 59ab 973d 02b4 00bd
00000310: dfe8 203c 7d80 3d3d 091f 25bd 251d 8dbc
00000320: 99e0 11bd 7656 cfbb 2ab1 843b 90e7 fcbc
00000330: 066f c8bc b9c2 61bc 7ed8 373c 1b68 45bc
00000340: 4537 efbc e4f5 aebc 82ce 13bb b27f d53b
00000350: ea18 a1bb de63 c03c 0679 87bc 7cf3 c63c
00000360: 49a2 253b c916 89bc f065 603c 7736 75bc
00000370: e822 353c 12b4 803c fef8 bb3b ecc1 083d
00000380: 72ec 1ebb 1184 e8bc f293 14bd e948 833c
00000390: 563e ffbc 9d56 b8bc 7afe f7bb f8c7 32bd
000003a0: 86dc 0bbd b5cf 6bbc 0956 99bc 3568 7dbb
000003b0: 5235 d8bc 70b8 c4bc 300a ee3a 7be7 47bc
000003c0: c422 9ebc 4a47 323c 453d c6bb d3f8 51bc
000003d0: 1631 8237 810e bdbc 30ec a03b 7955 9e3c
000003e0: ee81 68bc 9325 713b 88b4 243a c23d 95bc
000003f0: 4151 923c 2cb0 a73c dbc3 84bb 0583 0ebc

head.2.weight f4 [64, 256]
-0.004051606 -0.038333267 0.030082174 0.05502712 0.006308414 0.036276225 0.02142878 -0.029449638
0.08572937 0.074242644 0.03510738 0.037610214 0.065738656 0.034076624 -0.012226653 -0.05186746
0.022062676 0.0018140906 -0.03461183 -0.014366195 0.04577181 0.003911365 -0.013285873 0.028511262
-0.027021723 0.065629736 0.023629976 0.048423104 0.15521292 0.085849546 0.0682754 0.0032248225
-0.051257595 -0.06644624 -0.0055278954 0.024141928 -0.010742742 -0.056981135 0.059631787 -0.04410669
-0.0008235662 -0.064927585 -0.06890703 0.065480895 0.05346322 0.12013535 0.08679201 -0.053810555
-0.055175163 0.040740166 -0.026068574 -0.00876069 -0.0022411442 0.0011598247 -0.030893147 -0.07546726
-0.030431794 -0.052823875 0.058886148 0.04661106 -0.016404154 0.09041004 0.059787195 0.01781279
-0.062646575 -0.07281371 -0.061604187 0.028051667 0.08049989 0.0030732062 -0.07669214 -0.10706704
-0.07329398 0.04084077 0.1307704 0.11994961 0.046471544 0.054441746 0.11553311 0.077390894
-0.11046821 0.030960731 -0.0072713327 0.020624023 -0.105285786 -0.062090956 -0.042977504 -0.09473287
-0.018782008 0.028978668 0.06160959 0.053914532 0.04822146 0.013212412 0.042157315 0.07990738
-0.09734614 -0.047066003 -0.046865232 -0.010803382 -0.10573961 -0.07689257 -0.07270188 0.009811618
0.020195035 0.078819275 0.026634948 -0.0055014663 -0.0074109873 -0.0055428934 -0.06986411 0.010506412
-0.037257336 0.03426571 -0.09724365 -0.1269175 -0.13458575 -0.12935326 -0.04023834 0.083951056
0.10123051 0.076002516 0.026057106 -0.0310787 0.014885962 -0.023024617 0.016703235 -0.046392813
-0.009277368 -0.08253482 -0.022369908 -0.13507038 -0.12940606 -0.050953694 -0.012981936 0.05371136
-0.005291832 -0.022578545 0.069053866 0.042189248 0.10260528 0.0090319365 -0.042676013 0.10889603
-0.06711106 0.0020856273 -0.08842894 -0.09647806 -0.15146986 -0.04940516 0.09100837 0.093504384
-0.028574195 0.074884504 0.15736009 0.14119585 -0.01128132 0.056694448 0.009414744 0.15798405
-0.043867733 -0.027278315 -0.08066505 -0.09657157 -0.077753395 -0.078739084 0.015213814 0.11831406
0.11225452 0.12669596 0.086282775 -0.005162929 -0.014494208 0.020858552 0.025656782 0.12271564
-0.06389983 -0.067402855 -0.032400936 -0.045992613 -0.12794282 -0.0060268175 0.007859808 0.051535722
0.09100427 0.1193912 0.04659483 0.02977687 -0.08317392 -0.032516263 0.12442472 0.07508635
-0.024809426 0.019978613 0.055433832 -0.03474194 -0.061210696 -0.01255549 -0.030580152 -0.029499419
0.007589732 -0.010484699 0.0018953417 0.0028049084 -0.042975266 0.06309939 0.059862092 0.10293034
-0.057238523 -0.019225178 0.004240183 0.03833705 -0.043174665 -0.0635786 0.0024028646 0.02061353
0.0029138683 0.04364131 0.0026927218 0.003479732 -0.02887092 0.025656095 0.10356666 0.0979647
-0.043857545 -0.064761154 0.0012518789 -0.016075501 -0.044511747 -0.066501014 -0.061901234 -0.02282938
0.024728423 0.048887257 0.00073796546 -0.043328796 -0.03210726 0.055866327 0.042409964 -0.0150978435
-0.02523317 -0.017714683 -0.017285844 0.024438677 -0.04514526 -0.073416635 -0.028341169 -0.064140275
-0.056994554 -0.008305727 0.004526117 -0.045396615 0.068452924 -0.04071192 -0.10928459 0.05040578
00000000: 56c3 84bb 5803 1dbd e46e f63c 1e64 613d
00000010: d0b6 ce3b 6196 143d 698b af3c 5e40 f1bc
00000020: e192 af3d 870c 983d c2cc 0f3d 2b0d 1a3d
00000030: fda1 863d ee93 0b3d 4d52 48bc f972 54bd
00000040: c9bc b43c c8c6 ed3a 22c5 0dbd 3060 6bbc
00000050: 397b 3b3d e82a 803b feac 59bc 7390 e93c
00000060: a95c ddbc e268 863d a793 c13c 4e57 463d
00000070: 23f0 1e3e e3d1 af3d f9d3 8b3d 8b57 533b
00000080: 7cf3 51bd f714 88bd 5923 b5bb 4bc5 c53c
00000090: 5302 30bc 0d65 69bd 7640 743d 37a9 34bd
000000a0: 98e4 57ba c1f8 84bd 211f 8dbd d91a 863d
000000b0: 40fc 5a3d 8609 f63d 02c0 b13d 7568 5cbd
000000c0: 5aff 61bd 29df 263d c38d d5bc ff88 0fbc
000000d0: 29e0 12bb 4205 983a a013 fdbc 948e 9abd
000000e0: 194c f9bc d95d 58bd 9a32 713d 3deb 3e3d
000000f0: 0162 86bc e628 b93d 6be3 743d 21ec 913c
00000100: d94c 80bd 5b1f 95bd ac54 7cbd 9ccc e53c
00000110: 20dd a43d d867 493b c510 9dbd f745 dbbd
00000120: 271b 96bd a748 273d ade8 053e 24a8 f53d
00000130: f258 3e3d 4ffe 5e3d a09c ec3d 1e7f 9e3d
00000140: 283d e2bd 5ca1 fd3c 5c44 eebb b6f3 a83c
00000150: 13a0 d7bd 1653 7ebd 2e09 30bd 4f03 c2bd
00000160: badc 99bc ac64 ed3c 565a 7c3d 7cd5 5c3d
00000170: de83 453d df78 583c 26ad 2c3d 7ba6 a33d
00000180: 6a5d c7bd 48c8 40bd c2f5 3fbd ab00 31bc
00000190: 028e d8bd da79 9dbd b9e4 94bd e9c0 203c
000001a0: 0f70 a53c 006c a13d 8931 da3c a545 b4bb
000001b0: ded7 f2bb 29a1 b5bb ea14 8fbd 1623 2c3c
000001c0: 269b 18bd 335a 0c3d ae27 c7bd a9f6 01be
000001d0: d9d0 09be 2e75 04be f5d0 24bd 88ee ab3d
000001e0: f151 cf3d 35a7 9b3d b675 d53c c298 febc
000001f0: 40e4 733c 1f9e bcbc 39d5 883c 6406 3ebd
00000200: 1a00 18bc 0408 a9bd 1941 b7bc e44f 0abe
00000210: 0683 04be d2b4 50bd 30b2 54bc 7100 5c3d
00000220: 1b67 adbb a4f6 b8bc 1d6c 8d3d a2ce 2c3d
00000230: b822 d23d b0fa 133c 0bcd 2ebd e204 df3d
00000240: 8671 89bd 05af 083b 3b1a b5bd 4a96 c5bd
00000250: ea1a 1bbe 115d 4abd 9962 ba3d 3a7f bf3d
00000260: 6e14 eabc 0c5d 993d 0123 213e a595 103e
00000270: 49d5 38bc 7038 683d 4c40 1a3c 92c6 213e
00000280: a7ae 33bd c676 dfbc b833 a5bd 51c7 c5bd
00000290: 2c3d 9fbd f541 a1bd 5c43 793c a44e f23d
000002a0: b3e5 e53d 96bc 013e 06b5 b03d ca2d a9bb
000002b0: 1d79 6dbc 8edf aa3c 2c2e d23c 5652 fb3d
000002c0: eadd 82bd 820a 8abd d8b6 04bd c062 3cbd
000002d0: 7103 03be 9c7c c5bb 6dc6 003c 1f17 533d
000002e0: 7260 ba3d 6083 f43d 38da 3e3d 9fee f33c
000002f0: 1757 aabd c62f 05bd 63d2 fe3d dfc6 993d
00000300: 233d cbbc 30aa a33c 960e 633d 914d 0ebd
00000310: 11b8 7abd 8bb5 4dbc 3a83 fabc c4a8 f1bc
00000320: 49b3 f83b 04c8 2bbc 1d6d f83a 8ed2 373b
00000330: d506 30bd 413a 813d f431 753d 24cd d23d
00000340: f172 6abd 1f7e 9dbc 3cf1 8a3b 4f07 1d3d
00000350: ebd7 30bd 7f35 82bd 6179 1d3b b5dd a83c
00000360: 99f6 3e3b 3bc1 323d 6078 303b 370c 643b
00000370: b582 ecbc bb2c d23c c21a d43d b7a1 c83d
00000380: f8a3 33bd 7fa1 84bd 1616 a43a c5b0 83bc
00000390: f351 36bd af31 88bd 268c 7dbd ae04 bbbc
000003a0: 4393 ca3c 013e 483d 0674 413a 8979 31bd
000003b0: e782 03bd 17d4 643d 12b6 2d3d f25c 77bc
000003c0: cbb5 cebc 621e 91bc 0b9b 8dbc 9f33 c83c
000003d0: 3cea 38bd 765b 96bd bd2b e8bc fa5b 83bd
000003e0: 1f73 69bd be14 08bc d24f 943b cdf1 39bd
000003f0: 0c31 8c3d 8bc1 26bd 99d0 dfbd 4b76 4e3d

head.2.bias f4 [64]
-0.046662476 -0.025561163 0.062184073 -0.11860304 -0.06184718 0.010055005 -0.071460575 0.031138122
-0.13302408 0.0072355852 -0.015986867 -0.014446544 -0.08812494 -0.013151336 -0.003922975 0.00068578304
0.0095608365 0.0065441458 0.0012402255 -0.0051269233 -0.08193381 -0.04806223 -0.2328414 -0.12990539
-0.02920117 0.087068155 -0.025415603 -0.019516584 -0.016241554 -0.029197682 -0.055319168 0.0151020335
0.06563117 -0.08677514 0.04906118 0.074930765 -0.016852267 -0.015761148 -0.09646935 -0.052511323
0.033210836 0.003252306 -0.04592156 0.02999288 -0.046617117 -0.054177083 -0.20763174 -0.06119912
0.10020006 0.04996221 -0.10558673 -0.1213878 -0.082550764 0.10552194 0.075077996 -0.08204198
0.027201366 -0.1993106 0.12840131 -0.01109474 0.0013052934 -0.024160929 -0.12996505 0.00140595
00000000: 2721 3fbd a565 d1bc bab4 7e3d 27e6 f2bd
00000010: 7853 7dbd bfbd 243c ec59 92bd 6015 ff3c
00000020: 7737 08be 7d18 ed3b e4f6 82bc 33b1 6cbc
00000030: d97a b4bd b478 57bc 4d8c 80bb 1fc6 333a
00000040: 0ea5 1c3c 4670 d63b 108f a23a c0ff a7bb
00000050: eacc a7bd e7dc 44bd fa6d 6ebe eb05 05be
00000060: 4b37 efbc ca50 b23d 6234 d0bc 3ee1 9fbc
00000070: 020d 85bc fa2f efbc 5a96 62bd 856e 773c
00000080: a369 863d 2ab7 b1bd 60f4 483d 4d75 993d
00000090: c40d 8abc 861d 81bc b991 c5bd 1d16 57bd
000000a0: 1608 083d a424 553b 3f18 3cbd a1b3 f53c
000000b0: 97f1 3ebd cae8 5dbd 6a9d 54be eeab 7abd
000000c0: b035 cd3d 2da5 4c3d db3d d8bd 2b9a f8bd
000000d0: 6010 a9bd e31b d83d 7ec2 993d a005 a8bd
000000e0: 66d5 de3c 1418 4cbe a27b 033e b6c6 35bc
000000f0: 6116 ab3a 24ed c5bc 8f15 05be db47 b83a

head.4.weight f4 [3, 64]
0.09353398 0.030032402 0.029069154 -0.07807909 0.028854651 0.07322218 0.0684542 -0.013011081
-0.04730427 -0.047941 0.051973827 -0.005185843 -0.008306348 -0.06387543 0.056003172 0.072234266
0.04228025 0.011168958 0.053296376 0.07459838 -0.10208139 -0.02527668 -0.04253649 -0.083252065
0.057660863 0.06247514 0.0033661188 0.062374655 0.06163906 0.0046284613 -0.0707946 -0.004349767
0.001034674 0.061241623 -0.02972045 0.078468606 -0.06534852 0.025888568 -0.09596324 0.02031995
0.030588882 0.019937985 -0.10503358 0.055330142 0.0030703386 0.043441575 -0.1424646 -0.017090142
0.06475015 0.008072087 -0.04675472 -0.020984288 -0.051784072 0.06666058 0.0712478 -0.028323377
0.06415653 -0.15440074 0.059259195 0.019041065 0.011692683 0.007475408 -0.14018787 0.036788747
0.03991719 0.04595602 0.061683744 0.05754181 -0.10411014 -0.04617335 0.077662535 0.06862556
0.122066654 -0.10025299 0.04907638 0.037322156 -0.09833701 -0.07914518 0.043418214 -0.053110015
-0.07633846 -0.036826305 0.024487868 0.076188385 0.0185023 0.08084094 -0.016050648 0.029923292
0.07022789 -0.01370244 -0.09931321 -0.033155996 0.029629696 -0.081415564 0.06786647 -0.08655022
-0.07816692 -0.02970156 -0.07801151 -0.029676782 0.050028738 -0.06731766 -0.10003285 0.048287533
0.031014167 -0.022409972 -0.013274283 0.07241524 0.0773717 -0.05375863 -0.037782766 0.10432771
0.073442265 -0.017349292 0.027178602 -0.09209935 -0.059873357 0.0466178 -0.063847706 -0.040733438
-0.05388324 0.07162271 -0.06929412 -0.07020963 0.075160734 0.0072045242 -0.010315267 -0.025430053
-0.0032788962 -0.010338079 -0.040975925 -0.034846094 0.005036385 0.03684527 -0.07462413 0.014308208
-0.07687052 0.10023414 -0.014014941 -0.024180967 0.029834783 0.04889773 -0.010532688 0.049364302
0.058792092 0.026881719 -0.0068314658 -0.04964112 0.044860084 -0.058757536 0.023571055 0.018508252
-0.04558061 -0.0019282562 0.05858133 0.023233512 -0.015948657 0.033636615 -0.050177246 0.052603357
0.061442446 -0.035967324 0.036160413 -0.012547871 -0.056301225 0.04103711 0.103741035 -0.026001643
-0.017772276 0.03105151 0.013015521 -0.05198523 -0.04841142 0.04162097 0.10643847 -0.056479752
-0.04571566 -0.037837725 0.05817304 0.05407361 0.050794266 -0.044530902 0.047009964 0.006799047
0.0437986 -0.10494019 0.052640777 0.049900018 -0.053842 -0.051575452 -0.04304796 0.0003553888
00000000: be8e bf3d 8306 f63c 6f22 ee3c eee7 9fbd
00000010: 9760 ec3c 83f5 953d b731 8c3d 6e2c 55bc
00000020: 1fc2 41bd c85d 44bd 82e2 543d 01ee a9bb
00000030: 5917 08bc 1fd1 82bd 9563 653d 8fef 933d
00000040: 0e2e 2d3d 01fe 363c 4d4d 5a3d 09c7 983d
00000050: 0c10 d1bd 0a11 cfbc be3a 2ebd 0f80 aabd
00000060: cc2d 6c3d efe5 7f3d 1a9a 5c3b 917c 7f3d
00000070: 3d79 7c3d 59aa 973b c2fc 90bd 7e88 8ebb
00000080: e69d 873a 7fd8 7a3d 4d78 f3bc 26b4 a03d
00000090: 72d5 85bd 4314 d43c 6088 c4bd 0676 a63c
000000a0: 8995 fa3c fc54 a33c d81b d7bd dca1 623d
000000b0: bc37 493b cbef 313d 3de2 11be a000 8cbc
000000c0: ba9b 843d c940 043c e181 3fbd 3ee7 abbc
000000d0: 891b 54bd 5885 883d 5eea 913d 6d06 e8bc
000000e0: 8064 833d 3a1b 1ebe c5b9 723d 02fc 9b3c
000000f0: ab92 3f3c 44f4 f43b 698d 0fbe ccaf 163d
00000100: 3580 233d 613c 3c3d 18a8 7c3d f6b0 6b3d
00000110: b237 d5bd 4420 3dbd 890d 9f3d 8f8b 8c3d
00000120: 15fe f93d 7151 cdbd 5004 493d 1edf 183d
00000130: ea64 c9bd de16 a2bd 4cd7 313d e389 59bd
00000140: 5757 9cbd 2ed7 16bd c89a c83c a808 9c3d
00000150: 2392 973c ef8f a53d a67c 83bc b121 f53c
00000160: a4d3 8f3d 3380 60bc b964 cbbd 95ce 07bd
00000170: fab9 f23c 34bd a6bd 93fd 8a3d 3e41 b1bd
00000180: fa15 a0bd b050 f3bc 80c4 9fbd b91c f3bc
00000190: efea 4c3d d7dd 89bd 06de ccbd 26c9 453d
000001a0: 6c11 fe3c 1e95 b7bc 617c 59bc 714e 943d
000001b0: 0e75 9e3d 0232 5cbd 1ac2 1abd c4a9 d53d
000001c0: e668 963d 1a20 8ebc a9a5 de3c 969e bcbd
000001d0: c43d 75bd 4ef2 3e3d 96c2 82bd 1bd8 26bd
000001e0: acb4 5cbd edae 923d 13ea 8dbd 11ca 8fbd
000001f0: dfed 993d ee13 ec3b 5e01 29bc b052 d0bc
00000200: c0e2 56bb 0c61 29bc 5fd6 27bd c7ba 0ebd
00000210: 4208 a53b 11eb 163d 89d4 98bd f96c 6a3c
00000220: 4b6e 9dbd 8f47 cd3d ec9e 65bc 2a17 c6bc
00000230: 1368 f43c fc48 483d 4c91 2cbc 3932 4a3d
00000240: facf 703d 0d37 dc3c 7dda dfbb 7d54 4bbd
00000250: 35bf 373d beab 70bd 1618 c13c 9e9e 973c
00000260: bcb2 3abd 8bbd fcba faf2 6f3d 3554 be3c
00000270: c2a6 82bc 8cc6 093d a886 4dbd 9e76 573d
00000280: 13ab 7b3d 7952 13bd f11c 143d 9695 4dbc
00000290: 1d9c 66bd 8716 283d 2e76 d43d 6601 d5bc
000002a0: 2a97 91bc bc5f fe3c 0d3f 553c 77ee 54bd
000002b0: 0e4b 46bd c07a 2a3d 6afc d93d 5057 67bd
000002c0: 5840 3bbd bbfb 1abd db46 6e3d 4a7c 5d3d
000002d0: a60d 503d 0966 36bd 858d 403d 8aca de3b
000002e0: 2966 333d e2ea d6bd db9d 573d f663 4c3d
000002f0: 6e89 5cbd c840 53bd 0f53 30bd 7a53 ba39

head.4.bias f4 [3]
0.29551882 0.07066661 -0.022435196
00000000: 3e4e 973e a8b9 903d 04ca b7bc

onnx::Conv_42 f4 [64, 6, 3, 3]
0.27199936 0.6009176 -0.23998727 -0.36976454 0.29794693 -0.47817793 -0.8301362 0.84580785
0.32873887 -0.82125276 -0.9902564 0.032945704 -0.89271206 -0.49818507 -0.20902428 -1.2131348
-0.33496472 -0.80821985 -0.3491655 -0.9588853 -0.3601371 0.08403703 0.24194732 0.6067563
-0.772722 -0.38584328 -0.6449742 0.115843914 -0.014766008 0.3796236 0.43732193 0.42316228
-0.7117893 -0.9670693 0.5809076 -0.82518137 -1.1039255 -0.2085219 -0.7916947 -0.90839005
0.3759856 -0.55476874 -1.0239586 0.5169104 -0.9399545 -0.6613713 -0.2662935 0.13537212
-0.623537 0.8676361 0.29845887 0.13685381 -0.3703337 -0.6646411 -0.46147063 0.17260472
-0.47409254 -0.8611359 0.65942115 -0.41381457 -0.6013753 -0.50753534 -0.91371655 -0.7349692
-0.52821255 -0.13015157 -0.23594594 0.5632927 -0.2666881 0.14781435 -0.3678289 -0.2208227
-0.28320554 -0.4941065 -0.048670925 -0.66984046 0.11677092 -0.29900417 -0.24630164 -0.49019924
-0.7317273 -0.5498947 -0.4075669 0.08158022 0.45687088 0.81636846 -0.032525703 -0.70331085
-0.5229222 0.20864917 -0.36813575 -0.71899533 -0.49117815 -0.40254667 0.68566066 -0.58393824
-0.6874774 -0.4319073 -0.2975435 -0.45920226 -0.090505965 -0.10338656 -0.40762705 -0.14224471
0.27250808 -0.56475943 0.08904678 -0.038667303 0.23403412 0.27542913 -0.81561774 -0.52135944
0.1524632 -0.26707903 -0.3430579 0.08653309 -0.74928856 0.25275627 -0.1070547 -0.7393226
0.5039727 0.5846074 -0.72688276 -0.09087296 0.33737627 -0.25353104 -0.46346238 -0.047162395
-0.91101897 -0.10941226 0.084171586 -0.9839168 0.17766573 -0.2661988 -0.11064968 0.41142312
0.16371347 -0.6601303 -0.3415406 0.2941313 -1.0506145 0.08626497 0.3276705 -0.7962709
0.50393003 0.07544149 -0.86965936 0.22194602 1.2100763 -0.33271727 -0.20552528 0.24081156
0.0015094841 -0.20702997 0.14726533 -0.13731562 0.78813803 0.23293126 -0.99145937 0.09642395
0.14688572 -0.79318345 -0.8932483 -0.16147028 0.075153634 -0.100195184 -0.07870158 0.19830306
-0.093327306 -0.7541926 -0.00090088445 0.0970795 -0.5718009 -0.6550988 -0.40177426 -0.56930375
-0.42452368 0.25807628 -0.28182378 -0.23934837 0.07291222 0.076806456 -0.34683198 -0.924632
-0.6591539 -0.27511078 -0.13215935 -0.26822597 0.30189145 -0.6852757 -0.5634583 -0.5535507
0.05919716 -0.5313076 0.40516955 0.3243708 -0.59945947 0.029933292 -0.16818357 -0.39373428
-0.7212001 -0.51356727 -0.55479383 -0.29389408 0.32435292 0.027026724 -0.43395022 -0.67231303
0.320763 -0.62317824 -0.3197826 0.28427222 0.1774369 0.44141793 0.2116556 -0.18066283
-0.2814897 -0.17814025 0.18192698 -0.2341292 -0.4802855 0.55803347 -0.012855778 -0.8799613
0.12101633 0.67539626 -0.566287 0.20366652 0.1578318 -0.2865978 -0.72434956 -0.7984396
-0.026982335 0.07282314 -0.24688745 -1.087841 -0.28654626 -0.55423987 -0.406276 -1.0478672
-0.60420704 -0.42063126 -0.20176865 0.30712956 0.3700874 0.53300685 -0.23959053 -0.3035668
-0.78094727 -0.22747108 0.1709758 0.10167869 1.2113827 0.7525234 -0.13415885 0.58136225
00000000: 8043 8b3e bcd5 193f 39bf 75be c751 bdbe
00000010: 808c 983e bdd3 f4be ce83 54bf dd86 583f
00000020: 7650 a83e 9f3d 52bf 7281 7dbf 13f2 063d
00000030: c788 64bf 1d12 ffbe 760a 56be 0048 9bbf
00000040: 7f80 abbe 7fe7 4ebf d2c5 b2be 8279 75bf
00000050: e463 b8be 9b1b ac3d 0ac1 773e 6254 1b3f
00000060: 1cd1 45bf 408d c5be 071d 25bf 933f ed3d
00000070: 20ed 71bc 065e c23e a9e8 df3e baa8 d83e
00000080: d337 36bf db91 77bf 5cb6 143f 163f 53bf
00000090: 6e4d 8dbf c486 55be 81ac 4abf 408c 68bf
000000a0: 2f81 c03e 5305 0ebf 1311 83bf 3d54 043f
000000b0: dca0 70bf a14f 29bf 9f57 88be fd9e 0a3e
000000c0: 1fa0 1fbf 661d 5e3f 9acf 983e 6823 0c3e
000000d0: 619c bdbe eb25 2abf e145 ecbe 4bbf 303e
000000e0: 42bc f2be 6773 5cbf d3cf 283f 81df d3be
000000f0: bbf3 19bf d6ed 01bf 54e9 69bf f126 3cbf
00000100: f038 07bf 7446 05be d09b 71be f333 103f
00000110: 588b 88be a55c 173e 1254 bcbe 591f 62be
00000120: 5100 91be 87fb fcbe 2a5b 47bd aa7a 2bbf
00000130: 9825 ef3d 1317 99be 7f36 7cbe 65fb fabe
00000140: 7b52 3bbf e6c5 0cbf 9cac d0be 8813 a73d
00000150: fbea e93e 86fd 503f ac39 05bd 2e0c 34bf
00000160: 3bde 05bf 21a8 553e 4a7c bcbe 1410 38bf
00000170: b47b fbbe 991a cebe 7587 2f3f fa7c 15bf
00000180: 85fe 2fbf f422 ddbe 9f57 98be 8f1c ebbe
00000190: 315b b9bd 55bc d3bd 7eb4 d0be 99a8 11be
000001a0: 2e86 8b3e 1394 10bf 285e b63d 9b61 1ebd
000001b0: a4a6 6f3e 0c05 8d3e 53cc 50bf d077 05bf
000001c0: 501f 1c3e 95be 88be 49a5 afbe 4338 b13d
000001d0: 60d1 3fbf 4569 813e 7f3f dbbd 3f44 3dbf
000001e0: 5b04 013f d5a8 153f fd14 3abf 9a1b babd
000001f0: 95bc ac3e d2ce 81be f14a edbe 5b2d 41bd
00000200: 8a38 69bf 8913 e0bd 2762 ac3d f9e1 7bbf
00000210: 01ee 353e 364b 88be 4d9c e2bd 0da6 d23e
00000220: 81a4 273e 4dfe 28bf 69de aebe 6198 963e
00000230: 897a 86bf b0ab b03d 6ec4 a73e 69d8 4bbf
00000240: 8f01 013f 1181 9a3d ffa1 5ebf d145 633e
00000250: c8e3 9a3f eb59 aabe 3875 52be 4e97 763e
00000260: e2d9 c53a aaff 53be b9cc 163e 779c 0cbe
00000270: 6ac3 493f 8885 6e3e 48d0 7dbf eb79 c53d
00000280: 3669 163e 120e 4bbf ecab 64bf 7758 25be
00000290: 26ea 993d 2233 cdbd 4b2e a1bd f50f 4b3e
000002a0: 6322 bfbd c412 41bf 5529 6cba 9ed1 c63d
000002b0: 8b61 12bf 8eb4 27bf 5bb5 cdbe e4bd 11bf
000002c0: 2b5b d9be 9322 843e 354b 90be bd17 75be
000002d0: 0153 953d b44c 9d3d f693 b1be afb4 6cbf
000002e0: 4fbe 28bf 52db 8cbe c854 07be ea54 89be
000002f0: 8491 9a3e 3a6e 2fbf ce3e 10bf 80b5 0dbf
00000300: b978 723d c603 08bf 6272 cf3e ee13 a63e
00000310: 2d76 19bf aa36 f53c 5038 2cbe 8a97 c9be
00000320: 92a0 38bf 2579 03bf f806 0ebf 4979 96be
00000330: 9611 a63e 2667 dd3c b92e debe b51c 2cbf
00000340: 0c3b a43e 9c88 1fbf 8cba a3be 218c 913e
00000350: 05b2 353e 8801 e23e 3fbc 583e adff 38be
00000360: 6b1f 90be 666a 36be 114b 3a3e 91bf 6fbe
00000370: fbe7 f5be 48db 0e3f 0ba1 52bc 2545 61bf
00000380: 69d7 f73d c5e6 2c3f 2ff8 10bf f58d 503e
00000390: a99e 213e f2bc 92be f96e 39bf 8a66 4cbf
000003a0: 0f0a ddbc 4c24 953d 10d0 7cbe 603e 8bbf
000003b0: 31b6 92be aae2 0dbf 6803 d0be 8320 86bf
000003c0: 50ad 1abf fb5c d7be 719c 4ebe 1640 9d3e
000003d0: 187c bd3e 2373 083f 3857 75be 1c6d 9bbe
000003e0: 29ec 47bf 2eee 68be 4814 2f3e eb3c d03d
000003f0: 970e 9b3f 60a5 403f f060 09be 28d4 143f

onnx::Conv_43 f4 [64]
0.17433706 0.3384792 0.08296863 0.16141203 0.069747314 0.1430427 0.048672996 0.1906291
0.1363031 0.18096681 0.20030081 0.11955382 0.07095191 0.18554491 0.123156026 0.11941953
0.35950434 0.10332505 0.14209583 0.053500593 0.13544762 0.07855132 0.49298388 0.0386319
-0.096905544 -0.36890912 0.16560736 0.17531441 0.18704133 0.10836547 0.103279844 0.292235
0.19607922 0.1426382 0.1167324 0.06894556 -0.09203914 0.48603374 0.10368983 0.15126598
0.13620493 0.059369892 0.13933793 0.15588999 0.14496623 0.12693346 0.14731409 0.07768035
0.3218017 0.17314321 0.1611951 0.32460344 0.21803623 0.112145 0.09610195 0.38352552
0.20574722 0.19484234 0.402456 0.0996563 0.29226717 -0.27505976 0.47052872 0.09679936
00000000: 6a85 323e 254d ad3e 75eb a93d 3249 253e
00000010: aed7 8e3d c979 123e 565d 473d 4634 433e
00000020: 0a93 0b3e 5d4f 393e a81b 4d3e a2d8 f43d
00000030: 3c4f 913d 7cff 3d3e 3a39 fc3d 3a92 f43d
00000040: f410 b83e 159c d33d 9281 113e 7023 5b3d
00000050: c8b2 0a3e 84df a03d 6268 fc3e 7c3c 1e3d
00000060: 6a76 c6bd a8e1 bcbe fa94 293e 9f85 333e
00000070: c387 3f3e b7ee dd3d 6284 d33d d39f 953e
00000080: fec8 483e c00f 123e 6611 ef3d 5433 8d3d
00000090: 047f bcbd 6ad9 f83e 555b d43d 78e5 1a3e
000000a0: 4e79 0b3e d82d 733d 9aae 0e3e a0a1 1f3e
000000b0: 0772 143e d8fa 013e 81d9 163e e016 9f3d
000000c0: 31c3 a43e 744c 313e 5410 253e 6c32 a63e
000000d0: e444 5f3e 47ac e53d 19d1 c43d 755d c43e
000000e0: 66af 523e c084 473e b60e ce3e 9a18 cc3d
000000f0: 0ba4 953e a2d4 8cbe 24e9 f03e be3e c63d

onnx::Conv_45 f4 [128, 64, 3, 3]
-0.09449337 0.17876635 0.06008798 -0.3206728 -0.23455925 -0.039566845 0.12389757 -0.06772321
-0.073025174 -0.122838005 -0.59278965 -0.0630027 -0.64133346 -0.55981916 0.02188454 0.19445892
0.10140745 -0.13339074 0.3480847 0.2796211 0.28016827 0.04810307 0.18482721 0.02001495
-0.32534394 -0.31863922 -0.085806206 -0.06173239 0.12460426 0.21209049 0.08055598 -0.0009016407
-0.190646 0.13394602 -0.16284241 -0.14871109 -0.00920297 -0.05205245 0.113708474 0.19275856
0.008212098 0.22676058 0.14905211 0.13816388 -0.14356364 0.09747913 -0.063109815 0.14094302
-0.4202528 0.22254139 0.28917924 0.40278617 0.26623133 0.15121126 -0.16518447 0.01026939
-0.034702547 -0.73455393 -0.27832267 0.09965795 -0.07464184 0.22002499 0.34717813 -0.31987983
-0.6074396 -0.076239616 -0.43595043 -0.2337272 -0.093538225 0.32396692 0.09220336 0.016522465
0.138892 -0.120907746 0.008436393 0.13324282 -0.09255137 -0.07586003 0.24623007 0.07514595
-0.040983427 -0.21440859 -0.2671809 -0.24796604 0.20359115 0.20801973 -0.13237658 -0.04186835
0.25202549 0.16420384 -0.07424893 -0.36260992 -0.074269675 0.08964653 -0.07817 0.57041436
0.35523713 0.3005884 0.3448118 -0.05335931 0.2273845 0.1494812 -0.2408092 -0.1368293
0.121877 -0.221378 -0.110948324 -0.042754166 0.16359764 0.009438837 0.32017875 -0.13888393
-0.09431345 -0.050554357 -0.10873229 -0.060126636 0.2216629 -0.03666998 0.16894081 0.26887363
-0.05706559 -0.15728064 0.09910569 -0.15776484 0.24097936 0.4946434 -0.55489475 -0.2712609
0.22217375 -0.13498284 0.07873113 -0.12293838 0.30542603 0.33294213 -0.062709756 -0.19824041
-0.027760746 0.3348848 0.12133258 0.10278815 0.062132448 0.10487516 0.12037048 0.2394889
0.11965034 -0.35214943 -0.29942843 -0.29586035 -0.25589445 -0.2771572 0.0070707873 0.3296618
0.021275295 -0.25126895 -0.04293509 -0.1174247 -0.102530435 0.35706773 0.23236628 0.17519648
0.38882092 0.22375017 -0.46177486 0.028051091 -0.2842287 0.6754599 1.2030725 -0.31889704
0.39131537 -0.092550755 -0.2323192 0.31369188 0.31924072 0.40192494 0.10177752 0.12977178
0.30193758 -0.24813858 0.023472851 -0.09712476 0.05705454 -0.19746895 -0.34877187 0.021640511
-0.07378141 -0.2040912 0.3409515 0.4705821 0.18904975 -0.28125027 -0.10612478 0.17128156
0.17493302 0.24472295 0.36261812 0.18575028 0.08877078 -0.044186845 0.36109433 -0.3529553
0.28124145 -0.15030405 -0.50219595 0.054637007 0.1048792 0.07991417 0.43111476 -0.45954412
0.2686001 -0.10742434 0.666933 0.488365 0.24373457 0.12887911 0.5750618 0.19417557
-0.33105567 -0.03620143 -0.08039602 0.22276543 0.113208935 -0.28258047 0.11861861 0.13949536
-0.17591836 -0.07089188 -0.077744424 -0.024935426 -0.122819416 -0.059586775 -0.085740805 -0.3112648
-0.13273592 -0.17177701 0.05734487 -0.11871928 0.15520114 0.17356811 0.04512704 0.0016417821
0.14617968 0.16889083 0.0012722546 -0.04329177 0.020890875 0.14920165 -0.07250619 -0.1938694
0.2771473 0.38770705 0.2575589 -0.085907035 -0.023721231 0.37040538 0.109556794 -0.2249741
00000000: bd85 c1bd 870e 373e d01e 763d 3a2f a4be
00000010: 4d30 70be d810 22bd 02be fd3d 77b2 8abd
00000020: 398e 95bd 7e92 fbbd 10c1 17bf 8f07 81bd
00000030: 6e2e 24bf 4f50 0fbf 3547 b33c 3d20 473e
00000040: b6ae cf3d 9597 08be 2838 b23e 7f2a 8f3e
00000050: 3772 8f3e ba07 453d 5843 3d3e 64f6 a33c
00000060: 7b93 a6be ae24 a3be 2abb afbd 1adb 7cbd
00000070: 8530 ff3d 402e 593e 89fa a43d 155c 6cba
00000080: b438 43be 2529 093e 29c0 26be b847 18be
00000090: 0ec8 16bc f334 55bd fddf e83d 8062 453e
000000a0: 098c 063c ed33 683e 1ea1 183e d57a 0d3e
000000b0: 5902 13be 23a3 c73d b83f 81bd 5e53 103e
000000c0: 602b d7be e4e1 633e 4d0f 943e fd39 ce3e
000000d0: 794f 883e 20d7 1a3e 1e26 29be f240 283c
000000e0: 4224 0ebd ba0b 3cbf 4f80 8ebe 7819 cc3d
000000f0: d2dd 98bd 3b4e 613e 55c1 b13e 4ac7 a3be
00000100: 2981 1bbf 8423 9cbd e534 dfbe 2f56 6fbe
00000110: f890 bfbd fede a53e 1dd5 bc3d 1f5a 873c
00000120: b439 0e3e 7b9e f7bd cc38 0a3c ce70 083e
00000130: 938b bdbd 815c 9bbd bc23 7c3e 1fe6 993d
00000140: 3dde 27bd ed8d 5bbe efcb 88be cfea 7dbe
00000150: 337a 503e 2003 553e ba8d 07be 267e 2bbd
00000160: 7c09 813e 0d25 283e d30f 98bd 02a8 b9be
00000170: b31a 98bd 9a98 b73d 9817 a0bd ad06 123f
00000180: a4e1 b53e b9e6 993e 2c8b b03e 4b8f 5abd
00000190: 7bd7 683e 9a11 193e b096 76be fb1c 0cbe
000001a0: a69a f93d eab0 62be e038 e3bd fe1e 2fbd
000001b0: 2486 273e 5aa5 1a3c 78ee a33e 9737 0ebe
000001c0: 6927 c1bd 1612 4fbd 09af debd 5947 76bd
000001d0: 99fb 623e 4333 16bd d2fe 2c3e cea9 893e
000001e0: 9cbd 69bd 2d0e 21be edf7 ca3d 1b8d 21be
000001f0: 4bc3 763e e641 fd3e 950d 0ebf b5e2 8abe
00000200: 8481 633e f138 0abe c93d a13d 1ec7 fbbd
00000210: cd60 9c3e 6477 aa3e f96d 80bd 89ff 4abe
00000220: 816a e3bc 0576 ab3e 377d f83d 9882 d23d
00000230: 987e 7e3d cac8 d63d cc84 f63d 943c 753e
00000240: 3d0b f53d ee4c b4be af4e 99be 027b 97be
00000250: 9904 83be 8ce7 8dbe 10b2 e73b 6ec9 a83e
00000260: 8749 ae3c 53a6 80be b4dc 2fbd 5c7c f0bd
00000270: 7afb d1bd 95d1 b63e 6df1 6d3e b566 333e
00000280: 8913 c73e c41e 653e c16d ecbe 67cb e53c
00000290: 6d86 91be f1ea 2c3f 48fe 993f 7946 a3be
000002a0: 7d5a c83e 408b bdbd 16e5 6dbe 399c a03e
000002b0: 8573 a33e 1bc9 cd3e bb70 d03d e5e2 043e
000002c0: 9097 9a3e 0a18 7ebe 234a c03c 59e9 c6bd
000002d0: 05b2 693d 4d35 4abe 3a92 b2be 7147 b13c
000002e0: b51a 97bd 49fd 50be 3291 ae3e 23f0 f03e
000002f0: 4296 413e 0900 90be f357 d9bd 6f64 2f3e
00000300: a421 333e a798 7a3e 15a9 b93e 5235 3e3e
00000310: 74cd b53d 44fd 34bd 5be1 b83e 8fb6 b4be
00000320: e1fe 8f3e 4ee9 19be ea8f 00bf 0ecb 5f3d
00000330: e8ca d63d 0aaa a33d 13bb dc3e 5e49 ebbe
00000340: f485 893e 4b01 dcbd 1fbc 2a3f fa0a fa3e
00000350: 8e95 793e e3f8 033e 4037 133f f6d5 463e
00000360: 2180 a9be f347 14bd aba6 a4bd 9f1c 643e
00000370: 16da e73d 63ae 90be 50ee f23d dfd7 0e3e
00000380: f123 34be c32f 91bd 7838 9fbd 6145 ccbc
00000390: bf88 fbbd 4311 74bd e098 afbd 1a5e 9fbe
000003a0: edeb 07be 50e6 2fbe 74e2 6a3d 1823 f3bd
000003b0: 0ced 1e3e d7bb 313e 22d7 383d 1131 d73a
000003c0: 20b0 153e b8f1 2c3e c8c1 a63a b652 31bd
000003d0: 5723 ab3c 51c8 183e 207e 94bd b385 46be
000003e0: 40e6 8d3e 8a81 c63e c3de 833e 07f0 afbd
000003f0: 0753 c2bc c6a5 bd3e 505f e03d 9c5f 66be

onnx::Conv_46 f4 [128]
0.8737894 2.3954597 -2.0974748 1.1506321 4.3507104 2.052229 1.5454406 3.5649135
1.3060002 4.723975 3.7304943 1.8959405 3.0123765 2.5291464 5.1343393 3.4252324
-0.6194504 3.6076322 1.9188092 3.1062686 2.722312 -0.43976128 2.5483594 -0.9411539
2.171227 4.7744527 2.1276271 3.996329 2.042349 0.34412104 5.68989 4.0873704
0.8579538 -0.11605275 1.8656839 1.7300214 3.8912761 4.436927 1.3538017 3.028763
0.38995054 4.0960407 1.8710777 2.190588 2.3507018 2.6571631 -0.27830565 2.719045
2.3041608 1.530046 2.8936253 1.5693554 1.6045165 1.7977343 4.5519214 3.9999359
1.5445749 3.7681804 1.4376109 1.2241929 2.9551365 0.9730122 2.770797 4.388517
4.2593822 3.8163176 -0.23852971 2.496117 5.6740246 1.3583285 4.870605 1.9934008
1.7971814 1.5949128 1.9893367 -1.4442363 5.820245 0.3851056 1.2141069 -0.59810257
2.8012652 0.16314301 2.9726322 3.4203434 4.3281574 4.215887 3.037257 2.301189
2.8839157 2.3496628 0.14817469 3.87389 2.6437085 0.8279201 4.525699 0.5017544
3.284001 2.7953331 2.5401812 1.4953909 2.1275506 -1.8986183 1.6924298 2.4463491
3.6495805 0.34389687 3.7064471 0.6995002 0.37317666 2.118822 3.2309866 -0.37336922
0.9261404 1.4606493 3.3548853 3.1460228 2.1921465 3.8090482 4.348478 2.0980184
0.9749516 3.8174572 2.9621177 -0.7145841 5.160394 4.9249625 1.4747319 4.904709
00000000: aab0 5f3f 364f 1940 073d 06c0 ea47 933f
00000010: 0539 8b40 b857 0340 ffd0 c53f 8b27 6440
00000020: 042b a73f ce2a 9740 6bc0 6e40 2eae f23f
00000030: c7ca 4040 89dd 2140 824c a440 0237 5b40
00000040: 4d94 1ebf 72e3 6640 8a9b f53f 1bcd 4640
00000050: 5c3a 2e40 6428 e1be 5218 2340 76ef 70bf
00000060: 62f5 0a40 51c8 9840 0b2b 0840 dbc3 7f40
00000070: d9b5 0240 a230 b03e 9413 b640 bdcb 8240
00000080: dca2 5b3f 10ad edbd bbce ee3f 5771 dd3f
00000090: ab0a 7940 4efb 8d40 6049 ad3f 41d7 4140
000000a0: 99a7 c73e c412 8340 797f ef3f 9832 0c40
000000b0: e671 1640 f60e 2a40 147e 8ebe d504 2e40
000000c0: 5f77 1340 8cd8 c33f 2831 3940 a3e0 c83f
000000d0: cc60 cd3f 281c e63f 57a9 9140 f3fe 7f40
000000e0: a1b4 c53f de29 7140 a203 b83f 5ab2 9c3f
000000f0: f520 3d40 5417 793f bd54 3140 bb6e 8c40
00000100: dc4c 8840 8c3e 7440 2241 74be 62c0 1f40
00000110: 9c91 b540 b5dd ad3f ffdb 9b40 c227 ff3f
00000120: 0a0a e63f 1a26 cc3f 96a2 fe3f bcdc b8bf
00000130: 723f ba40 902c c53e db67 9b3f 401d 19bf
00000140: ee47 3340 f60e 273e 9b3f 3e40 e8e6 5a40
00000150: 4480 8a40 8ce8 8640 6b62 4240 ae46 1340
00000160: 1392 3840 e060 1640 1bbb 173e d0ed 7740
00000170: 8532 2940 92f2 533f 87d2 9040 fa72 003f
00000180: 132d 5240 bde6 3240 5492 2240 f868 bf3f
00000190: ca29 0840 ed05 f3bf 8aa1 d83f fc90 1c40
000001a0: ba92 6940 4013 b03e 6e36 6d40 7212 333f
000001b0: 0311 bf3e c89a 0740 7cc8 4e40 402a bfbe
000001c0: 8a17 6d3f 8ef6 ba3f 71b6 5640 7058 4940
000001d0: 214c 0c40 72c7 7340 bb26 8b40 ef45 0640
000001e0: 6e96 793f 3851 7440 5693 3d40 fcee 36bf
000001f0: f321 a540 4b99 9d40 04c4 bc3f 60f3 9c40
