TinyCenterSpeed_for_train/deploy/onnx/tinycs.onnx (onnx, 853641 bytes, 16 tensors)

deconv1.weight f4 [128, 64, 4, 4]
000000 9f 9d 35 bb 52 c7 5f bd dd 25 22 3d d0 9a 6e 3d
       -0.0027712358 -0.054633446 0.03958689 0.05825311
000010 08 fe f2 bc 18 37 47 3d 23 ed 97 bb 73 2b e2 3d
       -0.029662147 0.048636526 -0.004636423 0.110434435
000020 84 b5 b9 bc 0d c9 20 bd 85 e6 ad bb 92 9e b8 3d
       -0.022669561 -0.039254237 -0.005307021 0.0901462
000030 c8 16 23 3c b4 95 98 bd fa 0b 1c bc eb b9 c0 3d
       0.009954162 -0.074504286 -0.00952434 0.09410461
000040 de 5d 75 3c 57 d1 f9 3b 7d 82 cb 3d 11 7c c7 bd
       0.014975993 0.007623832 0.09936998 -0.09740461
000050 fd 99 92 bd 80 32 ce 3b a0 6a d8 bd 77 74 7e bd
       -0.07158277 0.006292641 -0.10567212 -0.06212279
000060 69 23 84 bc d9 51 8c 3d 8a 33 02 3d f0 4a f6 bd
       -0.016130166 0.06851549 0.031787433 -0.12026012
000070 c5 4d ef 3c ee e0 29 3d e4 3a e0 bd 73 6e d7 bc
       0.029211888 0.041474275 -0.109487325 -0.026297783
000080 74 44 81 3c af 5b a1 3c 9a 8b 6a bd ed bd 61 3d
       0.015779711 0.019697038 -0.05726204 0.055112768
000090 5c 0e 7b 3c 24 a2 8f 3c 57 74 e5 bb d5 c6 cb 3d
       0.015323248 0.01753337 -0.007002394 0.099500336
0000a0 e3 c9 5a 3c 08 d6 be bd 43 eb ac bd 3f a4 a6 3d
       0.013353798 -0.09318167 -0.0844331 0.08136796
0000b0 0b 76 8d 3c 09 0c f1 3c af 86 29 3d 2b 88 e4 3d
       0.017268201 0.029424684 0.04138821 0.111587845
0000c0 8e e6 aa 3c a7 c0 0a be 6b 19 39 3c 0e 77 d0 3c
       0.02086189 -0.13550054 0.011297564 0.025447395
0000d0 85 7a c7 bc a6 5e e5 bb e1 01 3c be 1d 97 c3 3d
       -0.024350414 -0.0069998084 -0.18360092 0.09550307
0000e0 cd 85 33 3d c4 b6 30 be be 56 7f be aa 69 b5 3d
       0.043828774 -0.1725722 -0.24935433 0.088580444
0000f0 02 bb 2b 3d 45 ba 81 bd cc 4d e6 bd 8c 56 be 3d
       0.04192639 -0.06334356 -0.11245307 0.09293851
000100 78 b0 2e 3c db 48 22 3d 55 c2 04 3d 0e 8c 60 3d
       0.010662191 0.03962026 0.032411892 0.054821067
000110 5a e3 a3 3d ad 50 84 bd 89 aa 57 bc 46 c8 ec bc
       0.08002348 -0.064607 -0.013163217 -0.028904092
000120 47 8b 8a 3d cc 60 a5 bd da 85 b5 3d 66 10 1d bd
       0.06764846 -0.08075103 0.08863421 -0.038345717
000130 2b 63 eb bb 9e 19 c4 bc 09 ea be 3d c4 4a 0c 3d
       -0.0071834526 -0.023937996 0.093219824 0.03425099
000140 6e f1 1a bc cd 36 93 3d 6c 24 de bb 60 5f e6 bd
       -0.009456975 0.07188187 -0.006779244 -0.1124866
000150 c8 84 0e bd 71 bb 80 bd 9f 49 55 3d 51 f8 5e 3c
       -0.0347946 -0.062857516 0.052072164 0.013609008
000160 d9 c8 1d bd c8 39 cd 3d 2a df 08 3e 24 1f e7 bd
       -0.03852162 0.100207865 0.1336638 -0.112852365
000170 c8 2e 4c bc a7 75 3f bc 9d 1d e8 3b e2 64 ba 3c
       -0.012462325 -0.011685765 0.0070836083 0.022753183
000180 46 32 a9 3d 71 90 50 3d a4 48 05 3e 77 1d 15 3e
       0.08261542 0.050919 0.13015991 0.14562021
000190 7a 5f ea 3c 4b c6 0d bb 9a 63 5b 3d 5a 4d 1c 3e
       0.02860998 -0.0021633084 0.053561784 0.15263882
0001a0 41 81 f1 3d da 85 df bd 2e 9e 04 be 91 30 08 3e
       0.11792231 -0.10914202 -0.12950966 0.13299777
0001b0 7d 49 ab 3d 65 69 18 be 4a 48 f6 bd 9d bf 01 3e
       0.08363626 -0.14883955 -0.12025507 0.12670751
0001c0 df 30 15 3d ff 8b 4b bc ab 2d 1c bd 1c a9 b9 3d
       0.03642356 -0.012423514 -0.03812949 0.09065458
0001d0 36 c9 db 3d 42 80 c8 3c b9 32 6b bb 33 74 e0 3c
       0.10731737 0.02447522 -0.0035888387 0.027399158
0001e0 d4 43 df 3c 77 75 56 3c ab ee c9 bd 04 de fd 3d
       0.027254023 0.013089529 -0.098599754 0.12395862
0001f0 5b 45 a9 39 8e c9 38 bd bc 41 a9 bd 8d 46 ee 3c
       0.00032285866 -0.045114093 -0.08264491 0.029086376
000200 80 bc 0d 3d 12 87 17 3b 85 5a a5 3d 31 f4 91 bc
       0.034603596 0.002312128 0.08073906 -0.017816635
000210 d5 36 ff 3c 2a e9 35 3d 48 4e 2d be 74 13 0c 3c
       0.031154076 0.044411816 -0.16924393 0.00854956
000220 9e 1a 3f 3d 5b 3c 85 bc bf 84 8b 3d 7d 4e 90 3d
       0.046656244 -0.016264131 0.06812429 0.070462205
000230 d3 5b 3c 3c 2d bd 74 bd 77 3f 22 bb 32 6c a4 bd
       0.011496502 -0.059750725 -0.0024757066 -0.08028449
000240 c4 de 14 3d fc 47 5d be 3e 9f af 3d 8f 87 2a 3d
       0.03634526 -0.21609491 0.08575295 0.041633185
000250 02 91 d5 3c c0 e9 c2 bc ca 26 16 be d2 62 f1 3d
       0.026070122 -0.023793101 -0.14663234 0.117864266
000260 39 c2 5b bd 82 dd b8 3c 76 ac 1f be b2 c3 12 3e
       -0.053652022 0.02256656 -0.15593132 0.14332464
000270 78 ee 94 bd 0c d0 0f be c9 43 97 3b 87 8d ac bc
       -0.07272047 -0.14044207 0.004616235 -0.02106358
000280 27 f9 18 3d d8 45 bf bd 3b fe 3e bd f6 e1 03 3e
       0.037346985 -0.093394935 -0.04662917 0.12879166
000290 c4 aa f2 bc e7 df bf 3c 6d d9 6e 3b be 2f f4 3d
       -0.029622443 0.023422195 0.0036445514 0.119231686
0002a0 e2 06 73 bc ca 95 8e bd d8 0f fd bd 16 37 1d 3e
       -0.014833184 -0.06962164 -0.123565376 0.15353045
0002b0 09 07 5e 3c c8 09 0f be 49 f2 ae 3c 04 96 d8 3d
       0.013551482 -0.13968575 0.021355765 0.10575488
0002c0 8f 85 61 bc d8 71 6c 3d a4 b2 29 3c 86 bd a8 3d
       -0.013764753 0.057725757 0.010357533 0.08239274
0002d0 05 39 30 3e 7e 23 49 3e 17 83 65 bc 88 96 49 3d
       0.17209251 0.19642445 -0.014008305 0.049215823
0002e0 91 91 12 3e a6 ca e4 3d 10 c5 33 39 b0 dc b8 3c
       0.14313342 0.111714646 0.00017144182 0.02256617
0002f0 0f 18 d4 3d 04 00 26 bc f8 32 20 be c0 07 b9 3d
       0.10356151 -0.01013184 -0.15644443 0.09034681
000300 f1 de 0e be fd 18 4c bd fc ab 9b bb 8c 1b 10 bd
       -0.13952233 -0.04982852 -0.0047507267 -0.03518252
000310 15 80 a3 3d fe 57 bb 3b ca d8 a4 bd f1 47 35 bd
       0.07983414 0.0057172766 -0.08049162 -0.04425806
000320 1b 44 19 be 32 cd eb 3c 8a d3 05 bd ca 0e 97 bc
       -0.14967386 0.028784368 -0.032672442 -0.01843967
000330 48 7f b1 bd ae cf ca bc 07 33 a1 bb 6f 1e 60 3b
       -0.08666855 -0.024757233 -0.004919413 0.0034197827
000340 ab bd f0 3d ca 1b 86 bd 7b 43 ef bd c7 ff 9e 3d
       0.11754926 -0.06548269 -0.11682793 0.077636294
000350 45 d0 d1 3d 48 d8 97 3d dc 0b 58 3d b8 29 f2 bc
       0.102448024 0.07414299 0.052745685 -0.029560909
000360 05 34 df bc 96 99 40 bc 51 12 23 3d ce c5 b4 3d
       -0.027246485 -0.011755368 0.03981239 0.08826791
000370 28 2e 5c be 3d 1a 01 be db e1 1f 3d 19 82 28 3d
       -0.21501982 -0.12607665 0.039033752 0.041139696
000380 11 52 62 3d 4b 37 a9 3d 5a 1e 1e bc fa 6d 28 3c
       0.055254046 0.082624994 -0.009650791 0.010280127
000390 be 25 d2 3d 03 df 97 3d 6a bc ab bc db 4d 33 3d
       0.10261105 0.07415583 -0.020963866 0.04377542
0003a0 b1 df 63 bc 1b 22 81 3d 19 aa 41 3d 30 d9 21 3d
       -0.013908313 0.06305333 0.04728136 0.039513767
0003b0 37 d8 3a bd 5d 48 dc bd 8b ff 92 3d 89 ae c5 3d
       -0.045616355 -0.1075599 0.07177647 0.096524306
0003c0 f4 6e 49 bd ad c0 f2 3c 28 25 3c bd 57 bf 3d 3d
       -0.04917808 0.02963289 -0.045933872 0.046325054
0003d0 c3 84 ce 3c 8f f6 db bd 91 f5 ae 3d 57 63 22 3d
       0.02520979 -0.10740387 0.08542932 0.03964552
0003e0 9a cd 82 3d 65 3b 99 3d d0 48 09 be 69 37 b9 3d
       0.06386872 0.07482032 -0.13406682 0.09043772
0003f0 d7 41 1c 3c 27 8c d7 bd 7e 63 9c bd 52 48 06 3d
       0.009537182 -0.10524779 -0.07636164 0.032783814

deconv1.bias f4 [64]
000000 84 c2 51 bb 5b 27 c2 bc 45 b7 e0 bc c1 cf 36 bd
       -0.003200681 -0.023700407 -0.02743114 -0.044631723
000010 48 a1 00 bd 75 17 0a 3d ee b7 12 bd e2 8c d5 3b
       -0.03140381 0.033713777 -0.03581994 0.0065170387
000020 f9 aa 0f 3c 79 48 74 3d a7 9c 47 3c d5 02 42 3b
       0.00876879 0.059639428 0.012183345 0.0029603739
000030 90 18 25 bb 33 00 88 bc b3 f0 89 bc d9 4f 99 bc
       -0.0025191642 -0.016601657 -0.016838407 -0.018714832
000040 67 e7 57 3b 20 fe 57 bd 76 60 c5 3c 0c 34 c6 3c
       0.0032944323 -0.052732587 0.024093848 0.02419474
000050 1f bf 03 39 22 0e dd 3b 2b ad 3b bc bd d2 9f bc
       0.00012564332 0.0067460695 -0.011454861 -0.019509668
000060 2e 9c e9 3b 4b 7b 03 bd 6d cb f5 3c a4 42 ee bc
       0.007129214 -0.032100003 0.030004228 -0.029084511
000070 75 4a 9b 3b c8 33 af 3c 5c 02 a1 bc 2c 7a 3a bc
       0.0047391006 0.021386996 -0.019654445 -0.011381667
000080 75 73 7c 3d 2b df 37 3d 61 26 80 bc 0d 82 1a bd
       0.061633546 0.044890564 -0.0156433 -0.037721682
000090 eb 44 41 3c 75 0c 84 bc 53 3b 60 bc f7 71 4c bd
       0.0117962165 -0.016119221 -0.013686019 -0.049913373
0000a0 36 4a d8 3b e6 ef 81 3d b9 f6 37 3d 61 ec 7a 3c
       0.0066006435 0.06344585 0.044913027 0.015315146
0000b0 1d 20 0b 3d d2 a9 5b bc b2 a0 81 3c 98 fa 71 bb
       0.033966172 -0.013407188 0.015823696 -0.0036923047
0000c0 ef 0d b0 bb d3 7c b2 3c 31 52 7a bc bd 47 7c 3c
       -0.0053727548 0.021788036 -0.015278385 0.015397963
0000d0 c9 59 b7 3a 39 61 92 3b 6a 58 d3 bc 68 80 23 3d
       0.001398855 0.0044671563 -0.025798995 0.03991738
0000e0 fc b1 0f bc a3 4e 05 b9 da 1c cb 3c 54 06 30 3c
       -0.008770462 -0.00012713163 0.024794031 0.010743696
0000f0 60 42 a5 bc 35 2f 9f bc de 3f 92 3c fc c3 dc 3c
       -0.020173252 -0.01943169 0.01785272 0.026948921

deconv2.weight f4 [64, 4, 4, 4]
000000 ec 4b 25 3c de 3f 82 3c 27 d7 22 3d 60 e8 b8 3c
       0.010088902 0.015899595 0.039755967 0.022571743
000010 17 07 5b 3d 24 6f 8f 3d 33 f3 a8 3d 9d 05 56 3d
       0.05347356 0.0700362 0.082495116 0.052251447
000020 d9 86 a4 3c 4d 3b 9c 3d 10 d2 91 3d 6a 51 df 3c
       0.020083832 0.07628498 0.07120144 0.027260501
000030 5a a8 2a 3c b8 99 df 3c 23 07 df 3c 93 20 40 3c
       0.010416115 0.027294978 0.027225083 0.011726516
000040 3e 5b c0 3c db f6 12 3d 84 6c 11 3d 02 e3 9b 3c
       0.023481008 0.03587995 0.03550388 0.019029144
000050 bc 07 1d 3d d6 9a 8f 3d 53 06 8a 3d ce 86 ff 3c
       0.038337454 0.070119545 0.067394875 0.03119221
000060 c7 5c bb 3c 6c 3e 73 3d cb d5 58 3d 05 d4 49 3c
       0.022871388 0.059385702 0.052938264 0.012318616
000070 32 60 ff 3a b8 81 a5 3c ba 2f a6 3c 38 69 14 39
       0.0019483624 0.020203456 0.02028643 0.00014153577
000080 17 67 92 3b fe c7 3d 3c 86 b4 16 3c 13 c7 70 3a
       0.0044678557 0.011583326 0.009198314 0.0009184938
000090 4c dd 55 3c 98 4a aa 3c c1 94 43 3c fe aa de 3a
       0.01305325 0.020787522 0.011937321 0.0016988216
0000a0 92 6a 93 3b 16 ee a7 3b 76 f7 64 3b e5 6f ff 38
       0.004498788 0.0051248176 0.0034937537 0.000121801895
0000b0 d0 62 9e bb 7e a4 be bb 58 f1 ae 3b c2 de 9a 3b
       -0.0048335567 -0.005817949 0.005338829 0.004726262
0000c0 d6 22 36 bb d6 0f 17 bc f5 67 82 bb 1d cb 82 3b
       -0.002779176 -0.009220084 -0.003979678 0.003991498
0000d0 e6 3f 2f bc 50 0e 8e bc c7 63 a2 bb 5f 0c 67 3b
       -0.010696387 -0.01734081 -0.004955742 0.0035255176
0000e0 57 cd 6f ba 84 bb b2 b9 63 7b 75 3a bd 61 99 3b
       -0.00091477245 -0.00034090516 0.00093643944 0.0046808408
0000f0 ee b3 eb 3b 05 7a 0d 3c ee 87 0b bb 08 68 af ba
       0.00719308 0.008635049 -0.0021290737 -0.0013382444
000100 47 0d f7 3b 4c e9 e4 3d ad b8 fc 3c 87 e0 31 3c
       0.0075394246 0.1117731 0.030849779 0.010856754
000110 48 a8 29 3d 7e 23 c8 3c df c7 28 3d e7 8c d7 3c
       0.04142025 0.024430986 0.041206237 0.026312305
000120 9d 92 7a 3b ec 23 87 3c 04 64 54 3c 54 bf 71 3c
       0.003823436 0.016496621 0.012963299 0.014755089
000130 c8 e8 cb 3c b7 2d 15 3d c1 22 1f 3c 67 a9 02 bc
       0.024891272 0.03642055 0.009712876 -0.007974959
000140 bc 48 34 bd c8 92 10 bd c9 55 0a bd e9 cd f7 3a
       -0.044014677 -0.03529623 -0.033773217 0.001890597
000150 d5 34 e4 bc 37 f5 85 bd 3c d1 4b bd 63 34 a2 b5
       -0.027857224 -0.06540912 -0.04976009 -1.2085187e-06
000160 fc a0 7a 3a 00 c9 9d bc d7 07 c5 bb 97 7d 1f 3c
       0.00095607317 -0.019260883 -0.0060128975 0.009734533
000170 c8 3d b2 3c 3d cd d7 3c 19 d6 8a 3c 3e 3f 21 3c
       0.021757975 0.026342982 0.016947793 0.009841738
000180 7f ca f5 bc 86 5c 38 bd 19 c4 d4 bc 5c d3 86 3b
       -0.030003784 -0.045010112 -0.025972413 0.0041145515
000190 7e 93 27 bb 52 2b ab bb 01 b7 09 3c 94 d7 a8 3c
       -0.002557009 -0.00522367 0.008405448 0.020610608
0001a0 63 11 91 3c cd 7c 39 3d db d3 1a 3d be 52 4f 3c
       0.017708486 0.045285035 0.037799697 0.012654005
0001b0 05 d6 f4 ba 18 7c c5 3c 04 0c d0 3c 27 f6 10 3b
       -0.0018679505 0.024107024 0.025396354 0.0022119374
0001c0 74 8a b6 3c da 47 1e 3d bc 39 cb 3c ae a8 66 ba
       0.022282816 0.03864274 0.024807803 -0.0008798939
0001d0 97 bb 90 bc c2 15 3a bc d8 0a 7f bc ff d7 ac bc
       -0.017667575 -0.0113577265 -0.01556655 -0.021099089
0001e0 76 91 15 bd 50 b2 70 bd c4 34 44 bd 3e 1a 89 bc
       -0.036515675 -0.058763802 -0.047901884 -0.016736146
0001f0 a1 95 e9 bb 2a 41 ee bc 75 25 ef bc 4f 4f 84 bb
       -0.007128433 -0.029083807 -0.029192666 -0.0040377746
000200 1c 0e 39 bc 66 83 88 bc b5 8b bf bc 4f f5 55 bb
       -0.011294868 -0.016664218 -0.023382047 -0.0032647436
000210 83 86 ad 3c 24 63 84 bc db 0c d7 bc a2 f9 06 bb
       0.021182304 -0.016160555 -0.026251247 -0.002059557
000220 8a 59 91 3c 22 14 e2 3b d5 00 bd bb 46 76 d9 bb
       0.01774289 0.0068993727 -0.0057679215 -0.0066364137
000230 ce 16 59 bb a0 38 98 3b 31 75 90 3a 90 55 13 ba
       -0.0033125165 0.004645422 0.0011021254 -0.0005620355
000240 3a b6 02 bd 39 56 ba bc 75 3b 1e 3c 21 99 f5 3a
       -0.031912066 -0.022746192 0.00965773 0.0018737653
000250 40 87 a0 bd 9a a8 ac bd 8a 48 db bc 9a 4b 73 3a
       -0.07838297 -0.08430596 -0.026767988 0.000928098
000260 b4 c5 b1 bd 80 00 9b bd c7 ac 8f bc 05 7a 8a bb
       -0.08680287 -0.07568455 -0.017538441 -0.0042259716
000270 25 c5 14 bd 1e 6a dc bc be 4e 14 3b 35 50 0a ba
       -0.036320824 -0.02690607 0.0022629942 -0.0005276234
000280 2a 6b c7 bc f3 a5 9d 3c f5 96 f1 3c d0 c4 0c bc
       -0.024343092 0.01924417 0.029490927 -0.008591846
000290 6f 21 10 be 44 8f 9d bd fa a1 52 3c ab f1 96 bb
       -0.14075254 -0.076933414 0.012856001 -0.004606446
0002a0 2e 34 05 be b0 00 d5 bd 83 f5 4c bc 06 e5 e8 b9
       -0.13008186 -0.10400522 -0.012509706 -0.00044421124
0002b0 4a 21 9b bc bd 35 99 bc 14 0c 9d 3b 67 e7 e5 3a
       -0.018936772 -0.018702382 0.0047926996 0.0017540277
0002c0 9d ba 09 3d 2d 8b 67 bc 07 ae 04 bd 94 83 e1 3b
       0.033625234 -0.014132303 -0.032392528 0.0068821404
0002d0 dd 73 1d 3e 2c 30 b0 3d 95 3a 65 bc 7e c9 6d 3a
       0.1537623 0.08602938 -0.013991018 0.0009070857
0002e0 bb 13 13 3e cb f4 e2 3d 89 18 3b 3c 64 7a 18 bb
       0.14362995 0.11081847 0.011419424 -0.002326631
0002f0 f6 f7 ec 3c 5e 6b b7 3c 34 7f f8 bb 1b b6 95 bb
       0.02892683 0.022390064 -0.007583523 -0.004568828
000300 15 15 f7 3c a2 bb 1d 3e 67 18 3e 3c ee 31 0f bc
       0.03016142 0.15403607 0.011602498 -0.0087399315
000310 21 9e 9c 3d 80 2d e2 3e 41 7a 93 3e 6a a2 0b bd
       0.07647348 0.4417534 0.2880421 -0.034090437
000320 c4 73 7b 3d 73 cf 99 3e 3f 0c 03 3e c4 af c5 bc
       0.0613897 0.30041084 0.1279764 -0.024131663
000330 2a c4 5f 3c 37 ad 51 ba d4 36 25 bd 92 57 02 bd
       0.013657609 -0.00079985283 -0.04033549 -0.031821795
000340 c7 dd a6 3d 59 6b 7d 3e 25 55 02 3e ac 78 99 bb
       0.081477694 0.24747981 0.12727793 -0.0046835747
000350 be 97 2d 3e 68 48 18 3f 22 2d d4 3e 86 c4 17 3d
       0.16952416 0.59485483 0.41440684 0.037052654
000360 1f c2 ea 3d c7 af e9 3e 3b ec a6 3e 5a a8 f9 3c
       0.11462807 0.4564192 0.32602105 0.030475784
000370 01 10 38 3c cf 2a c4 3d c8 e6 6c 3d da f1 09 bc
       0.011234284 0.095784776 0.057837278 -0.008419478
000380 8a 8e cf bd 7c 79 f3 bd 75 4c 81 bd 38 e1 e7 bb
       -0.10134609 -0.11888406 -0.06313411 -0.0070764087
000390 ba dd f4 bd c1 81 29 be 75 12 eb bd a9 3d eb bb
       -0.119563535 -0.16553403 -0.1147813 -0.0071789813
0003a0 5b 41 76 bd 0e b0 f2 bd d5 6f de bd d0 fc d6 bc
       -0.06012092 -0.11849986 -0.10861174 -0.026243597
0003b0 dc 97 05 bb 37 d2 0e 3c 88 11 29 bc e6 0a 18 bc
       -0.0020384705 0.008717111 -0.010319121 -0.009279942
0003c0 46 a6 21 3d ea 2b 43 3d 57 fc f2 3b cb 2b c2 bc
       0.03946521 0.0476493 0.007415335 -0.023702523
0003d0 5b a4 52 3d 55 32 c5 3d 8f 53 5a 3d 18 bf be bc
       0.051426273 0.09628741 0.053302344 -0.02328448
0003e0 52 4f 97 3c 5b 22 9e 3d f2 88 a0 3d 49 e8 b4 3c
       0.01847044 0.077213965 0.0783862 0.022083418
0003f0 f4 a7 26 bb fb 20 4d bc 3c 7e 26 3c a4 fc 98 3c
       -0.0025429698 -0.01252007 0.010161933 0.018675156

deconv2.bias f4 [4]
000000 d2 e0 58 bd 47 8f d9 3d 53 08 92 3c d8 00 d6 3d
       -0.05294878 0.10623031 0.017826235 0.1044938

bn4.weight f4 [4]
000000 96 79 aa 3c c7 f8 17 3d 37 eb 00 3d ef f0 79 3c
       0.02080993 0.037102487 0.03147432 0.015255197

bn4.bias f4 [4]
000000 82 09 9b 3a 55 c0 06 3b 40 ac 8d 39 ca ad 9a b8
       0.0011828395 0.0020561416 0.00027021952 -7.375663e-05

bn4.running_mean f4 [4]
000000 f7 5a 10 bf 93 2e db bd be e9 a3 bc c9 b1 06 3e
       -0.563888 -0.10702243 -0.020008918 0.13153757

bn4.running_var f4 [4]
000000 73 a8 ac 3d c2 5e 25 3d d3 7d e5 3c 15 a8 d9 3c
       0.08430567 0.04037357 0.0280141 0.026569406

bn3.weight f4 [64]
000000 ec 7e f9 3f f0 f2 5d 3f c3 f4 1c 40 30 f2 b7 3f
       1.9491858 0.8669882 2.452439 1.4370785
000010 37 5b 63 3f 96 b9 01 40 7a 75 b9 3f f3 e0 f8 3f
       0.8881106 2.0269523 1.4488976 1.9443649
000020 30 89 b0 3f b8 84 a0 3f 59 cb aa 3f af ee 93 3f
       1.3791866 1.2540503 1.3343307 1.1557215
000030 36 bd 86 3f 45 9c b9 3f e4 d2 92 3f 5b 6e bf 3f
       1.0526493 1.4500815 1.1470609 1.4955553
000040 9d 01 b5 3f 33 8c aa 3f c4 ae a1 3f 91 1a be 3f
       1.4141117 1.3324035 1.2631459 1.4851857
000050 e2 59 da 3f 14 d2 8f 3f 40 b5 ad 3f b9 b8 a2 3f
       1.705868 1.1235986 1.3570938 1.2712623
000060 13 0a b6 3f e2 c8 07 40 45 be a2 3f 3b 7b a8 3f
       1.4221824 2.121636 1.2714316 1.3162607
000070 b2 d4 93 3f a4 57 c7 3f 02 e8 d9 3f 9a 41 04 40
       1.1549284 1.5573621 1.7023928 2.066504
000080 37 dd b7 3f d6 dc a3 3f ef d4 b4 3f f9 a1 dd 3f
       1.4364384 1.2801769 1.4127482 1.7315055
000090 57 d1 eb 3f 65 48 bd 3f fe 8e 02 40 8b a0 c1 3f
       1.842326 1.4787718 2.0399776 1.5127119
0000a0 0c ba d3 3f 49 8e b5 3f 6f 93 c2 3f 44 95 a0 3f
       1.6541152 1.4184047 1.5201243 1.2545552
0000b0 86 79 af 3f bd 6f a8 3f f0 ee a7 3f ee 24 98 3f
       1.3708961 1.31591 1.3119793 1.188627
0000c0 9b c0 de 3f 28 22 d0 3f 15 77 b6 3f 46 8d 91 3f
       1.7402529 1.6260424 1.4255091 1.1371238
0000d0 9c b1 e1 3f 17 19 9d 3f ba 2c ce 3f 6e 82 e9 3f
       1.7632327 1.2273282 1.61074 1.8242929
0000e0 de 7b 9b 3f 1a bc b2 3f c2 31 b6 3f 77 95 ae 3f
       1.2147176 1.3963654 1.4233935 1.3639363
0000f0 3e 5d b1 3f a8 ff be 3f a2 57 d7 3f 2c 77 af 3f
       1.385658 1.492177 1.6823618 1.3708243

bn3.bias f4 [64]
000000 83 7b 3e bf de b9 0c be 36 ce 47 c0 fb e1 e2 bf
       -0.74407214 -0.13742778 -3.121961 -1.7725214
000010 35 c8 86 bd c6 b7 82 3e 0e d3 c3 bf 56 92 b3 bf
       -0.06581155 0.25530833 -1.5298784 -1.4029033
000020 5e 47 60 be 31 c1 ac bf 37 73 43 bf 2c a1 50 be
       -0.21902224 -1.3496457 -0.7634768 -0.20373982
000030 d1 df 21 bc 2c 68 ca bf 99 af 04 3c 44 26 23 bf
       -0.009880022 -1.5813041 0.008098506 -0.63730264
000040 2e 3c 04 bf 3a 04 34 bf 67 c7 f0 be 8c 28 de bf
       -0.51654327 -0.7031895 -0.47027132 -1.7356124
000050 08 16 f5 3d 2b 5f 90 bf a3 31 af bf 66 38 da be
       0.11967093 -1.1279043 -1.3687023 -0.42621154
000060 b9 c0 3f 3d 1c 87 8b bf 7c a1 ba 3d ef f4 fd be
       0.046814654 -1.0900607 0.09112832 -0.49600932
000070 60 61 b5 be 9c 05 b6 bf cf b5 5a bf 06 10 75 bf
       -0.35425854 -1.4220462 -0.8543367 -0.95727575
000080 fe 3f bb bf cb b7 5b 3e ad 9a 2a bf 61 dd a3 be
       -1.4628904 0.2145683 -0.66642267 -0.32004836
000090 f4 ae 9a be 79 74 22 bf a7 6b 06 bf c9 bf 5d bf
       -0.30211604 -0.63458973 -0.52508014 -0.86620766
0000a0 bb 57 c4 be cf c8 86 bf 5f 20 ed bf 1d 50 12 3a
       -0.38348183 -1.0530032 -1.8525504 0.0005581396
0000b0 a5 23 17 bf 74 f7 65 bf 71 41 1d bf e0 9f 9c be
       -0.59038764 -0.8983071 -0.6142798 -0.30590725
0000c0 f5 fd 89 be e4 70 16 bf 34 b7 c3 bf db 8e ab bb
       -0.26951566 -0.5876601 -1.5290284 -0.0052355356
0000d0 a6 0d 08 bf ab a8 db bd f0 25 5a bf 52 4e e8 bf
       -0.53145826 -0.1072553 -0.8521414 -1.8148901
0000e0 9f bf c6 bf e5 b3 3b bf e5 fc 07 bf 8b c1 06 bf
       -1.5527228 -0.7332137 -0.5312026 -0.52639073
0000f0 0c 54 81 bf 71 c5 a0 be a4 0c 53 bf 4a 60 66 bf
       -1.0103774 -0.31400636 -0.82441163 -0.89990675

bn3.running_mean f4 [64]
000000 ae 53 02 bf e4 da 14 bf 0d 88 f4 be f6 06 d1 bf
       -0.50908935 -0.581465 -0.47760049 -1.6330249
000010 fd a8 99 bf 25 e5 4f be ea 2d 77 bf 50 2a 97 3e
       -1.2004696 -0.20302255 -0.96554434 0.2952447
000020 7d 95 ad be 52 c6 c5 bf b3 4b 54 bf b2 a8 2d bf
       -0.33903113 -1.5451148 -0.8292801 -0.67835534
000030 49 4d 9b bf 05 d7 a8 bf 9a 75 b7 bf 66 bf 17 bf
       -1.213296 -1.3190619 -1.4332764 -0.59276426
000040 f4 04 2c bf 91 67 c5 bf b7 36 a6 be 0e dc 97 bf
       -0.6719506 -1.5422231 -0.3246362 -1.186403
000050 93 1a ac bf b5 39 8e bf 57 29 8c bf 5c 21 7b bf
       -1.344561 -1.1111361 -1.0950116 -0.9809778
000060 08 87 1f bf df 46 0d bf d3 9e b2 bf b5 71 dd bf
       -0.62315416 -0.55186266 -1.3954719 -1.7300326
000070 32 ec ef be 0e 5e 6e bf c3 07 ef be cd 30 34 bd
       -0.4685989 -0.93112266 -0.4668561 -0.043991853
000080 7e 39 96 bf fb 72 7b bf 07 d5 3b be c9 8f 3c bf
       -1.1736295 -0.9822232 -0.18342982 -0.736569
000090 fb 75 cd bf 24 db d6 be fa 70 a9 be f3 71 5d bf
       -1.605163 -0.41964066 -0.33094007 -0.86502
0000a0 4c e8 3f bf d5 c9 3e bf ea a6 bd bf 75 5a 22 bf
       -0.7496383 -0.7452672 -1.4816563 -0.63419276
0000b0 3c cf 21 bf 4f 6f 2a bf 4a 85 81 bf 72 94 a9 be
       -0.6320684 -0.66576093 -1.0118802 -0.33121067
0000c0 9a 3f 3f bf 01 06 06 be ee 8d b2 bf 77 0d 44 bf
       -0.74706423 -0.13088228 -1.3949564 -0.76583046
0000d0 2f ed ad be 93 a3 9d be 5c 02 d3 be 64 b4 db 3e
       -0.3397002 -0.3078886 -0.41212738 0.42911065
0000e0 08 4d b5 bf f7 73 2d bf 0d c8 28 bf 01 2e 5e bf
       -1.4164133 -0.67755073 -0.65930253 -0.86788946
0000f0 e9 21 93 bf a2 57 41 bf db b9 85 bf 2f b0 4b bf
       -1.1494724 -0.7552434 -1.0447344 -0.7956571

bn3.running_var f4 [64]
000000 e4 75 ba 3f a7 5d 5d 40 28 b0 81 3e b4 c3 9a 3f
       1.4567227 3.458841 0.2532971 1.2090974
000010 ce d2 73 40 59 a2 90 3f 74 ce 6a 3f 5b 92 09 40
       3.8097415 1.1299545 0.9172127 2.1495578
000020 13 00 ab 3f d5 38 85 3f 11 53 dd 3f a5 71 ad 3f
       1.3359398 1.0407969 1.7290975 1.3550307
000030 d4 b1 ff 3f ae 4e a2 3f fe f7 11 40 a2 b0 73 3f
       1.9976144 1.2680261 2.2807612 0.95191395
000040 bd 2c 19 40 87 63 cd 3f 85 14 90 3f ee 81 7a 3f
       2.3933556 1.6045998 1.1256262 0.97854507
000050 ee 1c 0c 40 d5 af ad 3f 8a 0d 32 3f e0 0b 37 3f
       2.1892657 1.3569285 0.6955191 0.71502495
000060 f5 5e 1c 40 f9 82 26 40 88 59 d2 3f 12 a5 be 3f
       2.4432957 2.601744 1.6433573 1.4894125
000070 e2 2e 68 3f e4 90 7f 3f 41 41 19 3f da 19 e0 3f
       0.9069654 0.9983046 0.59865195 1.7507889
000080 27 da 9f 3f 86 38 fc 3f 4c 54 45 3f 2b a3 93 3f
       1.248845 1.970475 0.7708175 1.153417
000090 f5 d2 04 40 e2 e7 07 3f eb 7c 13 40 87 47 0d 40
       2.0753758 0.530882 2.3044994 2.2074907
0000a0 07 6a 8d 3f 18 34 c6 3f f8 4a 9c 3f 47 93 ae 3f
       1.1047982 1.5484648 1.2210379 1.3638695
0000b0 7d 79 b0 3f 63 4d 89 3f c9 0b 95 3f d8 7b 84 3f
       1.3787075 1.0726742 1.1644222 1.0350294
0000c0 5c 05 05 40 53 cc 25 40 97 93 8d 3f 98 ff 89 3f
       2.078452 2.590596 1.1060666 1.0781126
0000d0 07 e7 ac 3f 52 ca be 3f 2d 23 8e 3f 20 40 af 3f
       1.3508004 1.4905493 1.1104485 1.3691444
0000e0 9d d6 54 3f 6b 62 8c 3f 82 ec 60 3f f2 9b 25 40
       0.83139974 1.0967535 0.8786088 2.5876431
0000f0 f7 99 f6 3f 23 e0 8a 3f df d1 04 40 03 80 6a 3f
       1.9265736 1.0849651 2.0753095 0.9160158

onnx::Conv_42 f4 [64, 6, 3, 3]
000000 2b 42 2a be da e9 3c 3e 8c 44 4d be ab 51 e6 be
       -0.16626804 0.18448582 -0.2004568 -0.44984183
000010 17 0e 9e be 71 cd 11 bf 9a d5 d9 3d 6e ee ec 3e
       -0.30870125 -0.56954104 0.106364444 0.46275657
000020 be 03 de bd c1 8d fe 3e 70 fd 92 3f 99 7a 13 3e
       -0.108405575 0.49717525 1.1483593 0.14402236
000030 c4 95 a5 3f 3c 49 c0 3f 6a 23 fe 3e d9 77 5b 3f
       1.293633 1.5022349 0.49636394 0.8572975
000040 5c f8 4e 3f d5 96 96 be 5c de 06 3e d6 7a d0 be
       0.80847716 -0.2941195 0.13170761 -0.40718716
000050 fc d1 28 3e 6d 38 bc 3d d2 43 04 bd 51 92 8f 3e
       0.16486353 0.0919045 -0.03229124 0.28041318
000060 2b 07 b3 be 1e e7 2e bf 4f cb 9d 3d e9 f1 e6 be
       -0.34966406 -0.68321407 0.07704794 -0.45106438
000070 f7 ab 20 3e b9 ba aa be 41 fe 96 be 26 22 31 3e
       0.156906 -0.33345583 -0.29490855 0.17298183
000080 82 b3 b6 3e f2 83 cc 3d 9e 90 c3 3d f6 0a b9 3e
       0.3568383 0.09986104 0.09549068 0.36141175
000090 57 3e 5a 3f e1 7d 9b 3f 3f 73 e8 3d 6e 79 0c 40
       0.85251373 1.214779 0.113501064 2.1949115
0000a0 bb 2c 0d 40 60 cf 34 3f cb 18 4a 3f 5d 80 1d 3f
       2.2058551 0.7062893 0.7894408 0.6152399
0000b0 f7 0f 20 bf 7b b9 98 3e 7b 2d e6 be af 4a be 3e
       -0.6252436 0.2982901 -0.44956574 0.37166354
0000c0 c0 a1 b4 be 0a c1 09 bf ae aa d4 be 4a 34 b2 be
       -0.35279655 -0.5381018 -0.41536468 -0.34805518
0000d0 1d b6 33 be 9e 42 5f be 89 e6 e7 bd d6 56 01 3e
       -0.1754994 -0.21802756 -0.11323268 0.12630782
0000e0 82 0d a0 3d 7f ec 59 3d 63 56 d1 3d f0 29 2b 3d
       0.078150764 0.053204056 0.10221555 0.04178804
0000f0 d5 ac 14 3e 34 8b 1a 3e 38 f8 26 bc a8 0b 29 3e
       0.14519055 0.15092164 -0.010191016 0.16508353
000100 3f 91 2c 3e 47 ae 5e 3d 15 c2 3d 3c fb 97 50 3e
       0.16852282 0.054365423 0.011581917 0.20370476
000110 c2 53 2d 3c c8 93 c5 3d a8 0f 00 3c cb f8 8a bc
       0.010579051 0.09647328 0.007816233 -0.016964337
000120 b4 d2 ea bd 66 b2 06 3d 36 5c 3e 3e df 79 f1 bc
       -0.1146597 0.032884978 0.18589863 -0.029477058
000130 1b 47 de 3d ee af c6 3d 52 d8 d4 3d 36 fe 59 3e
       0.10853406 0.09701525 0.10392822 0.2128838
000140 41 0d fe 3d a2 a5 31 bd 17 d0 c0 3d d2 8f 8b 3c
       0.12404872 -0.04337085 0.0941469 0.017036352
000150 bb ad dc bc cd ee 9d bc 30 30 da bd 26 1c 0e 3e
       -0.02693831 -0.019278908 -0.10653722 0.13877925
000160 12 51 95 3e 9a 1f 83 3d 36 61 b5 3d c7 01 17 3e
       0.29163414 0.06402512 0.08856432 0.14746772
000170 43 91 e1 3d 27 b8 21 3e 1e f6 0d 3e b1 2f b9 3d
       0.110140346 0.15792905 0.13863418 0.090422995
000180 67 74 ce bb 45 22 05 be c4 37 40 be 0b 27 1d bd
       -0.0063004973 -0.13001354 -0.18771273 -0.038367312
000190 c0 35 97 3d 6f fc f3 3d d6 a3 95 bd 7d 41 4e bd
       0.07383299 0.11913382 -0.0730664 -0.050355423
0001a0 43 be 62 bd e7 bd b1 3d 73 d1 9b 3d ec ae c8 3d
       -0.05535723 0.08678799 0.07608309 0.09798989
0001b0 73 f5 1c bf f4 45 4b bf c0 c7 ea be cc 1f fc be
       -0.61312026 -0.79403615 -0.45855522 -0.4924301
0001c0 97 90 da 3d 72 f4 1f 3e 71 85 8a be 61 71 80 3e
       0.106721096 0.15620592 -0.27054933 0.250865
0001d0 5b 1f 78 bd 54 6d 41 3f a2 bd 30 3f c4 77 a8 3e
       -0.060576778 0.75557446 0.69039357 0.32903874
0001e0 7a a3 54 3f e1 0d 90 3f 21 be b0 3e 66 26 65 bd
       0.83061945 1.1254236 0.34520057 -0.055944823
0001f0 ae 7e 88 bd 65 53 e8 3d ca bb e7 be 6c 57 28 bf
       -0.06664787 0.11344031 -0.4526046 -0.65758395
000200 78 8e 33 be 11 33 fd 3d 8d 42 a7 be af 4e 1e be
       -0.17534816 0.12363256 -0.32667962 -0.15459703
000210 e8 fb b3 3e 50 57 35 be 14 d1 52 3e 4d f1 0d bf
       0.35153127 -0.17709088 0.2058757 -0.5544632
000220 d5 eb 7f bf 2d 25 d5 be b1 4b 0a bf 9e 42 d6 be
       -0.99969226 -0.41629925 -0.54021746 -0.418477
000230 f9 ce d9 3d a0 6f 14 3d 19 08 19 3e 53 60 01 3f
       0.1063518 0.036239266 0.14944495 0.50537604
000240 6b 11 64 3d b4 9a 8b bd fd 13 95 3e 5f c1 af 3f
       0.055680674 -0.06816617 0.29116812 1.3730887
000250 58 3e df 3f ab e6 0d 3f 9e cb 10 3e e2 eb 6d 3e
       1.7440901 0.55430096 0.14140174 0.23234513
000260 7b d1 4a be e1 46 a8 bf 4f f1 2d bf 79 79 1b bf
       -0.19806473 -1.314663 -0.6794633 -0.6073223
000270 f4 19 09 be cf 34 29 be 6f c6 a8 3c 24 ed ca 3d
       -0.13388807 -0.16524051 0.020602433 0.09908512
000280 a0 50 88 3d 5c 3b 48 be 2d 36 d0 bc fc 0b e1 bd
       0.06656003 -0.19553894 -0.025416458 -0.10988614
000290 f8 3d ce 3c ed 34 33 bf ce ff 68 be 50 02 57 3d
       0.025176033 -0.70002633 -0.22753832 0.05249244
0002a0 29 c2 fb bd d7 38 97 3d 77 22 05 3e da 64 12 be
       -0.122928925 0.07383888 0.13001429 -0.14296284
0002b0 e9 56 af 3c fd 04 99 3d aa ff 41 bf f0 93 d8 3c
       0.021403747 0.074716546 -0.7578074 0.02643773
0002c0 9d ad 68 3b 30 b1 fc bd 83 ac 3a bd da bb b9 3b
       0.0035503872 -0.12338483 -0.045574676 0.0056681456
0002d0 b9 3e ec bd 68 0c 85 bd e5 f5 9c bc b9 55 e4 be
       -0.11535401 -0.06496507 -0.01916022 -0.4459665
0002e0 ad b9 5c bd cf fb 8a 3e 82 06 be bd 87 bb a2 bd
       -0.05388801 0.2714524 -0.09278585 -0.07945924
0002f0 e7 e0 e5 bc 53 fc e1 bd 90 7c f4 b9 30 93 af 3d
       -0.028061343 -0.11034455 -0.00046632113 0.08572996
000300 ae 75 49 bf 16 d8 56 be 29 73 1e 3d 12 ee c5 bd
       -0.7869519 -0.20980868 0.038684044 -0.09664549
000310 c5 02 af bd ec d4 d7 3d 48 50 df bd 6b 28 20 3e
       -0.0854545 0.105386585 -0.10903984 0.15640418
000320 5a b3 17 3e 36 81 de be 79 26 a9 3d 79 75 bb 3d
       0.14814511 -0.43457955 0.08259291 0.091532655
000330 d2 67 0b 3e e9 05 2d 3e b5 65 d0 3c bd 57 3c 3d
       0.13613823 0.16896786 0.025439123 0.04598211
000340 a4 1c 34 be 0e d0 ae bd c6 ae 40 bf 21 f0 f1 bd
       -0.1758905 -0.08535777 -0.75266683 -0.11813379
000350 be 76 35 3e 4c 96 bc bd 83 77 d6 3c 13 a3 70 bc
       0.17721078 -0.09208354 0.026180035 -0.014687317
000360 d4 b8 d8 3d c9 a1 35 3d f7 a5 c1 3c 8f 33 ba 3d
       0.10582128 0.044343743 0.023638709 0.09091865
000370 39 5b 6c 3c 26 0a 99 3d d0 3a f0 bd 42 65 5b 3d
       0.014426046 0.07472639 -0.117299676 0.053563364
000380 f3 b8 45 3e d4 09 7f 3c 9b 0a f9 bd b3 ac 09 be
       0.19308834 0.015566308 -0.12160226 -0.13444786
000390 99 fd ca b9 a5 2d 46 3e da 05 a8 3d 3a 14 1d 3e
       -0.00038717387 0.1935335 0.08204241 0.15339747
0003a0 e8 0b d5 3d 8a fd 2c 3d 9e b6 0c bd 75 fb bd 3d
       0.104026616 0.04223398 -0.034353845 0.09276477
0003b0 3c d1 7d bd 11 92 bf bd bd 7c 62 3d 2f 7e da bd
       -0.06196712 -0.09354032 0.05529474 -0.10668599
0003c0 4d 9e 16 bd a3 f0 d7 3c f8 4b 19 bd 6e df a4 3d
       -0.03677206 0.026359862 -0.037425965 0.08050428
0003d0 e4 cc 99 3e e1 06 92 3d 30 52 32 3e 1f a0 bb 3d
       0.30039132 0.07130218 0.17414165 0.091614
0003e0 84 b1 2f 3e 58 1d 60 bd c8 6f 1b 3e 58 af 8e 3d
       0.1715756 -0.054715484 0.1517936 0.06967038
0003f0 cc cf 2e be 77 78 46 be 06 19 68 be e1 eb 83 3e
       -0.17071456 -0.19381891 -0.22665796 0.257659

onnx::Conv_43 f4 [64]
000000 14 ba 0a be 61 8e 1e bf 93 82 23 3e 9c 22 b8 bc
       -0.13547546 -0.61936 0.15967779 -0.02247744
000010 e4 c9 0f bf 92 a3 00 bd 60 af 0c 3c 08 26 01 bd
       -0.56167436 -0.031405993 0.0085867345 -0.03153041
000020 f0 ae 24 bc f8 4d 27 3e 6b 60 e0 be f8 1b 75 3e
       -0.010051474 0.16338336 -0.4382356 0.2393645
000030 57 98 3e 3e 20 74 81 3b 6a 5a 70 3d 4c c3 c9 3e
       0.186128 0.0039506108 0.058679976 0.39406812
000040 a9 83 07 3e 98 3f 32 bd 0a df 1e bf 70 96 2f 3c
       0.13233818 -0.04351768 -0.6205908 0.010717019
000050 e6 c2 9b 3e 2a 44 de be 73 75 bc bd c9 60 1f 3e
       0.30422133 -0.4341138 -0.09202089 0.15564264
000060 48 2c b0 bc 17 ba e2 be be c2 aa 3e a0 9a ae bb
       -0.02150549 -0.442826 0.33351701 -0.0053284913
000070 9f 08 84 3d 0b 10 18 bf 1d 74 f3 3d 58 78 e2 3e
       0.06446957 -0.5939948 0.11887381 0.4423244
000080 23 84 6b be f2 f3 66 3e 5a 57 e2 bd ea 1e 7e 3e
       -0.22999625 0.22553995 -0.11051817 0.2481648
000090 f7 33 96 3d e4 c4 da 3d f0 67 ac bc ad 3e b5 3d
       0.0733413 0.10682085 -0.021045655 0.08849845
0000a0 7c e5 31 be 04 43 18 3d 78 2e 6c 3d 33 1d 96 3e
       -0.17372698 0.037173286 0.057661504 0.29319152
0000b0 a0 14 f1 bb 04 2d e2 3d 81 8d 82 3d 5a ea 8a 3e
       -0.007357195 0.11043742 0.06374646 0.2713192
0000c0 8c 8d 48 3d 5c 11 03 bf 2d 9a b6 3d 59 28 05 3f
       0.048963115 -0.51198363 0.089161254 0.5201469
0000d0 81 de 39 3e 95 54 15 bf 5b 48 47 3e c0 dd 47 3c
       0.18151285 -0.58332187 0.19461195 0.012198865
0000e0 3c d5 71 3d 2d d4 9a be 81 d1 1a 3e 55 ed cf be
       0.059041247 -0.30240002 0.15118982 -0.40610757
0000f0 f0 ce 54 bc 40 55 8c 3e 20 74 cb bb 88 96 e8 bc
       -0.012988791 0.2740879 -0.0062089115 -0.028392091

onnx::Conv_45 f4 [128, 64, 3, 3]
000000 72 47 34 be 22 f5 c0 bd 74 2d b0 3d 4c 20 33 be
       -0.17605379 -0.094217554 0.086024195 -0.17492789
000010 02 1c 64 3c 79 fc 1c 3d 3c e1 d1 bd 7a 2f 46 3d
       0.013922693 0.038326714 -0.10248038 0.04838512
000020 89 14 a3 3d 90 c6 81 bc 32 44 46 3d 80 b8 71 3e
       0.07962901 -0.015841752 0.04840488 0.23605537
000030 29 18 ac bd 52 02 f6 bc 2f ea ad 3d 2c 39 c9 bd
       -0.08403046 -0.030030403 0.084919326 -0.09825358
000040 91 50 e9 bc b1 7a 11 3e e7 eb 82 bd cc 66 61 be
       -0.0284808 0.1420696 -0.06392651 -0.2201187
000050 68 98 45 bc 5c f4 28 bc b0 fa 9f be cd 1f c2 bd
       -0.012060262 -0.010312166 -0.31245947 -0.09478722
000060 5d fd 34 bd 67 79 a7 be ad 6b 32 be c6 71 2e 3d
       -0.04418694 -0.3270981 -0.17423888 0.04258897
000070 8e 5f 38 3e e6 75 60 3d 88 70 f5 bb 64 22 91 3d
       0.18005201 0.054799937 -0.0074902214 0.070866376
000080 46 d5 56 3e 74 df 26 bd ab 15 ef 3d 3a 1d 1a 3e
       0.20979795 -0.040740445 0.11674055 0.15050212
000090 d8 7e f4 bc 9f 20 04 ba 94 d2 99 3a 31 5f 17 bd
       -0.02984564 -0.00050402613 0.0011735731 -0.036956016
0000a0 67 54 9b 3e 2b fb e5 3d 1c 6e bc bd 2b aa 06 3e
       0.3033783 0.11229547 -0.09200689 0.13150851
0000b0 42 71 15 bc 38 17 49 bc b6 21 92 bd ae b1 f2 bd
       -0.009121241 -0.012273602 -0.07135336 -0.11850296
0000c0 a7 d4 ea bd 85 10 4f be f3 c7 0a be 51 a0 04 be
       -0.114663415 -0.20221145 -0.13552837 -0.12951781
0000d0 5b f3 46 be 8f 14 fd bd 11 fb 2c 3c 63 61 8c 3d
       -0.1942877 -0.12357437 0.010557906 0.068545125
0000e0 e7 ca 3d 3e 91 95 1c 3d bb 1d e7 bd 81 47 7f bd
       0.18534432 0.038228575 -0.112849675 -0.06232405
0000f0 8c 25 26 be 6f c8 a5 bd 53 e0 56 bd d1 18 8f 3e
       -0.1622526 -0.0809487 -0.052460026 0.2794862
000100 65 f8 c3 bd d3 01 99 bd bc d7 0a be e4 bd e4 3b
       -0.09568862 -0.07471051 -0.13558859 0.0069806445
000110 46 ad c5 be e9 99 10 be 86 45 21 bd 6a 3f f3 bd
       -0.3860876 -0.14121212 -0.039372943 -0.1187733
000120 aa fc bf 3d fb 84 fb 3d b8 45 25 3e e8 58 74 3d
       0.09374364 0.122812234 0.16139877 0.0596551
000130 5b f1 2f 3e 41 a0 ab 3d 63 3e 2a 3d f6 38 82 3e
       0.17181914 0.083801754 0.041563403 0.25434083
000140 86 46 95 bd fd cf 59 be 7a f7 66 be 5c 8a 17 be
       -0.07288842 -0.21270747 -0.22555342 -0.14798874
000150 de f7 33 be 51 4e a9 be a6 11 06 be d6 3c 79 bd
       -0.17575023 -0.33067563 -0.1309267 -0.060849033
000160 2b 80 4f be 99 a1 dd 3b 47 c6 ad 3c 04 62 15 bd
       -0.20263736 0.0067636487 0.02121271 -0.036470428
000170 01 33 6f bb 2e be 6e 3d ab 78 2c 3e 30 34 96 3d
       -0.0036498907 0.05828684 0.16842906 0.07334173
000180 f2 72 a6 bd 26 ec 25 3d 74 87 b3 3d 99 5f 25 bd
       -0.08127393 0.04050841 0.0876607 -0.040374372
000190 fc 42 35 be c1 e8 c2 bc 24 3b d8 bd 0e 48 ba bd
       -0.17701334 -0.023792626 -0.10558155 -0.090957746
0001a0 04 cd 34 be b1 1d cc 3c a7 9d 93 bd 3c a9 88 bd
       -0.17656332 0.024916502 -0.07207804 -0.06672904
0001b0 35 49 8a 3c 40 5c 12 bd 0f c8 cc bd 31 b5 f9 3d
       0.016880611 -0.035732508 -0.09999096 0.12192763
0001c0 d5 c1 68 bd e8 de 08 be bb 33 c2 3d 7e d3 27 be
       -0.056825478 -0.13366282 0.09482523 -0.16389272
0001d0 e0 16 14 be 71 37 d0 3c 90 b7 81 bd 4e 8e 87 be
       -0.14461851 0.025417062 -0.0633384 -0.26475757
0001e0 a3 2d 2b 3e 49 6f 9d bd 1e 53 02 be 5d 37 dc 3d
       0.16716628 -0.076872416 -0.12727019 0.10752747
0001f0 ed bb 59 3d 58 d9 5f 3b fd 0d ab bd 86 a7 8d be
       0.053157736 0.0034156647 -0.083522774 -0.27666873
000200 bd 81 35 be d5 70 8f 3c 33 81 12 bc aa ba 1e be
       -0.17725272 0.017509857 -0.008941936 -0.15500894
000210 0c 8b 28 bd 97 2b 37 be b8 3c 6e be d8 78 6e 3d
       -0.04114823 -0.17887722 -0.2326535 0.058220714
000220 a7 30 17 be a7 ec d3 bd 06 65 82 3c ad a8 48 be
       -0.14764653 -0.10347872 0.015917312 -0.19595595
000230 07 fe 35 be ff c9 f9 bc 7b 41 54 3d ac 15 c9 3d
       -0.17772685 -0.030491827 0.05182026 0.09818587
000240 ba a7 fc bc 9e 9a c0 3d 07 24 9d 3d b7 27 f0 bd
       -0.030841697 0.09404491 0.07672887 -0.11726325
000250 57 e9 09 bd 02 a4 19 3e 4a 93 1c 3d 27 73 80 3c
       -0.033669796 0.1500397 0.038226403 0.015679909
000260 64 2a 8b 3c fb f0 99 3c fe 0b 1a 3e 71 d2 02 bd
       0.016987987 0.018791666 0.15043637 -0.031938974
000270 af cb 29 be e6 d8 37 bd da 12 01 bd 26 6f bd bd
       -0.16581605 -0.044884585 -0.03151212 -0.092497155
000280 07 74 9d bd 82 21 46 bd e2 e6 1e bd 04 40 f5 bd
       -0.07688146 -0.0483718 -0.038794406 -0.11975101
000290 6b 1a fc bc c9 6f 6d 3d 5d 46 a2 3d 02 e7 4f bd
       -0.030774316 0.057967935 0.07923577 -0.050757416
0002a0 be 2d 41 3d 7d 05 3f bd e5 8a 5a 3d 1f 64 cd bc
       0.047162764 -0.046636093 0.053355116 -0.025072156
0002b0 15 99 01 be 25 97 30 be 97 c9 16 3e ec 49 5c be
       -0.12656052 -0.17245157 0.14725338 -0.21512574
0002c0 e4 88 98 bd ce 14 30 bc db d2 f6 bd 48 4a 02 be
       -0.07447985 -0.010747148 -0.12051936 -0.12723649
0002d0 a1 1f 0e bd fc 05 97 bd d7 d1 01 be 50 77 b0 bd
       -0.034698132 -0.07374188 -0.12677704 -0.08616507
0002e0 75 b3 c6 bd 3f c8 5a bd 96 75 78 3d 96 5a a6 3d
       -0.097021975 -0.053413626 0.060659014 0.08122747
0002f0 56 f0 49 3d eb 57 d2 bb 8b 08 41 bd 79 1e 79 3c
       0.049301468 -0.006419172 -0.047127288 0.015205019
000300 e3 9f 7c 3d ee c9 43 3b f4 b2 ae bc 4a 7e 50 bd
       0.061675917 0.0029874998 -0.021325566 -0.05090169
000310 2f 81 8f bb 46 ca 2a 3d c5 a0 e4 3b 5d 4e 0a bd
       -0.0043794136 0.04169681 0.006977173 -0.03376614
000320 06 68 ff bd f4 a7 df bb 79 2c 0b be 54 24 ac be
       -0.12471013 -0.0068254415 -0.13591184 -0.33621466
000330 e8 82 02 bd fc ac d4 bd da 64 29 be c0 34 c8 3d
       -0.031863123 -0.10384557 -0.16542378 0.09775686
000340 8b d1 14 3e e6 ee 42 3e fe ce a2 3c e0 42 fb 3c
       0.1453306 0.19036445 0.019874092 0.030671537
000350 69 12 00 be 49 c1 09 3e 9c dd d1 3d 0a e3 39 3d
       -0.12507023 0.13452639 0.10247347 0.045382537
000360 ec ca c1 3c 69 a3 02 3e 89 57 aa 3d f4 e6 82 3e
       0.023656331 0.12757649 0.08317477 0.25566828
000370 1e 6d fa bc b3 d7 58 be 43 17 e2 bb 21 02 6f 3d
       -0.03056961 -0.21176033 -0.0068997457 0.05835164
000380 b7 9d 0f be 42 20 9f 3d 35 67 9b bc 51 ad c6 3d
       -0.14025007 0.077698246 -0.018970111 0.09701026
000390 c7 8b 65 bd bb 2f 7b 3e 38 40 e8 3d 0a 44 d5 bd
       -0.056041505 0.24529926 0.11340374 -0.10413368
0003a0 4c 25 0f 3d 55 8a 75 3d b0 7d eb bd 1f 91 cc 3d
       0.03494768 0.059946377 -0.11498582 0.09988617
0003b0 93 c2 0f be 52 03 b8 bc 7f b3 bb bd dd fe a5 3d
       -0.14039068 -0.02246252 -0.091650955 0.08105252
0003c0 c4 e1 a5 3d cc 22 71 bd b2 9a 0a 3e 94 c3 3f be
       0.08099702 -0.058871076 0.13535574 -0.18726951
0003d0 c0 1c 1b be 9e 4d 82 3d 5f 1c 72 3e 67 5f c7 3d
       -0.15147686 0.063624606 0.23643635 0.097349934
0003e0 ae f9 8b bd 19 39 0e bd 11 ec 96 3d 1d 08 cb bd
       -0.06834732 -0.03472242 0.07369245 -0.09913657
0003f0 9e bc f6 bb 9f ed e0 bc 86 8f 25 be 28 86 41 bc
       -0.007529809 -0.027457057 -0.16168031 -0.0118117705

onnx::Conv_46 f4 [128]
000000 92 34 ee 3f e0 a5 13 bf cd ad 6b be e8 63 a6 ba
       1.8609793 -0.5767498 -0.23015518 -0.0012694569
000010 6a 1c 55 bf e0 bb 4c 3e 43 06 83 bf c8 63 df 3e
       -0.8324648 0.19993544 -1.0236286 0.43630815
000020 f2 d7 3b bf b4 81 79 3f 2c 77 71 40 36 75 01 3f
       -0.7337638 0.97463536 3.7728987 0.50569475
000030 54 e4 e5 be 46 be 23 3f 5c 6f cf bd c6 a9 4c bf
       -0.44900763 0.6396221 -0.10128662 -0.79946554
000040 80 c3 78 bf e8 70 cd be eb d5 a7 be fb 9f 4c 40
       -0.9717331 -0.40125203 -0.32780394 3.1972644
000050 b2 fb e4 bf 1e e4 87 3f 09 67 50 40 a3 d3 2b 3f
       -1.7889311 1.0616491 3.2562888 0.67119807
000060 a4 17 45 bf 47 24 e0 3e 58 14 3c 3d 68 5c 2c 3f
       -0.769892 0.43777677 0.04591784 0.673285
000070 34 02 35 3f 93 4e 0a 3f 76 a7 0d 3e 6c d3 5c 3d
       0.70706487 0.54026145 0.13833413 0.053912565
000080 88 15 94 3d 70 f6 2d bd 86 2f 65 3f d0 44 f3 bc
       0.07230669 -0.04247135 0.8952564 -0.029695898
000090 76 23 e2 3f 10 d8 f9 3e 74 65 42 3f 44 f3 5a 40
       1.7667072 0.48797655 0.75936055 3.4210978
0000a0 af 56 2b 3f 0c 6f 70 3f 74 a8 87 3f 02 a6 ef 3f
       0.66929144 0.93919444 1.0598283 1.8722537
0000b0 ef 33 b7 bf 40 f5 c1 3b fb 84 b6 3f 80 d7 e4 3f
       -1.4312724 0.0059191287 1.4259332 1.7878265
0000c0 4e a2 ad 3e 3c 9f 5a 3e 90 af df 3e 76 78 c2 be
       0.3391289 0.21349806 0.4368863 -0.3798253
0000d0 c0 05 86 3f 26 48 8d 3f 18 cc 6c 3d 20 18 79 3f
       1.0470505 1.1037643 0.057811826 0.97302437
0000e0 86 c6 48 3f b4 1c 1e 3f a0 b2 6e 3e 8d 24 a5 bf
       0.7842792 0.6176255 0.23310328 -1.290178
0000f0 f0 1a 03 3e a0 18 4c be ba 9a a1 bf d6 87 4a 3f
       0.12803245 -0.19931269 -1.2625344 0.7911352
000100 78 e7 ee 3d 66 8d 3a 3f c4 07 6d bf 58 10 d8 be
       0.11665243 0.72872007 -0.92589974 -0.4219997
000110 77 d8 1d bf 5a d5 2c bf 70 88 ab be 88 5e 1e 3e
       -0.61658424 -0.6751305 -0.3350253 0.15465748
000120 74 36 e2 3d e0 84 e4 bc a9 42 a2 3f f7 aa f8 3f
       0.11045542 -0.027895391 1.2676593 1.9427174
000130 10 09 36 3f 94 86 2d be 58 43 79 3e e0 a6 1f 40
       0.7110758 -0.16945869 0.24342096 2.4945602
000140 9a f2 5b 3f 94 76 fa be 0a a3 95 bf 5e 50 2b bf
       0.85917056 -0.48918593 -1.169038 -0.66919506
000150 e7 55 b8 3e d5 ed 97 3f ea 2e 53 3f 50 a4 ee bf
       0.36003038 1.1869456 0.8249346 -1.8643894
000160 aa 04 86 3f 90 3d 18 40 77 83 c3 3f 54 67 b2 bf
       1.0470173 2.3787575 1.5274495 -1.3937783
000170 80 5d 32 bf 2b 6e bc bf cb 1e c1 3f 93 99 0a bf
       -0.6967392 -1.472112 1.5087522 -0.54140586
000180 09 7f af bd 50 d0 f1 bd 0d be c9 be 6c 59 b2 3f
       -0.08569152 -0.118073106 -0.3940281 1.3933539
000190 67 cd b0 be ca ab f9 3f 51 1b ed be a3 40 4e 3f
       -0.3453171 1.9505551 -0.46309903 0.8056738
0001a0 16 69 cc 3e eb 73 da 3e 9d 31 3e 3f 48 6a 1c 3f
       0.39923924 0.42666563 0.74294454 0.6109967
0001b0 41 bf 59 3f fe db bb bf 6a 93 80 3e f0 9f 10 3f
       0.85057455 -1.4676511 0.25112468 0.56494045
0001c0 60 95 c6 3f d3 5f 15 c0 5e ae 4b 3f 67 4d f4 3f
       1.5514336 -2.3339736 0.7956294 1.9086121
0001d0 a6 16 21 3f fe d7 0b c0 d7 4a f7 bd a3 4b 27 3f
       0.62925184 -2.185058 -0.120748214 0.6534979
0001e0 7a e6 99 bf bf 7a af be c6 57 2d 3f 24 a8 a4 3f
       -1.2023461 -0.34273335 0.67712057 1.2863812
0001f0 ae d5 52 be 92 1f a1 3f a4 61 16 3d fc 6b 0b 3f
       -0.20589325 1.258776 0.03671421 0.54461646
